trained_wrsn_agent.pth (torch, 689842 bytes, 24 tensors)

fc1.weight f4 [128, 161]
00000000: f57b 323b 2445 3fbd db5c aabd 1840 91bc
00000010: 327d b6bc 5b81 cf3d 00a9 44bd a563 823d
00000020: 1d37 4b3d 7998 02bd 868e aebd ea35 52bd
00000030: 54fb 9dbd abb8 813c 6b00 abbd 8617 093d
00000040: e7a2 313c d2d7 89bc 0611 213d 6075 313d
00000050: 7b5e e6bc 245c 3a3d 693c adbd 5a79 16bd
00000060: e6e2 09bd 4d07 e7bd 9109 5ebd 436c 193d
00000070: 26a3 293c 731b 62bd ef51 cebd 00f6 76bb
00000080: 32a3 103d 492b 243d 8e9c cfbd 5be2 02bd
00000090: ae52 74bd b5c8 9b3d 6061 c4bd c053 93bd
000000a0: 6048 b5bd 970f f93c e2b3 89bd efc1 83bd
000000b0: 917c 4a3d 5b33 543d e1dd fabc 7cbb b53d
000000c0: 0d5c b73c c603 433d f4e0 8ebd 3549 9bbd
000000d0: cebf 30bd b170 dabc 91c5 b23c ced4 b3bd
000000e0: 5e12 1838 a725 f93c d69a 333a 6a7f 75bd
000000f0: 6926 943c fb77 f6bc bc4f 083d 4c1e 06bd
00000100: de60 113d 8a83 48bd f175 03bd bb8e 1abd
00000110: 3ea6 34bb b7f7 67bd 44bd ccbd c1a4 b7bd
00000120: 9e40 54bd b7fb 2bbd fbfd 03bd 306c 203c
00000130: 2721 42bd a2c6 80bd 0c18 1e3d 3010 033d
00000140: 9d6d ba3c 6033 e63b 1c24 a43b d9ab 0cbd
00000150: f9dc b83c cc4d 3a3a 86ae 91bc bd18 08bc
00000160: 5c1e 96bd 2086 3ebd b1b3 87bd f411 9c3d
00000170: ad56 63bd 7641 6d3d b7dc 5cbd 71ed 92bd
00000180: b5f1 0dbd 1c4e 863c bddd acbd e6d4 1fbd
00000190: 2cc5 1ebd cdb4 a13d eb69 69bd 9184 8bbd
000001a0: 933f bcbd 6f17 b2bd 85be 5dbd 2d69 853d
000001b0: d63f 353d 069e 78bc c797 aa3c 1623 c3bc
000001c0: ced9 123d bcab 943c 1a51 f13b d0f4 363d
000001d0: 9c57 893a 464f 9d3c 4ef5 bfbc 4a80 63bd
000001e0: feae 2a3d b07a 8c3c bff1 8bbd 8792 bdbd
000001f0: 06e2 7b3c 658b 673d 6c4e 09bd 0409 b93c
00000200: 0ac5 70bd 1b81 a6bc a4a6 173c 0095 9c39
00000210: f347 a8bc bb06 783d 129f 2c3c 34b2 9cbd
00000220: ee08 80bd 3443 ed3a 8b9d 633d 7f26 26bd
00000230: 3922 9c3c 35e7 a1bc 9944 07bc aa3f 423d
00000240: 7298 2e3d a8ed c0bd dd80 023b 80d9 ebba
00000250: da5e 1e3c 648c f9ba 2d69 c0bd 8c05 013d
00000260: e39b 1bbd d200 d5bd 4bbf 043d 8851 03bd
00000270: 40a3 b5bd 2731 adbd a4d8 9cbb 09d3 89bd
00000280: 1d70 b13c d860 353e eee6 173d 4ecc 4b3e
00000290: 8905 72bd 301b e93d 80ca 43bc 6395 f23d
000002a0: e22f 303f 7047 273d 0111 c8bc 7084 843d
000002b0: b57b 203c e295 413e 69de bf3d c3ae 193e
000002c0: 76e5 b5be e2f9 293d f667 933b 268e b93d
000002d0: 9ccd 333d de6a 2c3e 68d6 103e 1889 5c3d
000002e0: ec6b 263e 44ac 3f3e 7366 f43d a7f8 de3d
000002f0: 971c bb3e 3997 063e 7e50 4e3a 9391 b83d
00000300: 9672 b03d 9276 9a3d f7c0 073e 26ed 973d
00000310: 2e3b 4a3d 5ed2 e83d b3c9 8ebd caf8 db3d
00000320: fb13 0a3f 36dd 143e e4c6 9a3d ef5d ba3d
00000330: ee25 38bd a2f4 c03d 4923 16bd ee6f 7c3d
00000340: ac88 0dbd 4618 853d a584 643d ab70 983d
00000350: 6ea0 0bbe 6cbc 183e 62fc ebbd 9104 3d3e
00000360: 9ebe a63e 7ec6 213e 8ee5 f83c f43e 563e
00000370: fed1 0a3e 2e44 ca3d 259a db3a 5ce3 243e
00000380: 195c 423f 72f3 983d 8056 d33d 7ea0 213e
00000390: cb4d d63d ac8e da3d fce4 b13d 677a 0c3e
000003a0: bd5e 92be 2cff a63d 6478 043d ab85 483e
000003b0: 61e3 4c3e eea0 e73d 11aa 743d 6ae2 333e
000003c0: 5359 b33d 001e da3d b40f 173e e4bf 3d3e
000003d0: be6c 9abe ce80 803d 1c1c f4bb b896 b23d
000003e0: 3bc8 adbe 0817 583d 4668 51bc b86a 2a3d
000003f0: ce1f 463e 322a e73d 11f8 a73c 7e9a 0b3e
0.0027234529 -0.046696797 -0.08318492 -0.017730758 -0.022276495 0.101320945 -0.048012733 0.06366662
0.049613107 -0.03188369 -0.08523278 -0.051320948 -0.07713953 0.015835127 -0.08349689 0.0334697
0.010842062 -0.016826544 0.039322875 0.04332483 -0.028121224 0.04549803 -0.08458788 -0.036736824
-0.033663653 -0.112806894 -0.054208342 0.037456762 0.010353839 -0.05520196 -0.10074221 -0.0037683249
0.035311885 0.040080342 -0.10137282 -0.03195415 -0.059649162 0.07606641 -0.09588885 -0.071937084
-0.08851695 0.030402942 -0.06723763 -0.06433474 0.049435202 0.05180679 -0.030623378 0.088736504
0.02238276 0.04761102 -0.069765 -0.075823225 -0.04315167 -0.026665064 0.021822723 -0.08780824
3.625673e-05 0.030413462 0.00068513805 -0.059935965 0.018084722 -0.030086508 0.033279166 -0.032743737
0.03549277 -0.04895357 -0.0320949 -0.037733775 -0.0027564908 -0.056632724 -0.09997037 -0.08966971
-0.051819436 -0.0419881 -0.032224637 0.009791419 -0.047394898 -0.06287886 0.03859715 0.03199786
0.022757346 0.0070251673 0.0050091874 -0.034343574 0.022566305 0.00071069296 -0.017783415 -0.008306679
-0.07330009 -0.04651463 -0.0662607 0.07620612 -0.055502582 0.057923757 -0.053921428 -0.071741946
-0.034654338 0.016394667 -0.08440731 -0.039021395 -0.038762257 0.07895813 -0.056985777 -0.068123944
-0.09191813 -0.08695876 -0.05413677 0.06514201 0.04425033 -0.0151743945 0.020824326 -0.023820441
0.035852246 0.018148296 0.0073644044 0.044667065 0.001047838 0.01920284 -0.0234324 -0.055542268
0.04167079 0.017148346 -0.06833219 -0.092564635 0.015373712 0.05652942 -0.033522055 0.022587307
-0.05878166 -0.020325234 0.009256039 0.00029865652 -0.02054212 0.060553294 0.010535972 -0.07651177
-0.06251703 0.0018101693 0.055570167 -0.040564056 0.019059287 -0.019763568 -0.008256101 0.047423996
0.042625852 -0.09420329 0.0019913234 -0.0017993897 0.009666169 -0.0019039032 -0.09395061 0.03149943
-0.037990462 -0.10400547 0.032408994 -0.032060176 -0.08869028 -0.08456641 -0.0047865678 -0.06729705
0.021659905 0.17712724 0.037085466 0.19902155 -0.05908731 0.11382139 -0.011950135 0.118448995
0.68823063 0.040839612 -0.02442217 0.06470573 0.009795119 0.18904832 0.09368593 0.15008073
-0.35526627 0.041498072 0.004498477 0.09060316 0.043897256 0.16837642 0.1414429 0.05384168
0.16252106 0.18718058 0.11933603 0.108872704 0.3654525 0.13143624 0.00078702706 0.09012141
0.086156055 0.07542147 0.13257204 0.07418279 0.049372844 0.11368249 -0.06972065 0.10740812
0.5393674 0.1453751 0.075574666 0.09099948 -0.044958048 0.0942166 -0.036654744 0.061630182
-0.03455417 0.064987704 0.055790562 0.07443365 -0.13635418 0.14915627 -0.115227476 0.18458773
0.32567304 0.15798375 0.030382898 0.20922452 0.13556668 0.098762855 0.0016754313 0.16102356
0.7592178 0.074683085 0.10319233 0.15783879 0.104640566 0.10671744 0.086862534 0.13718568
-0.28587905 0.08154139 0.032341376 0.1958224 0.20008613 0.11309992 0.0597325 0.17566839
0.087572716 0.10650253 0.14752084 0.18530232 -0.3016109 0.062745675 -0.00744964 0.087201536
-0.33941826 0.05275634 -0.012781208 0.04160568 0.1934807 0.11287345 0.02050403 0.13633153

fc1.bias f4 [128]
00000000: 3d58 a0bd 91a3 1d3e 2a40 c9bc 52df 513d
00000010: c99f d73d db96 b93c 362a 8e3d eb16 f9bc
00000020: 0b47 c73c cc25 f93d a464 403e 6ea7 003e
00000030: f01b 493c 4f15 01bd 601a 103d 8087 84bc
00000040: ebc3 213e 9c0b e03d ae67 583d 657a 77bc
00000050: 7999 d53c 752d f53d 3852 fb3d 1932 8abd
00000060: 8b3d 97bd a84f 7fbc 9301 ac3d 9ca9 f73c
00000070: d2ba 5e3c 2643 2e3d c4f2 853d 1cd6 7cbd
00000080: 08ec 0e3c 140f 923e 098a 233b 3d36 7fbc
00000090: 8a65 1e3d f52b a83d c045 2c3d 5b94 3b3d
000000a0: f3b3 edbc ca52 383d ce22 7abd b62a 4d3d
000000b0: 561d 4f3d 297b 60bd 9a06 bc3d 5d80 9abd
000000c0: effb 1fbd ace1 053d de10 0d3d 5ac4 663d
000000d0: 65a0 603d d887 a13c 71a9 c63d db5c 773c
000000e0: d3bd 6a3b ec04 443c a01f f33d 16b5 b1bd
000000f0: ea6e 75bc dfd5 953b 4826 9f3c 570b 7e3d
00000100: 4842 bc3b 0a33 6abd f6ab 93bd 53e2 943c
00000110: 6bea 053d f40d 2a3d c02f 0c3e 2703 54bd
00000120: 8624 0b3e 2866 24bd 0b5b 8f3c 3d0d fe3d
00000130: d95a 9cbd e51d 1c3d c549 8c3d b8f1 ef3d
00000140: 957c 803d 4aec b0bc 5bf4 423d b54d 5c3d
00000150: 580a 863c ee12 e83d d81d 02bc 6a66 3fbd
00000160: bbd5 8dbd a237 83bd 9496 8dbd 29ed b73d
00000170: ac7e d13d 47f5 5b3d aba6 fa3d 6a45 45bd
00000180: 4240 94bd b3a0 77bd cd2a e93d 9ee3 cc3d
00000190: 108a efbb 6244 143d 8b0c 463d d8d1 ab3d
000001a0: 3b08 74bd 29d7 833d 1345 4b3e a3f8 393d
000001b0: d46c be3c f415 4c3e 8c64 233d 9981 a7bc
000001c0: ca43 553d 28cb 3f3c 4198 ed3c cd45 433e
000001d0: 8523 843d bf4a 393d 76b3 bd3d 184c 04bd
000001e0: c64b cdbc d302 453e 5292 ab3c 32aa 2e3e
000001f0: c94b 063d 498c 0e3e c4e5 103e d382 263e
-0.0782933 0.15394427 -0.024566729 0.051238365 0.105285235 0.022654941 0.06941645 -0.030406436
0.024325868 0.12165412 0.18788391 0.1256387 0.012274727 -0.031514462 0.035181403 -0.016177893
0.15797393 0.10939714 0.05283325 -0.015104865 0.026074158 0.11971561 0.12271541 -0.067478366
-0.07384785 -0.015582956 0.08398738 0.030232243 0.013594346 0.042544506 0.065404445 -0.061727628
0.008723266 0.2852713 0.0024954102 -0.015576896 0.038671054 0.08211509 0.042058706 0.04579578
-0.02901647 0.04500083 -0.06106835 0.05008956 0.050565086 -0.054804955 0.09180947 -0.075440146
-0.039058622 0.03268592 0.034439914 0.0563396 0.054840464 0.019718096 0.09700287 0.015097822
0.003581871 0.011964064 0.11871266 -0.086771175 -0.014980057 0.0045726146 0.019427434 0.062022533
0.005745206 -0.05717758 -0.07210533 0.018174326 0.03269426 0.041517213 0.1369009 -0.05176082
0.13588151 -0.040136486 0.017499467 0.12404869 -0.07634515 0.038114447 0.06850008 0.11716026
0.06273762 -0.021597046 0.047596317 0.053785045 0.016362354 0.113317356 -0.007941686 -0.04672853
-0.069255315 -0.064070955 -0.06913486 0.089807816 0.10229239 0.05370071 0.12238821 -0.0481619
-0.07238819 -0.06045599 0.11385117 0.10004352 -0.0073101595 0.036198027 0.048351806 0.08389634
-0.05957816 0.06437523 0.19850568 0.045403134 0.023245253 0.1993025 0.03989081 -0.02044754
0.0520666 0.011706151 0.029003264 0.19069596 0.06452087 0.0452373 0.09262745 -0.03229913
-0.025060546 0.19239359 0.020943794 0.17057112 0.032787118 0.13920702 0.14150149 0.16260843

fc2.weight f4 [128, 128]
00000000: a034 cebb a095 ccbd 0474 ff3c a1bd 12bc
00000010: 08a5 133c 6af8 623d eb0e bebb d8b9 62bd
00000020: c5b8 bfbc d090 61bd b2f7 e2bc 802e 6e3b
00000030: cef7 e2bb 6086 efbb 308a 963b 4f40 ee3c
00000040: d30a 6d3d 600b 953d 823b 4cbd 4d79 e6bb
00000050: 4ac5 133d 00b4 4bbb 9a64 9abc 8b7d 91bd
00000060: 0084 94b8 66c7 5abd eb7d 9fbd e0be 1cbb
00000070: a0a2 463c 6b28 7ebd 44f8 ac3c 1ac6 0fbd
00000080: d2ce 1e3d b0ad 7ebc 6364 12bc 2c54 1fbd
00000090: 626f 163d d579 c1bc 9cb5 8c3c 9024 463c
000000a0: ff1f a73d ecec 45bd cb1a 4cbd 6b78 9b3c
000000b0: f87e 88bd c5fa 753d 5af6 94bc 37d2 903d
000000c0: 6cbc 0fbd 8709 6dbd 4004 b93c 4a8e 463d
000000d0: dbeb 843d 9f52 a63d d6b8 823c b0c3 9cbb
000000e0: 5593 863d 9c3e 96bd c291 9ebb c1ea 8bbd
000000f0: 099a 8fbd d832 d53c 00db cab9 2aa0 5ebd
00000100: e1bd 653d 28a8 063c 8c01 463d e873 febc
00000110: bab2 efbc 62c3 493d 66fc a0bd 2c81 85bd
00000120: 56c3 bcbd f928 aebd 1696 1f3c 774c 0d3d
00000130: 8057 40bb 8660 2fbc 9016 04bc b65e b9bc
00000140: b1ef 843d 1e2a 1b3d d17d a33d 6d68 61bd
00000150: 508e f83b de49 bdbd c848 cfbc 9fee 1d3d
00000160: 9a05 523d f758 b8bd 323d 99bd 90d0 d23c
00000170: 8b86 1abd cfd7 79bd a626 0d3d 26ef 753d
00000180: 87be 913d 7442 a039 d74b c6bd be43 283d
00000190: 06b3 043d e6d4 dcbc 66e6 24bd 634f d3bb
000001a0: 875e a2bd 3dfd 87bb 765a 0e3d 5409 81bc
000001b0: 38ca 7d3c a33c 403d 02ff 45bc dafb 87bd
000001c0: f6e5 713d d037 6fbd 681b a9bd 59cd 9bbd
000001d0: 2df2 83bd 4448 89bd c2c0 473d c2ef a6bd
000001e0: 80c7 363b be3b 8bbd 990d 13bd 4898 113d
000001f0: 333d 523d 4eb4 633d ad5e 2dbd 9c7f fcbb
00000200: 915c 0bbc 6b96 463e dc37 2ebd 21d2 bd3c
00000210: 2f9e 0c3e 389a 3d3e d2cd 153e 476a bfbc
00000220: 7ac1 0b3e 24d0 343e e71b 3a3e 1903 173e
00000230: 65aa aabd 6a1d e3bc 662d fdbc 6841 f4bc
00000240: d520 2b3e 3b4b f33d fcb3 e3bc cef3 2b3a
00000250: 5a3b 383e 4c5d ec3d 220f 583d f360 a03d
00000260: 6ebc 2bbd 040d bc3b fdaa 523d 402b 5d3b
00000270: d340 c2bc 49c5 04bd 5916 25bd 8069 893a
00000280: f7cb 9f3d 645a 7a3d 7a7d 2e3d d63b 56bd
00000290: 674d 533d a33e e53d 1669 8abd 2c22 8dbd
000002a0: 3950 293c ff5b 7fbd 1dfd 2d3e 3b0c 353e
000002b0: ff6e 053d 8010 5bbd e598 273e fef5 c8bc
000002c0: 47d1 373d d40f 673d 3116 4dbd b30c 23bd
000002d0: f9c1 cd3d 206e 0f3c 6f95 813d 0748 833d
000002e0: b2da abbd 5a9d 2b3d eb1a e23d 7bbe 7a3c
000002f0: 9fc7 903d df54 023a be79 1b3d c5ce 3f3e
00000300: 41d7 f93d 3c88 b13c bc09 243d da2a c43d
00000310: 5477 5a3e 9cde 59bd 5c6c 693d 8f3f 8e3d
00000320: 1d6d 003e fd39 f23c 2bf4 c03d 87e5 433e
00000330: 2dc4 903d e7db 883c 42e7 7abd 86f3 0b3e
00000340: 2a4c f9bc dbd2 efbd 513c 78bc e130 343d
00000350: 1788 16bd c59c 593d 0082 443c 04a0 8cbd
00000360: e06f ec3b 07c4 77bd 8a15 af3d a81c 1c3d
00000370: 70c0 343e 01c9 51bc e355 d33d 4ec7 453d
00000380: a1af 8d3c 3ed8 8dbd 6084 5d3d 4e76 b43d
00000390: 409a 9abd 461b 473d 7a0f 343e 4c17 e73d
000003a0: a1fb 753c e903 863c 0d03 ce3d 2d06 23bc
000003b0: d45f e9bc 2a66 383e f3ee b9bd cc5a 823c
000003c0: 6419 0e3e d711 493d 9206 adbd 3f1b 083e
000003d0: 6623 d73d 194c 4c39 04b3 c43d e3ba be3d
000003e0: 7cb0 fa3c fffa 973d 1b99 ec3d aac8 033d
000003f0: 4a9a e83c 2fa2 293e 07a7 413e 6489 fc3d
-0.0062928945 -0.09989476 0.03118325 -0.008956344 0.0090115145 0.055412687 -0.005800118 -0.055353016
-0.023403535 -0.055069745 -0.027706001 0.0036343634 -0.0069265133 -0.00730972 0.00459411 0.0290834
0.05787165 0.0727756 -0.04986144 -0.007033503 0.03607682 -0.003108263 -0.018846799 -0.071040235
-7.081777e-05 -0.053412817 -0.07787689 -0.0023917481 0.012123734 -0.062050264 0.021114476 -0.035101034
0.038771458 -0.01554434 -0.008935067 -0.038898632 0.036727317 -0.023617664 0.017176442 0.012093678
0.081604 -0.04832165 -0.04983024 0.018978318 -0.06664842 0.060053606 -0.018183876 0.07071345
-0.035091802 -0.057870414 0.022585034 0.04847554 0.06490298 0.081212275 0.015957277 -0.00478407
0.0657107 -0.073361605 -0.004839153 -0.06831885 -0.07011802 0.02602522 -0.0003869161 -0.054351963
0.056089286 0.0082188025 0.04834132 -0.031061128 -0.029260028 0.049258597 -0.07860641 -0.06518778
-0.09216945 -0.08503909 0.009740373 0.03449675 -0.002934903 -0.010704165 -0.00806202 -0.02262817
0.0649103 0.037881963 0.07982982 -0.05503123 0.0075853243 -0.09242605 -0.02530326 0.038557645
0.051274873 -0.09001344 -0.07482375 0.025734216 -0.037725966 -0.060996827 0.034460686 0.060042523
0.07116418 0.0003056709 -0.09682434 0.04108023 0.032397293 -0.026956987 -0.040258788 -0.0064486726
-0.07928186 -0.0041500614 0.03475424 -0.015751518 0.015490107 0.046932828 -0.012084724 -0.06639834
0.0590572 -0.058402836 -0.082571805 -0.07607526 -0.06442676 -0.06703237 0.048767813 -0.08151199
0.0027889907 -0.06798504 -0.03590164 0.035545617 0.051327895 0.055591874 -0.042326618 -0.007705642
-0.008505956 0.19393317 -0.04253374 0.023171486 0.13732217 0.18515861 0.14629295 -0.023366107
0.13648024 0.17657524 0.18174706 0.14747275 -0.083332814 -0.027723987 -0.030905437 -0.029816344
0.16711743 0.118795834 -0.027795784 0.0006559462 0.17991391 0.115412325 0.052748807 0.078309916
-0.041927747 0.0057388563 0.0514326 0.0033747703 -0.023712551 -0.03241471 -0.040304516 0.0010483712
0.07802575 0.06112136 0.042600133 -0.052303158 0.05158749 0.11193588 -0.06758325 -0.068912834
0.010334068 -0.062343594 0.16991086 0.17680447 0.032576557 -0.053482533 0.16366918 -0.02453136
0.044877317 0.05641158 -0.05006999 -0.039807033 0.10046763 0.008754283 0.0632733 0.064102225
-0.08391322 0.04189811 0.110402904 0.015304203 0.07069325 0.0004971753 0.0379579 0.1873122
0.121992595 0.021671407 0.040048346 0.09578486 0.21334583 -0.053190812 0.056988105 0.069457166
0.12541623 0.029568667 0.09421571 0.19130526 0.070686676 0.01670642 -0.0612557 0.13667116
-0.030431826 -0.11710139 -0.015151099 0.043991927 -0.03675088 0.053128023 0.011993885 -0.06866458
0.007215485 -0.06048968 0.0854903 0.038113266 0.17651534 -0.012804271 0.10319116 0.048285775
0.01729566 -0.069260105 0.05408132 0.08811627 -0.07548952 0.048609994 0.17584029 0.112837404
0.015013606 0.016359286 0.10059176 -0.009950203 -0.028488077 0.18007722 -0.09078779 0.015912436
0.13876873 0.04908928 -0.08448519 0.13291644 0.105047986 0.00019483305 0.09604457 0.093129896
0.030601732 0.074209206 0.1155264 0.03217379 0.028393883 0.16565774 0.18911372 0.12330893

fc2.bias f4 [128]
00000000: ceed db3c 5adf e73d 8011 013d 4151 c3bd
00000010: 01b4 b6bd caf3 b4bd 1ff8 bebd 24fe bdbc
00000020: 1c66 44bd c164 5a3e 8846 f6bc 5dd4 f23c
00000030: 71c0 b3bd a23d 0bbd e8d5 77bc 2008 113d
00000040: cbd5 7f3d b6f5 623b 3de0 bfbd 1a62 92bd
00000050: f02f 933c cdf8 163e 7838 263e 5c82 053e
00000060: abcc a8bd 704f 2bbc 005b 523d 919d c13b
00000070: 2036 fc3d 28e3 113d 025d 85bd 4bec 693d
00000080: 0418 b8bd 7412 00bd e771 58bd d6be bebc
00000090: dde6 10bc 9c2a 273e 0d6b 0a3d 0105 3ebd
000000a0: b07e 5f3d 4807 aa3d aed5 3dbd ec9b 64bd
000000b0: 3ed3 023c 784b 1abd 9c29 bcbd 8b32 9e3d
000000c0: 6747 023c 5e35 ffbc a05e 313d a8b9 35bd
000000d0: 00b0 13bb 1140 343c 85c1 1a3c e784 893d
000000e0: 91cd 423d b0ab a1bb f36f 8d3d 4282 c93d
000000f0: 5f79 093e 0009 483b 838b 87bd 57ca 2bbd
00000100: 4c8b 323e c153 57bd fe61 11bd f984 4b3e
00000110: 6c56 d73b 7a46 0e3d 5d85 423d 8ac3 5a3e
00000120: 2491 803d 1ffb 5dbd 60c5 b93c c602 923b
00000130: 2fa0 1a3e f07f 873b 22a0 063d de59 6d39
00000140: 6ecf 3d3d e40f 023d 46c6 623d eee4 92bc
00000150: 65d2 ff3d 221f 44bc 09c6 bcbd 94e9 9a3a
00000160: 9440 393e 40a4 88bd 24b2 15bd 4ae2 5bbd
00000170: 4371 3d3d 7bf5 473e 74b9 9b3d a5e4 5a3d
00000180: 6b35 843d a39b f63d f033 0a3e 96fb 1ebd
00000190: 6e40 d73d 4e54 213d 999e 4e3e 99d5 3a3e
000001a0: 8ed1 0c3d fee4 93bd c128 b2bd d93e 49bd
000001b0: e46f 05bc 0cf0 94bd 5681 5a3d 1c89 b4bd
000001c0: 87ef 083d 0938 843d 8fd7 0c3e ce95 ac3c
000001d0: 5433 723d 02bb 26bd eb2f cf3c a447 353e
000001e0: 7bd2 523e 9719 883c 6823 acbc f077 55bd
000001f0: f497 ad3d 9d46 50bd 0d67 8d3d 7e9e 273c
0.026846793 0.11321898 0.03151083 -0.09536982 -0.08921052 -0.088355616 -0.09324669 -0.023192473
-0.04794894 0.21327497 -0.030062929 0.029642278 -0.0877694 -0.033994325 -0.015126683 0.03540814
0.06245975 0.0034631318 -0.09368942 -0.07147618 0.017967194 0.14743347 0.16232479 0.1303801
-0.08242162 -0.010455951 0.051356316 0.005908676 0.12315011 0.035617024 -0.065118805 0.057110112
-0.089889556 -0.0312676 -0.052843 -0.023284357 -0.008844105 0.16324848 0.033793498 -0.04639149
0.054564178 0.0830217 -0.04634636 -0.05581276 0.007984934 -0.03766963 -0.09187624 0.07724484
0.007951594 -0.031153377 0.043303132 -0.04436651 -0.0022535324 0.011001603 0.009445553 0.06714802
0.047559325 -0.004933797 0.06906118 0.09839298 0.13425206 0.0030522943 -0.066184066 -0.041941013
0.1743595 -0.05257011 -0.035493843 0.19874944 0.0065715816 0.03473518 0.047490466 0.21363655
0.062776834 -0.054194566 0.022677124 0.004455897 0.15100168 0.0041351244 0.03286756 0.0002263556
0.0463404 0.031753436 0.05536487 -0.017931428 0.124913014 -0.011970313 -0.0921746 0.0011818879
0.18091041 -0.06671953 -0.03654684 -0.053682603 0.046250593 0.19527237 0.07603732 0.05344071
0.06455501 0.12041404 0.13496375 -0.03881415 0.10510336 0.03938704 0.20177688 0.18245544
0.034379534 -0.07221411 -0.086991794 -0.0491322 -0.008144353 -0.07272348 0.053346 -0.08815214
0.033431556 0.06456 0.13754104 0.021067526 0.05913098 -0.04070569 0.025291404 0.1770311
0.20588104 0.016613765 -0.021012977 -0.052116334 0.084762484 -0.050848592 0.06904421 0.010230659

out.weight f4 [41, 128]
00000000: d0fd 5bbc 6a16 cb3c 18c8 6bbd d581 333e
00000010: c06b 64bc 7efa 11bd 069a 263d 7a5d 553d
00000020: bcfc e43c 8fba 953d 8102 8c3d 39f2 36bd
00000030: af4e a4bd aca2 82bd 4813 61bd 5c7c 55bd
00000040: a0c1 7a3b 3561 a83d 58fa 00bc 1ca5 a03c
00000050: a764 893d 2ffd 443d db8c 193e 1f52 f23d
00000060: a217 233d 7041 59bd 01c0 54bd 9fdb 5fbd
00000070: 5dd7 b33c 2867 0cbc 4ce4 b3bc e413 033d
00000080: 3691 c13d 70dc fd3b c6f5 4f3d 403b 3ebd
00000090: fda7 51bd 9ec0 a03d 0560 be3d 168d 38bd
000000a0: e2bc 453d fc88 e13d 11bc 01bd 3027 32bc
000000b0: c9b6 ab3d bd8b 2fbd ece6 c13c ee1f 93bd
000000c0: a028 6f3c f2e5 313d 5857 83bc 1611 47bd
000000d0: 809c 353c 7cab d43c 6525 5cbd a030 fd3c
000000e0: 67b6 9d3d c0b8 fc3a 1305 69bd 27d1 1d3d
000000f0: b7a9 3c3e 20d0 b2bc a4e1 8fbd 7670 693d
00000100: 33c5 c53c 3c1f 24bd 7b14 42bd 2f7b 0d3e
00000110: f3a3 803d 981e c73c d475 fe3d d2a5 6d3d
00000120: 30fc 773c 403d 113c fa7a acbd e7d8 e63d
00000130: c337 b23d a607 663d 2e51 77bd e259 4d3d
00000140: 772e 983d 93fe 2ebd 604e 9e3c 0e66 72bd
00000150: e0dc c63d f83a 35bc 083d 1bbc e82e 8c3c
00000160: 6921 b73d 33f7 59bd 4b61 b63d 4284 7c3d
00000170: 9be7 16bd 6008 3d3e 53f3 8b3d 7e5b 343d
00000180: 50b9 ee3b 5b43 ab3d fc7c 063e 983b d3bc
00000190: b407 263e 8026 0a3d aff2 8e3d e7f3 2a3e
000001a0: 91af 4dbd c045 3f3b 300d 87bc d41a 54bd
000001b0: 50d5 91bb 348f f93c 2b52 b03d 939a 263e
000001c0: 6d98 883c 0a42 a9bd 7cfa 033e af20 9d3d
000001d0: d0cd 09bc 359d 6abd 9cdb 89bd 190b 353e
000001e0: 2a89 423e bcd4 bb3c d002 6c3c 7a8d 663d
000001f0: fcaa 0b3e 0060 193a fa46 5f3d 06b7 543c
00000200: 27dc 803d c113 a63d 4ad5 4b3d 34fd 163e
00000210: 86d2 393d 10dd 433c 80fe 33ba ccb2 6abd
00000220: 73a5 4fbd 3e94 703d 4016 033d cb10 b0bd
00000230: d490 b93c d0d4 91bc de2a 1b3d 683a 9abc
00000240: 537f a0bd 7bc0 8b3d 5875 86bc cce6 95bc
00000250: 6a38 8abd 5212 2f3c 1c26 143e 0c67 0e3e
00000260: f516 893d fab2 2c3d 6561 90bd f394 b2bd
00000270: fa32 a33d 5476 073d a1f5 ae3d 7d15 d13c
00000280: b102 02bc be1e 423d 9dab 8c3d 7668 51bd
00000290: a577 a13d f259 a43d 168d 983d ea3d 97bd
000002a0: a687 d7bc bf93 343d e0e0 4d3b 4828 dc3c
000002b0: 0064 10b9 4e86 163d 98c5 f0bc caf1 6b3d
000002c0: 3f70 813d f7a7 b3bd 55d1 893d 0672 0c3d
000002d0: d3aa 86bd 7f4b 35bd 848e c4bc 3e2d 8bbd
000002e0: 3f3d 56bd 2770 a63d a266 6e3d 75f4 163e
000002f0: 360d 4d3c 0edb 79bd 0021 87bd 2478 dbbc
00000300: 7510 253e f222 563d 9e43 663d 24af 2f3e
00000310: b5da 9e3d 8fd1 9c3d e06b 163e 515c e73c
00000320: dc3a b3bd 5d5a 993d f08c afbc b98e 193e
00000330: a30f b93d 0c69 a0bc 0ca2 48bd b6bb 523d
00000340: d466 5dbd d0d3 943c 929b 103d 2861 463c
00000350: f81a 2b3d a8fd 02bc 7061 5b3c a19b ad3d
00000360: 5e60 1b3e 33b5 98bd 1641 eabc 6d1a ae3d
00000370: c0f8 193b c969 1b3c 0c2e 16bd eb94 953d
00000380: 6630 043d 3c72 093d ddfa e63c 9447 a33c
00000390: eea3 533d 986f 74bc 7e5b e73d 81fc c73d
000003a0: e012 d0bb 8ea0 533d 1860 edbc e99a 8f3d
000003b0: 7232 273d 9597 af3d f3df 8a3d 0e5e 093e
000003c0: 9c4d bc3d c804 7d3c 466a 2f3e 8241 513d
000003d0: 8f54 b03d 864b 713d 46c3 a2bd 8f62 393e
000003e0: b0a5 173e fe70 a1bd 9839 ee3c a057 86bd
000003f0: 4d97 193e de54 afbd 7d47 9abd 5530 ae3d
-0.013427213 0.024790961 -0.05756387 0.17529996 -0.013941705 -0.03563928 0.040674232 0.0520911
0.027952544 0.07310974 0.06836415 -0.044664595 -0.0802282 -0.063786834 -0.05495003 -0.05212055
0.0038262382 0.08221666 -0.007872187 0.01960998 0.06708651 0.048093017 0.14995138 0.118320696
0.03981746 -0.05304092 -0.05194092 -0.054652806 0.02195328 -0.008569516 -0.021959446 0.03200139
0.09451525 0.0077472255 0.050771497 -0.046443224 -0.051185597 0.07849239 0.09295658 -0.045056425
0.048275836 0.11012456 -0.031673495 -0.010873601 0.08384473 -0.042857874 0.023669682 -0.071838245
0.014597088 0.043432184 -0.01603286 -0.04860028 0.011084676 0.025960676 -0.0537466 0.030906975
0.07700806 0.0019281134 -0.056889605 0.03852954 0.18424116 -0.021827757 -0.070254594 0.056992017
0.024141883 -0.04006885 -0.047382813 0.13816522 0.06281271 0.02430658 0.12424818 0.058019467
0.01513581 0.008864701 -0.084218934 0.112718396 0.08702042 0.056159638 -0.060380153 0.050134547
0.074307375 -0.04272325 0.019324481 -0.05917936 0.09710097 -0.0110614225 -0.009475 0.01711221
0.08941919 -0.053214263 0.08905276 0.06164957 -0.03684197 0.18460226 0.0683352 0.044032566
0.0072852746 0.083624564 0.13133615 -0.025785252 0.16213876 0.033728123 0.06979882 0.16694604
-0.05021626 0.0029185861 -0.01648578 -0.051783398 -0.0044504777 0.030463792 0.08609422 0.16269903
0.016674245 -0.08264549 0.12888521 0.076722495 -0.008410886 -0.05727883 -0.0673134 0.17680015
0.18997636 0.022928588 0.014404967 0.056287266 0.13639444 0.0005850792 0.054511048 0.012983089
0.06291991 0.081092365 0.049763955 0.14745027 0.045366786 0.011954561 -0.00068662316 -0.05729942
-0.050694894 0.058735125 0.03200364 -0.08596953 0.022652067 -0.017801672 0.03788268 -0.018826678
-0.07836785 0.06823822 -0.016413376 -0.01829853 -0.067490414 0.01068552 0.14467663 0.13906497
0.06693832 0.042162873 -0.070498265 -0.08719816 0.079687074 0.03307183 0.08542944 0.025522942
-0.007935212 0.0473926 0.0686867 -0.051125012 0.078841485 0.08024968 0.07448785 -0.07384856
-0.0263098 0.044086214 0.0031414554 0.026874676 -0.00013770163 0.036749177 -0.029391095 0.057603635
0.06320237 -0.08772271 0.0672938 0.03428843 -0.06575551 -0.04426145 -0.023993738 -0.06795739
-0.052304503 0.0812686 0.058203347 0.1474169 0.012515357 -0.060999922 -0.06598091 -0.026790686
0.16119559 0.05227942 0.05621683 0.17156655 0.07756559 0.07657158 0.14689589 0.028242262
-0.08751461 0.074879386 -0.021429509 0.1499585 0.090361856 -0.01958134 -0.048982665 0.051448546
-0.054053143 0.018167406 0.035304613 0.012108125 0.041773766 -0.007995047 0.01338993 0.084769495
0.1517348 -0.07456436 -0.028595489 0.08501134 0.0023494214 0.00948567 -0.036665007 0.073037945
0.03227272 0.033556208 0.028195793 0.019931592 0.051670007 -0.014919184 0.112967476 0.09764958
-0.0063499063 0.05166679 -0.028976485 0.07011969 0.040819593 0.08573834 0.06780996 0.13414785
0.0919449 0.0154430345 0.17130384 0.051087864 0.08609878 0.058909915 -0.07947402 0.18104003
0.14809299 -0.0788288 0.029080197 -0.06559682 0.14999123 -0.08561109 -0.075331666 0.08505312

out.bias f4 [41]
00000000: e432 35bd b28c 443d 6e3f 823c 952c a23d
00000010: f7d9 1a3d 82f6 c33c 7350 1f3e a4d2 c53d
00000020: d40f 003e 9c18 c73d dd1a 623d 31d2 ad3d
00000030: ba6f 2f3e 5133 9f3c dc40 6c3d e25f aa3d
00000040: 8051 383e c192 203e 5f5b c13d 51d5 323e
00000050: 645a 963c 8f1d 633d a857 d73d 193c 473d
00000060: 7648 883d 5a20 173e 6580 fd3d 61e5 c53b
00000070: 2976 0a3e 6807 a9bd baed 033e 0c91 453e
00000080: 032f 413d 9c26 e73d 9522 583d 715d 193e
00000090: 846c 143d 0cff a93d bd76 b3ba c62c ad3d
000000a0: 9ce6 cc3d
-0.044237986 0.04798574 0.015899386 0.079186596 0.037805524 0.023921255 0.15558033 0.09659317
0.12506038 0.09721491 0.0552014 0.084873565 0.17132464 0.01943365 0.057679042 0.083190694
0.1799984 0.15680982 0.09441256 0.17464186 0.018353648 0.05544811 0.10514766 0.048641298
0.06654446 0.14758435 0.12378005 0.006039307 0.13521637 -0.08253366 0.12883654 0.19293612
0.047163974 0.11286661 0.052767355 0.14977051 0.0362363 0.083005995 -0.0013692003 0.084558055
0.10004923

fc1.weight f4 [128, 161]
00000000: f57b 323b 2445 3fbd db5c aabd 1840 91bc
00000010: 327d b6bc 5b81 cf3d 00a9 44bd a563 823d
00000020: 1d37 4b3d 7998 02bd 868e aebd ea35 52bd
00000030: 54fb 9dbd abb8 813c 6b00 abbd 8617 093d
00000040: e7a2 313c d2d7 89bc 0611 213d 6075 313d
00000050: 7b5e e6bc 245c 3a3d 693c adbd 5a79 16bd
00000060: e6e2 09bd 4d07 e7bd 9109 5ebd 436c 193d
00000070: 26a3 293c 731b 62bd ef51 cebd 00f6 76bb
00000080: 32a3 103d 492b 243d 8e9c cfbd 5be2 02bd
00000090: ae52 74bd b5c8 9b3d 6061 c4bd c053 93bd
000000a0: 6048 b5bd 970f f93c e2b3 89bd efc1 83bd
000000b0: 917c 4a3d 5b33 543d e1dd fabc 7cbb b53d
000000c0: 0d5c b73c c603 433d f4e0 8ebd 3549 9bbd
000000d0: cebf 30bd b170 dabc 91c5 b23c ced4 b3bd
000000e0: 5e12 1838 a725 f93c d69a 333a 6a7f 75bd
000000f0: 6926 943c fb77 f6bc bc4f 083d 4c1e 06bd
00000100: de60 113d 8a83 48bd f175 03bd bb8e 1abd
00000110: 3ea6 34bb b7f7 67bd 44bd ccbd c1a4 b7bd
00000120: 9e40 54bd b7fb 2bbd fbfd 03bd 306c 203c
00000130: 2721 42bd a2c6 80bd 0c18 1e3d 3010 033d
00000140: 9d6d ba3c 6033 e63b 1c24 a43b d9ab 0cbd
00000150: f9dc b83c cc4d 3a3a 86ae 91bc bd18 08bc
00000160: 5c1e 96bd 2086 3ebd b1b3 87bd f411 9c3d
00000170: ad56 63bd 7641 6d3d b7dc 5cbd 71ed 92bd
00000180: b5f1 0dbd 1c4e 863c bddd acbd e6d4 1fbd
00000190: 2cc5 1ebd cdb4 a13d eb69 69bd 9184 8bbd
000001a0: 933f bcbd 6f17 b2bd 85be 5dbd 2d69 853d
000001b0: d63f 353d 069e 78bc c797 aa3c 1623 c3bc
000001c0: ced9 123d bcab 943c 1a51 f13b d0f4 363d
000001d0: 9c57 893a 464f 9d3c 4ef5 bfbc 4a80 63bd
000001e0: feae 2a3d b07a 8c3c bff1 8bbd 8792 bdbd
000001f0: 06e2 7b3c 658b 673d 6c4e 09bd 0409 b93c
00000200: 0ac5 70bd 1b81 a6bc a4a6 173c 0095 9c39
00000210: f347 a8bc bb06 783d 129f 2c3c 34b2 9cbd
00000220: ee08 80bd 3443 ed3a 8b9d 633d 7f26 26bd
00000230: 3922 9c3c 35e7 a1bc 9944 07bc aa3f 423d
00000240: 7298 2e3d a8ed c0bd dd80 023b 80d9 ebba
00000250: da5e 1e3c 648c f9ba 2d69 c0bd 8c05 013d
00000260: e39b 1bbd d200 d5bd 4bbf 043d 8851 03bd
00000270: 40a3 b5bd 2731 adbd a4d8 9cbb 09d3 89bd
00000280: 1d70 b13c baa9 2b3e dc68 263d 0fcd 413e
00000290: 9378 94bd d124 d83d 8ead 27bc ed1a e73d
000002a0: d623 153f aa5a 053d 5dbf 68bc e607 5b3d
000002b0: 6e8b 17bd ba1a 393e b647 d13d 7fd9 103e
000002c0: 44c3 9dbe 1c0d 083d d23b 603b 87c5 ab3d
000002d0: ef87 ff3c b6ef 233e 7ee5 0e3e 9e72 453d
000002e0: 2838 013e 1c31 373e 3902 f43d 058c c23d
000002f0: 8505 b03e 2338 fc3d 1ee5 5b3c 7470 a03d
00000300: e857 903d 3380 893d ddb4 0a3e b842 813d
00000310: 0683 7b3d ffdb d73d a7e7 6dbd 294c d33d
00000320: 98bc de3e 0e62 0c3e c045 9e3d e89c aa3d
00000330: 5eba 6ebd 43fe af3d 8731 e5bc f7d8 4d3d
00000340: 64a5 f33c cc43 683d 5f45 713d 74f3 813d
00000350: 2993 89bd 4441 103e d4e2 ccbd 605e 333e
00000360: 6723 693e 564b 193e 3611 033d 2df5 493e
00000370: e6cb 023e cf4d b93d 52f1 f13b 6e8a 213e
00000380: 8dd5 2b3f 13fd 873d 24de da3d 2776 1a3e
00000390: 625f 893d 4d98 c93d 98a1 b23d 19ab 053e
000003a0: 0bc1 93be cd08 963d f421 143d 29cc 3f3e
000003b0: 9871 003e 8faa d63d cd28 813d bbd9 2b3e
000003c0: 3245 963d a127 c93d 9116 173e d842 333e
000003d0: 5241 94be e214 5f3d 8715 af39 e689 a53d
000003e0: 9ae2 94be 422a 363d becd 30bc 6ede 093d
000003f0: cedb 833e d333 d63d 4353 d23c b2fa 023e
0.0027234529 -0.046696797 -0.08318492 -0.017730758 -0.022276495 0.101320945 -0.048012733 0.06366662
0.049613107 -0.03188369 -0.08523278 -0.051320948 -0.07713953 0.015835127 -0.08349689 0.0334697
0.010842062 -0.016826544 0.039322875 0.04332483 -0.028121224 0.04549803 -0.08458788 -0.036736824
-0.033663653 -0.112806894 -0.054208342 0.037456762 0.010353839 -0.05520196 -0.10074221 -0.0037683249
0.035311885 0.040080342 -0.10137282 -0.03195415 -0.059649162 0.07606641 -0.09588885 -0.071937084
-0.08851695 0.030402942 -0.06723763 -0.06433474 0.049435202 0.05180679 -0.030623378 0.088736504
0.02238276 0.04761102 -0.069765 -0.075823225 -0.04315167 -0.026665064 0.021822723 -0.08780824
3.625673e-05 0.030413462 0.00068513805 -0.059935965 0.018084722 -0.030086508 0.033279166 -0.032743737
0.03549277 -0.04895357 -0.0320949 -0.037733775 -0.0027564908 -0.056632724 -0.09997037 -0.08966971
-0.051819436 -0.0419881 -0.032224637 0.009791419 -0.047394898 -0.06287886 0.03859715 0.03199786
0.022757346 0.0070251673 0.0050091874 -0.034343574 0.022566305 0.00071069296 -0.017783415 -0.008306679
-0.07330009 -0.04651463 -0.0662607 0.07620612 -0.055502582 0.057923757 -0.053921428 -0.071741946
-0.034654338 0.016394667 -0.08440731 -0.039021395 -0.038762257 0.07895813 -0.056985777 -0.068123944
-0.09191813 -0.08695876 -0.05413677 0.06514201 0.04425033 -0.0151743945 0.020824326 -0.023820441
0.035852246 0.018148296 0.0073644044 0.044667065 0.001047838 0.01920284 -0.0234324 -0.055542268
0.04167079 0.017148346 -0.06833219 -0.092564635 0.015373712 0.05652942 -0.033522055 0.022587307
-0.05878166 -0.020325234 0.009256039 0.00029865652 -0.02054212 0.060553294 0.010535972 -0.07651177
-0.06251703 0.0018101693 0.055570167 -0.040564056 0.019059287 -0.019763568 -0.008256101 0.047423996
0.042625852 -0.09420329 0.0019913234 -0.0017993897 0.009666169 -0.0019039032 -0.09395061 0.03149943
-0.037990462 -0.10400547 0.032408994 -0.032060176 -0.08869028 -0.08456641 -0.0047865678 -0.06729705
0.021659905 0.16763964 0.040627345 0.1892588 -0.0724956 0.10553897 -0.01023425 0.112844326
0.58257806 0.032557167 -0.014205781 0.05347433 -0.036998205 0.18076602 0.10218756 0.14145468
-0.30813038 0.033215627 0.0034215343 0.08387285 0.031192748 0.16009411 0.13954732 0.04820501
0.12619078 0.17889827 0.119144864 0.09499363 0.3437921 0.12315395 0.013421325 0.07833949
0.07048017 0.06713905 0.13545556 0.06311554 0.06140425 0.10540008 -0.05808225 0.10317261
0.4350326 0.1370928 0.077281475 0.08330709 -0.058283202 0.085934184 -0.027977718 0.050255742
0.02974195 0.05670528 0.058904048 0.06345263 -0.06717522 0.14087397 -0.100042015 0.1751647
0.22767411 0.14970145 0.031998836 0.19722433 0.12773094 0.09048044 0.007383504 0.15775463
0.6712273 0.06640067 0.10686901 0.15084134 0.06707646 0.09843502 0.08722228 0.1305355
-0.28858218 0.07325897 0.036165193 0.18730225 0.12543333 0.1048175 0.0630661 0.16782276
0.07337417 0.09822012 0.14754702 0.17505968 -0.28956085 0.054463275 0.0003339464 0.08082943
-0.29079133 0.044473894 -0.01079124 0.03365939 0.25753635 0.104591034 0.025674468 0.12790945

fc1.bias f4 [128]
00000000: 3d58 a0bd 6928 153e 2a40 c9bc 808c 363d
00000010: 72d0 c73d ac5f 813c 80b6 793d eb16 f9bc
00000020: e01a 903c fae3 e73d 1d2e 383e d9c4 003e
00000030: f01b 493c 4f15 01bd 601a 103d 8087 84bc
00000040: c4e8 193e b1e4 d03d ae67 583d 657a 77bc
00000050: 2d5b 9b3c d4bc e53d 83bd ed3d 1932 8abd
00000060: 8b3d 97bd a84f 7fbc cc57 9b3d 9ca9 f73c
00000070: d2ba 5e3c 2643 2e3d c4f2 853d 1cd6 7cbd
00000080: 08ec 0e3c c35a 8e3e 33ba 2dbb 3d36 7fbc
00000090: 21bc 0d3d 9d5d 9c3d c045 2c3d 5b94 3b3d
000000a0: f3b3 edbc ca52 383d ce22 7abd 354c 303d
000000b0: 561d 4f3d 297b 60bd 6dd3 ab3d 5d80 9abd
000000c0: effb 1fbd f5fc 833d de10 0d3d 5ac4 663d
000000d0: 65a0 603d d887 a13c 9ed8 b63d db5c 773c
000000e0: d3bd 6a3b 1788 f33b e46d e43d 16b5 b1bd
000000f0: ea6e 75bc dfd5 953b 4826 9f3c d062 653d
00000100: 65a3 8ab9 0a33 6abd f6ab 93bd 9b79 3e3c
00000110: da2e e13c f40d 2a3d 55c2 053e 2703 54bd
00000120: 9344 033e 2866 24bd 0b5b 8f3c 79a3 ef3d
00000130: d95a 9cbd 7b93 043d c549 8c3d 9ca6 e03d
00000140: 957c 803d 4aec b0bc 5bf4 423d b54d 5c3d
00000150: 580a 863c 905b d83d d81d 02bc 6a66 3fbd
00000160: bbd5 8dbd a237 83bd 9496 8dbd 330b a83d
00000170: af9f bf3d 47f5 5b3d b79a eb3d 6a45 45bd
00000180: 4240 94bd b3a0 77bd 8fff e03d 1987 bf3d
00000190: 108a efbb 6244 143d ac6e 2a3d afff 9f3d
000001a0: 3b08 74bd 29d7 833d b316 433e d636 383d
000001b0: d46c be3c 24e2 433e 8c64 233d 9981 a7bc
000001c0: 6abd 363d a13b a23b 4198 ed3c ae4a 3b3e
000001d0: 5e43 6a3d bf4a 393d 8150 ae3d 184c 04bd
000001e0: c64b cdbc 8510 3c3e 96b0 643c a31d 273e
000001f0: c94b 063d 5b92 073e 888e 093e eef2 1e3e
-0.0782933 0.14566197 -0.024566729 0.044567585 0.09756555 0.01579269 0.06096506 -0.030406436
0.01759094 0.1132278 0.17986341 0.12575091 0.012274727 -0.031514462 0.035181403 -0.016177893
0.150302 0.101998694 0.05283325 -0.015104865 0.018964374 0.11217657 0.11608412 -0.067478366
-0.07384785 -0.015582956 0.07585105 0.030232243 0.013594346 0.042544506 0.065404445 -0.061727628
0.008723266 0.2780362 -0.0026508688 -0.015576896 0.03460324 0.07635043 0.042058706 0.04579578
-0.02901647 0.04500083 -0.06106835 0.043041427 0.050565086 -0.054804955 0.08389936 -0.075440146
-0.039058622 0.06444732 0.034439914 0.0563396 0.054840464 0.019718096 0.08928035 0.015097822
0.003581871 0.0074319947 0.111537725 -0.086771175 -0.014980057 0.0045726146 0.019427434 0.056002438
-0.0002644315 -0.05717758 -0.07210533 0.011625673 0.02748816 0.041517213 0.13062413 -0.05176082
0.12819128 -0.040136486 0.017499467 0.11701102 -0.07634515 0.03236721 0.06850008 0.10969278
0.06273762 -0.021597046 0.047596317 0.053785045 0.016362354 0.10564339 -0.007941686 -0.04672853
-0.069255315 -0.064070955 -0.06913486 0.08205261 0.09356629 0.05370071 0.11504119 -0.0481619
-0.07238819 -0.06045599 0.10986244 0.0935194 -0.0073101595 0.036198027 0.04160945 0.0781244
-0.05957816 0.06437523 0.19051628 0.04497417 0.023245253 0.19129235 0.03989081 -0.02044754
0.044614233 0.004950956 0.029003264 0.18290207 0.057193153 0.0452373 0.08511449 -0.03229913
-0.025060546 0.18365677 0.013958117 0.163199 0.032787118 0.13239424 0.13433278 0.15522358

fc2.weight f4 [128, 128]
00000000: a034 cebb a095 ccbd 0474 ff3c a1bd 12bc
00000010: 08a5 133c 6af8 623d eb0e bebb d8b9 62bd
00000020: c5b8 bfbc d090 61bd b2f7 e2bc 802e 6e3b
00000030: cef7 e2bb 6086 efbb 308a 963b 4f40 ee3c
00000040: d30a 6d3d 600b 953d 823b 4cbd 4d79 e6bb
00000050: 4ac5 133d 00b4 4bbb 9a64 9abc 8b7d 91bd
00000060: 0084 94b8 66c7 5abd eb7d 9fbd e0be 1cbb
00000070: a0a2 463c 6b28 7ebd 44f8 ac3c 1ac6 0fbd
00000080: d2ce 1e3d b0ad 7ebc 6364 12bc 2c54 1fbd
00000090: 626f 163d d579 c1bc 9cb5 8c3c 9024 463c
000000a0: ff1f a73d ecec 45bd cb1a 4cbd 6b78 9b3c
000000b0: f87e 88bd c5fa 753d 5af6 94bc 37d2 903d
000000c0: 6cbc 0fbd 8709 6dbd 4004 b93c 4a8e 463d
000000d0: dbeb 843d 9f52 a63d d6b8 823c b0c3 9cbb
000000e0: 5593 863d 9c3e 96bd c291 9ebb c1ea 8bbd
000000f0: 099a 8fbd d832 d53c 00db cab9 2aa0 5ebd
00000100: e1bd 653d 28a8 063c 8c01 463d e873 febc
00000110: bab2 efbc 62c3 493d 66fc a0bd 2c81 85bd
00000120: 56c3 bcbd f928 aebd 1696 1f3c 774c 0d3d
00000130: 8057 40bb 8660 2fbc 9016 04bc b65e b9bc
00000140: b1ef 843d 1e2a 1b3d d17d a33d 6d68 61bd
00000150: 508e f83b de49 bdbd c848 cfbc 9fee 1d3d
00000160: 9a05 523d f758 b8bd 323d 99bd 90d0 d23c
00000170: 8b86 1abd cfd7 79bd a626 0d3d 26ef 753d
00000180: 87be 913d 7442 a039 d74b c6bd be43 283d
00000190: 06b3 043d e6d4 dcbc 66e6 24bd 634f d3bb
000001a0: 875e a2bd 3dfd 87bb 765a 0e3d 5409 81bc
000001b0: 38ca 7d3c a33c 403d 02ff 45bc dafb 87bd
000001c0: f6e5 713d d037 6fbd 681b a9bd 59cd 9bbd
000001d0: 2df2 83bd 4448 89bd c2c0 473d c2ef a6bd
000001e0: 80c7 363b be3b 8bbd 990d 13bd 4898 113d
000001f0: 333d 523d 4eb4 633d ad5e 2dbd 9c7f fcbb
00000200: 915c 0bbc 5fdb 433e dc37 2ebd fc26 ab3c
00000210: c953 093e 784c 3a3e 4b02 133e 476a bfbc
00000220: 53e1 083e ac8b 313e 5d05 373e 3961 1a3e
00000230: 65aa aabd 6a1d e3bc 662d fdbc 6841 f4bc
00000240: 09cc 273e dc8b ed3d fcb3 e3bc cef3 2b3a
00000250: d968 353e 6b0c e73d fe49 4d3d f360 a03d
00000260: 6ebc 2bbd 040d bc3b f38e 473d 402b 5d3b
00000270: d340 c2bc 49c5 04bd 5916 25bd 8069 893a
00000280: f7cb 9f3d 9b70 713d 0af8 243d d63b 56bd
00000290: 2e2c 563d 7c4b e03d 1669 8abd 2c22 8dbd
000002a0: 3950 293c ff5b 7fbd 1dfd 2d3e ed99 323e
000002b0: ff6e 053d 8010 5bbd 9626 243e fef5 c8bc
000002c0: 47d1 373d 8c02 ca3c 3116 4dbd b30c 23bd
000002d0: f9c1 cd3d 206e 0f3c dce0 743d 0748 833d
000002e0: b2da abbd e3fd 053d 59f4 dd3d 7bbe 7a3c
000002f0: 9fc7 903d df54 023a be79 1b3d 3cb5 3c3e
00000300: 6361 f53d 3c88 b13c bc09 243d d41f bf3d
00000310: a53e 6a3e 9cde 59bd 3a6d 623d 8f3f 8e3d
00000320: f2be fa3d fd39 f23c 2bf4 c03d 15db 403e
00000330: 2dc4 903d a01c 733c 42e7 7abd 7f49 093e
00000340: 2a4c f9bc dbd2 efbd 513c 78bc e130 343d
00000350: 1788 16bd 2847 4d3d 0082 443c 04a0 8cbd
00000360: e06f ec3b 07c4 77bd 8a15 af3d f852 113d
00000370: e353 313e 01c9 51bc bd0d cd3d 4ec7 453d
00000380: a1af 8d3c 3ed8 8dbd 0052 5b3d 4673 ae3d
00000390: 409a 9abd 461b 473d f054 313e 19b9 e43d
000003a0: a1fb 753c e903 863c d6bf c73d 2bd9 bdbb
000003b0: d45f e9bc f512 353e f3ee b9bd cc5a 823c
000003c0: 9556 0b3e da6f 3f3d 9206 adbd c11b 053e
000003d0: b368 d23d 194c 4c39 9be6 bd3d e3ba be3d
000003e0: 7cb0 fa3c 2611 913d 4012 e73d 7b3f f43c
000003f0: 4a9a e83c 0e1b 273e 55b8 3e3e b30c f73d
-0.0062928945 -0.09989476 0.03118325 -0.008956344 0.0090115145 0.055412687 -0.005800118 -0.055353016
-0.023403535 -0.055069745 -0.027706001 0.0036343634 -0.0069265133 -0.00730972 0.00459411 0.0290834
0.05787165 0.0727756 -0.04986144 -0.007033503 0.03607682 -0.003108263 -0.018846799 -0.071040235
-7.081777e-05 -0.053412817 -0.07787689 -0.0023917481 0.012123734 -0.062050264 0.021114476 -0.035101034
0.038771458 -0.01554434 -0.008935067 -0.038898632 0.036727317 -0.023617664 0.017176442 0.012093678
0.081604 -0.04832165 -0.04983024 0.018978318 -0.06664842 0.060053606 -0.018183876 0.07071345
-0.035091802 -0.057870414 0.022585034 0.04847554 0.06490298 0.081212275 0.015957277 -0.00478407
0.0657107 -0.073361605 -0.004839153 -0.06831885 -0.07011802 0.02602522 -0.0003869161 -0.054351963
0.056089286 0.0082188025 0.04834132 -0.031061128 -0.029260028 0.049258597 -0.07860641 -0.06518778
-0.09216945 -0.08503909 0.009740373 0.03449675 -0.002934903 -0.010704165 -0.00806202 -0.02262817
0.0649103 0.037881963 0.07982982 -0.05503123 0.0075853243 -0.09242605 -0.02530326 0.038557645
0.051274873 -0.09001344 -0.07482375 0.025734216 -0.037725966 -0.060996827 0.034460686 0.060042523
0.07116418 0.0003056709 -0.09682434 0.04108023 0.032397293 -0.026956987 -0.040258788 -0.0064486726
-0.07928186 -0.0041500614 0.03475424 -0.015751518 0.015490107 0.046932828 -0.012084724 -0.06639834
0.0590572 -0.058402836 -0.082571805 -0.07607526 -0.06442676 -0.06703237 0.048767813 -0.08151199
0.0027889907 -0.06798504 -0.03590164 0.035545617 0.051327895 0.055591874 -0.042326618 -0.007705642
-0.008505956 0.19126652 -0.04253374 0.020892613 0.13410868 0.18193233 0.14356343 -0.023366107
0.13367204 0.17338437 0.1787314 0.1507615 -0.083332814 -0.027723987 -0.030905437 -0.029816344
0.16386427 0.11598942 -0.027795784 0.0006559462 0.17715777 0.112816654 0.050119393 0.078309916
-0.041927747 0.0057388563 0.04872031 0.0033747703 -0.023712551 -0.03241471 -0.040304516 0.0010483712
0.07802575 0.05894528 0.04027561 -0.052303158 0.052288227 0.109518975 -0.06758325 -0.068912834
0.010334068 -0.062343594 0.16991086 0.1744153 0.032576557 -0.053482533 0.16030344 -0.02453136
0.044877317 0.024659418 -0.05006999 -0.039807033 0.10046763 0.008754283 0.059784755 0.064102225
-0.08391322 0.03271283 0.10837621 0.015304203 0.07069325 0.0004971753 0.0379579 0.1842851
0.11981466 0.021671407 0.040048346 0.093322426 0.2287546 -0.053190812 0.055279948 0.069457166
0.12243451 0.029568667 0.09421571 0.18833573 0.070686676 0.014838368 -0.0612557 0.13406943
-0.030431826 -0.11710139 -0.015151099 0.043991927 -0.03675088 0.050116688 0.011993885 -0.06866458
0.007215485 -0.06048968 0.0854903 0.035479516 0.17317156 -0.012804271 0.10012386 0.048285775
0.01729566 -0.069260105 0.053545 0.085180804 -0.07548952 0.048609994 0.17317557 0.11168117
0.015013606 0.016359286 0.09753387 -0.0057937107 -0.028488077 0.17683013 -0.09078779 0.015912436
0.13607247 0.04673753 -0.08448519 0.12998869 0.10273876 0.00019483305 0.092725 0.093129896
0.030601732 0.07083349 0.11282778 0.029815426 0.028393883 0.16318914 0.18625005 0.12062969

fc2.bias f4 [128]
00000000: ceed db3c dc4a da3d 8011 013d 5569 afbd
00000010: 01b4 b6bd caf3 b4bd 1ff8 bebd 24fe bdbc
00000020: 1c66 44bd 2832 4d3e 8846 f6bc 5dd4 f23c
00000030: 71c0 b3bd a23d 0bbd e8d5 77bc 2008 113d
00000040: cbd5 7f3d b6f5 623b 3de0 bfbd 1a62 92bd
00000050: f02f 933c 091c 083e 3d6f 243e fc48 f33d
00000060: abcc a8bd 704f 2bbc 005b 523d 919d c13b
00000070: 4406 df3d 28e3 113d 025d 85bd 3930 333d
00000080: b153 a7bd 7412 00bd e771 58bd d6be bebc
00000090: dde6 10bc 58bf 1b3e 4157 fb3c 0105 3ebd
000000a0: b07e 5f3d 4579 983d aed5 3dbd ec9b 64bd
000000b0: 3ed3 023c 784b 1abd 9c29 bcbd 8b32 9e3d
000000c0: 6747 023c 5e35 ffbc a05e 313d a8b9 35bd
000000d0: 00b0 13bb 1140 343c 85c1 1a3c e784 893d
000000e0: 91cd 423d b0ab a1bb f36f 8d3d 21dd bf3d
000000f0: 363c fc3d 0009 483b 838b 87bd 57ca 2bbd
00000100: 4099 253e c153 57bd fe61 11bd a802 3d3e
00000110: 6c56 d73b 7a46 0e3d f402 213d 24b3 4c3e
00000120: e1fb b03d 1ffb 5dbd 60c5 b93c c5c5 df3b
00000130: 738a 113e f07f 873b 22a0 063d de59 6d39
00000140: 6ecf 3d3d e40f 023d 46c6 623d eee4 92bc
00000150: 8942 e53d 221f 44bc 09c6 bcbd 94e9 9a3a
00000160: f229 363e 40a4 88bd 24b2 15bd 4ae2 5bbd
00000170: 4371 3d3d 0671 3c3e 74b9 9b3d a5e4 5a3d
00000180: 6b35 843d 435c ee3d 2dfc fc3d 96fb 1ebd
00000190: 5e7c b93d 4e54 213d 59bf 433e 74a4 2f3e
000001a0: 8ed1 0c3d fee4 93bd c128 b2bd d93e 49bd
000001b0: e46f 05bc 0cf0 94bd 5681 5a3d b138 a6bd
000001c0: 37d8 b93c 0938 843d cd81 023e ce95 ac3c
000001d0: 5433 723d 02bb 26bd eb2f cf3c 6c72 2a3e
000001e0: 5a36 463e 9719 883c 6823 acbc f077 55bd
000001f0: dc3f bb3d 9d46 50bd 0d67 8d3d 7e9e 273c
0.026846793 0.106588095 0.03151083 -0.08565012 -0.08921052 -0.088355616 -0.09324669 -0.023192473
-0.04794894 0.20038664 -0.030062929 0.029642278 -0.0877694 -0.033994325 -0.015126683 0.03540814
0.06245975 0.0034631318 -0.09368942 -0.07147618 0.017967194 0.13291945 0.16058059 0.11879155
-0.08242162 -0.010455951 0.051356316 0.005908676 0.10889867 0.035617024 -0.065118805 0.04374716
-0.0817026 -0.0312676 -0.052843 -0.023284357 -0.008844105 0.1520971 0.030681254 -0.04639149
0.054564178 0.07445005 -0.04634636 -0.05581276 0.007984934 -0.03766963 -0.09187624 0.07724484
0.007951594 -0.031153377 0.043303132 -0.04436651 -0.0022535324 0.011001603 0.009445553 0.06714802
0.047559325 -0.004933797 0.06906118 0.09368349 0.12316172 0.0030522943 -0.066184066 -0.041941013
0.16171741 -0.05257011 -0.035493843 0.18458045 0.0065715816 0.03473518 0.039309457 0.19990212
0.08641792 -0.054194566 0.022677124 0.006828996 0.1421297 0.0041351244 0.03286756 0.0002263556
0.0463404 0.031753436 0.05536487 -0.017931428 0.11194331 -0.011970313 -0.0921746 0.0011818879
0.17789438 -0.06671953 -0.03654684 -0.053682603 0.046250593 0.1840249 0.07603732 0.05344071
0.06455501 0.11638691 0.12352786 -0.03881415 0.09056924 0.03938704 0.19115962 0.17152578
0.034379534 -0.07221411 -0.086991794 -0.0491322 -0.008144353 -0.07272348 0.053346 -0.08116282
0.022686107 0.06456 0.12744828 0.021067526 0.05913098 -0.04070569 0.025291404 0.16645211
0.19356671 0.016613765 -0.021012977 -0.052116334 0.091430396 -0.050848592 0.06904421 0.010230659
