WSNs/trained_wrsn_agent.pth (torch, 484786 bytes, 24 tensors)

fc1.weight f4 [128, 81]
0.019343667 0.005860105 -0.04082351 0.02361209 -0.100863814 0.06267936 -0.08196716 0.05331648
-0.07113263 0.004748076 -0.026935734 -0.026069365 -0.0023125783 0.09140753 -0.0021371841 -0.05929465
-0.07084416 0.013777815 0.075458534 0.108064525 -0.017725416 -0.01260405 -0.068639025 -0.09876898
-0.04731044 0.08896089 0.1029811 0.055662878 -0.072303906 -0.039168566 0.07135441 -0.07446248
-0.10977093 0.0817473 -0.066477105 -0.0621304 0.036325805 -0.059134353 -0.0574748 0.100331716
0.036327027 0.041626044 0.08056297 0.008947358 -0.030483827 -0.01173912 -0.055239994 0.004778467
-0.025070637 0.043653153 -0.050726227 0.08513547 -0.034669347 0.07882216 -0.028427519 0.026560657
0.032613583 0.016448505 -0.08387824 -0.012750626 0.11097466 0.000289917 -0.0877717 0.10287499
0.10921586 -0.050220966 -0.09860473 0.10106707 0.08638882 0.06572182 0.010526761 -0.068389416
-0.058341213 -0.025124341 -0.010307021 0.027737595 -0.03139113 0.103875495 0.04367972 0.015817858
0.082800664 0.17935477 0.19440046 0.09966967 0.13917893 0.08516926 0.029630005 0.10011364
0.1440483 0.16428778 0.18406318 0.07299502 0.07621526 0.055263713 -0.015158299 0.21084496
-0.056308467 0.12884101 0.0043297647 0.21630062 0.016121365 0.12096413 0.052512247 0.09981605
0.7562075 0.16208956 0.059067287 0.3205778 0.17875367 0.025789872 0.13524032 0.04190432
-0.43213162 0.0878425 0.026604569 -0.0066809403 0.04027559 0.16271363 -0.016297882 0.24853535
-0.11495343 0.16418937 0.090737656 0.08522584 0.21372572 0.17673099 0.06862399 0.13067937
0.13984758 0.047892552 0.03901503 0.101411775 -0.11478641 0.12535429 -0.03966891 0.1674579
0.21742687 0.10012252 0.07331808 0.12090998 0.0034150104 0.026411839 0.010260488 0.117637075
0.23640043 0.115761004 -0.084443554 0.1748662 0.13109685 0.019093148 0.043033022 0.10665441
-0.10961616 0.03636592 0.13964276 0.11687043 -0.17808087 0.21054022 -0.08220495 0.2845851
-0.11469184 0.012743815 0.0151556805 -0.03992854 0.095100485 -0.04991432 0.010159269 -0.018375397
-0.11070791 -0.09284936 -0.08878141 -0.089685604 0.009660125 0.07709301 0.048380233 0.045440756
-0.05152525 0.01811602 0.042664386 -0.069312826 -0.0023357868 -0.038377866 -0.07784523 0.10281537
0.06269836 -0.045461163 -0.08944947 0.0118539035 -0.05829341 -0.10521117 0.10971957 0.07397152
-0.10615938 -0.10224126 -0.09563659 -0.035859212 -0.09030911 0.04136885 0.020226397 0.020017616
0.013028346 -0.044203095 -0.10812822 0.060054757 -0.086717926 0.028841339 0.01228486 -0.10402671
0.0049471557 0.033343606 -0.056947272 -0.099902034 0.04795205 0.02149842 0.10808637 -0.008873858
0.07922227 0.056578808 -0.07818086 -0.0018210709 0.04608006 -0.041796394 -0.05844425 -0.104804754
0.05133625 -0.051998165 -0.07800114 0.09126974 0.036190175 -0.023833409 -0.09996887 0.09496785
0.008484669 -0.062038038 -0.09981455 -0.064713046 0.09571182 0.022185452 0.066858925 0.09494371
-0.08948811 -0.096789785 0.018446214 0.039723687 -0.11502424 -0.09876383 -0.024635583 -0.12846504
0.022768099 -0.07847338 -0.033208363 -0.002470615 -0.0022946275 -0.082458615 0.038737882 -0.10496891
00000000: 9c76 9e3c 2006 c03b 8e36 27bd 246e c13c
00000010: b091 cebd 095e 803d 66de a7bd 6262 5a3d
00000020: fcad 91bd c095 9b3b 54a8 dcbc 6c8f d5bc
00000030: a08e 17bb df33 bb3d 0010 0cbb f2de 72bd
00000040: be16 91bd 58bc 613c 018a 9a3d ef50 dd3d
00000050: e434 91bc 3881 4ebc 9e92 8cbd 6447 cabd
00000060: 98c8 41bd 2131 b63d c1e7 d23d c2fe 633d
00000070: 1214 94bd 386f 20bd 4322 923d c97f 98bd
00000080: 95cf e0bd 216b a73d 2625 88bd 727c 7ebd
00000090: 5eca 143d dd36 72bd b26a 6bbd b77a cd3d
000000a0: a6cb 143d 1280 2a3d 33fe a43d f097 123c
000000b0: 38b9 f9bc 7055 40bc 5543 62bd b094 9c3b
000000c0: f060 cdbc a6cd 323d 4ec6 4fbd 815b ae3d
000000d0: 7201 0ebd 836d a13d d4e0 e8bc bc95 d93c
000000e0: d295 053d 04bf 863c 5bc8 abbd 00e8 50bc
000000f0: af46 e33d 0000 9839 a6c1 b3bd 1fb0 d23d
00000100: 91ac df3d 80b4 4dbd 47f1 c9bd 41fc ce3d
00000110: 9fec b03d 2999 863d 7078 2c3c c00f 8cbd
00000120: 32f7 6ebd 90d1 cdbc c8de 28bc f439 e33c
00000130: fc93 00bd adbc d43d 82e9 323d 7494 813c
00000140: 6593 a93d c7a8 373e ea10 473e 9d1f cc3d
00000150: ec84 0e3e 396d ae3d a0ba f23c 6108 cd3d
00000160: 6681 133e 0e3b 283e 0f7b 3c3e 6a7e 953d
00000170: bf16 9c3d 345c 623d 845a 78bc bee7 573e
00000180: b5a3 66bd e6ee 033e b3e0 8d3b e97d 5d3e
00000190: f410 843c 0bbc f73d 1517 573d 5b6c cc3d
000001a0: d196 413f cefa 253e 8af0 713d c622 a43e
000001b0: 340b 373e 4845 d33c 707c 0a3e dda3 2b3d
000001c0: 5b40 ddbe c5e6 b33d d3f1 d93c caeb dabb
000001d0: 04f8 243d 679e 263e 2383 85bc 0d80 7e3e
000001e0: b46c ebbd 4221 283e aad4 b93d e38a ae3d
000001f0: eada 5a3e f8f8 343e bc8a 8c3d d0d0 053e
00000200: 3434 0f3e fb2a 443d 39ce 1f3d fab0 cf3d
00000210: 2315 ebbd e05c 003e de7b 22bd 157a 2b3e
00000220: 26a5 5e3e 090d cd3d ca27 963d a79f f73d
00000230: 5ece 5f3b a45d d83c 9b1b 283c b5eb f03d
00000240: f412 723e 1b14 ed3d bef0 acbd 2010 333e
00000250: 413e 063e 3c69 9c3c 6543 303d a16d da3d
00000260: 707e e0bd 6ef4 143d 83fe 0e3e c459 ef3d
00000270: d55a 36be db97 573e 125b a8bd 23b5 913e
00000280: 8ee3 eabd 6fcb 503c 884f 783c 1c8c 23bd
00000290: 0bc4 c23d f572 4cbd 1073 263c 0088 96bc
000002a0: d4ba e2bd ce27 bebd 07d3 b5bd 16ad b7bd
000002b0: 8045 1e3c f1e2 9d3d 5a2a 463d 1620 3a3d
000002c0: 240c 53bd 0c68 943c dac0 2e3d e2f3 8dbd
000002d0: 0014 19bb 1c32 1dbd 526d 9fbd dd90 d23d
000002e0: ff67 803d 7c35 3abd 4931 b7bd e036 423c
000002f0: 12c5 6ebd f478 d7bd a7b4 e03d 617e 973d
00000300: 176a d9bd de63 d1bd 1edd c3bd 1ce1 12bd
00000310: fcf3 b8bd 6272 293d d4b1 a53c fcfb a33c
00000320: d874 553c 4e0e 35bd 5472 ddbd fafb 753d
00000330: 2b99 b1bd ac44 ec3c 7046 493c f50b d5bd
00000340: c01b a23b 4e93 083d 8b41 69bd 7099 ccbd
00000350: 5e69 443d 741d b03c 635c dd3d a863 11bc
00000360: 493f a23d 2ebf 673d 491d a0bd 00b1 eeba
00000370: 72be 3c3d b232 2bbd 3d63 6fbd e0a3 d6bd
00000380: f645 523d 07fc 54bd 10bf 9fbd a1eb ba3d
00000390: 263c 143d 483e c3bc 7bbc ccbd 817e c23d
000003a0: 4803 0b3c 991b 7ebd 926b ccbd 4688 84bd
000003b0: 8f04 c43d 44be b53c 55ed 883d d971 c23d
000003c0: 8b45 b7bd b939 c6bd 841c 973c 4eb5 223d
000003d0: d491 ebbd b144 cabd 90d0 c9bc 578c 03be
000003e0: 2a84 ba3c a7b6 a0bd 7e05 08bd 0bea 21bb
000003f0: 7661 16bb 10e0 a8bd 9dab 1e3d f1f9 d6bd

fc1.bias f4 [128]
0.01578062 0.2272491 0.043995522 0.077342205 0.1972453 -0.08726878 -0.08039835 -0.08775953
-0.04503393 -0.0824939 0.2183942 0.11071615 0.13384731 0.101785116 0.03883585 0.07257819
0.04664849 -0.074799344 0.14759582 0.1442803 0.029830016 0.10425783 0.020144157 0.014299549
0.043095626 0.0013307589 0.24807392 -0.14099976 0.08032354 0.022559192 0.029997991 0.19359182
0.20475346 0.04803309 0.17531285 0.33336952 0.21003051 -0.020649686 0.08304795 -0.035891548
0.046246193 0.14432842 0.016007159 -0.00320331 0.053463224 0.066091806 0.14444667 0.069343776
0.22919908 -0.09678718 0.15553692 0.023567252 0.044288848 -0.029379025 0.0797788 -0.038281985
-0.008597547 -0.021105306 0.19599862 -0.0055667837 0.0061429716 0.19114819 0.1647437 0.065286316
0.050639458 -0.1059722 -0.11262149 -0.059531372 0.052673616 0.24066731 -0.1264378 -0.07309807
-0.10632114 -0.010158497 -0.09411325 0.0322147 0.005964206 0.11267489 0.044740275 0.044460144
0.028519457 -0.09580967 0.047215562 0.0018137023 0.081016906 -0.091760896 -0.036021944 -0.0028657038
0.05881806 -0.1261142 0.04914672 0.21654437 -0.038729697 0.034789354 0.11951253 -0.079323426
0.20049855 0.22111842 -0.08062913 -0.04066427 0.09644397 0.04931879 0.06119895 0.14471872
0.051465668 0.034745675 0.061063807 -0.016427746 -0.11355156 0.110726126 0.20794575 0.010873231
-0.13068096 0.105423905 0.058054816 0.003164783 0.066187784 -0.0880454 -0.10190623 0.016753305
-0.051859993 -0.011708828 -0.0003692693 0.03909823 -0.04879362 0.17367996 -0.07787584 0.11314931
00000000: 5c46 813c fdb3 683e a634 343d 9765 9e3d
00000010: acfa 493e f9b9 b2bd e4a7 a4bd 45bb b3bd
00000020: 8075 38bd 90f2 a8bd bba2 5f3e 26bf e23d
00000030: 450f 093e b774 d03d 5712 1f3d e0a3 943d
00000040: 7d12 3f3d 6630 99bd 5c23 173e 37be 133e
00000050: 145e f43c 2185 d53d 5c05 a53c a848 6a3c
00000060: 0a85 303d dc6c ae3a 1707 7e3e 3e62 10be
00000070: ab80 a43d 0ece b83c 59be f53c ef3c 463e
00000080: e4aa 513e 58be 443d 3685 333e 69af aa3e
00000090: 3d12 573e 8829 a9bc 0b15 aa3d 0403 13bd
000000a0: a66c 3d3d d4ca 133e 7221 833c a0ee 51bb
000000b0: 41fc 5a3d 245b 873d d4e9 133e 1c04 8e3d
000000c0: 2ab3 6a3e 5b38 c6bd 1245 1f3e 1c10 c13c
000000d0: 3968 353d 48ac f0bc 1163 a33d 92cd 1cbd
000000e0: badc 0cbc 09e5 acbc ddb3 483e 9169 b6bb
000000f0: fb4a c93b 5abc 433e 93b2 283e d5b4 853d
00000100: 526b 4f3d f407 d9bd 19a6 e6bd 2bd7 73bd
00000110: 4ac0 573d 7e71 763e e978 01be 71b4 95bd
00000120: e6be d9bd d36f 26bc 73be c0bd 90f3 033d
00000130: 636f c33b 18c2 e63d 9441 373d d71b 363d
00000140: a3a1 e93c dc37 c4bd 1b65 413d c0b9 ed3a
00000150: 31ec a53d 23ed bbbd bf8b 13bd 88ce 3bbb
00000160: 35eb 703d 1524 01be 124e 493d cfbd 5d3e
00000170: 08a3 1ebd 487f 0e3d fcc2 f43d 5274 a2bd
00000180: 7e4f 4d3e de6c 623e e320 a5bd 948f 26bd
00000190: 6b84 c53d 8002 4a3d c0ab 7a3d 2531 143e
000001a0: aacd 523d 7b51 0e3d 0b1e 7a3d 7b93 86bc
000001b0: b88d e8bd 61c4 e23d bbef 543e a325 323c
000001c0: 3bd1 05be 7de8 d73d e3ca 6d3d 3f68 4f3b
000001d0: 768d 873d 2651 b4bd 37b4 d0bd 3a3e 893c
000001e0: 256b 54bd 62d6 3fbc 7d9a c1b9 7725 203d
000001f0: d2db 47bd 29d9 313e 5e7d 9fbd d3ba e73d

fc2.weight f4 [128, 128]
-0.040552653 -0.045834605 0.0031420067 0.050392352 -0.047600005 0.046834163 -0.008699149 -0.060127515
-0.06861399 0.026128441 -0.058347456 0.0031149965 0.06480352 0.0020331293 0.06857718 -0.05667869
0.04069718 -0.06723541 -0.0095238425 -0.033447385 0.08111725 0.057455264 0.08733351 0.012160622
-0.009749718 0.08227972 0.05216286 -0.06274001 -0.050106555 -0.08816449 -0.055221748 -0.04346984
-0.031804454 -0.02277264 0.0383509 -0.09153143 0.023481663 0.04209269 0.014760671 0.064587586
0.076445974 -0.05990975 -0.083334506 0.053171538 -0.0897951 0.023711232 -0.055889145 0.027770987
0.07906099 0.0868075 0.056400478 0.07414923 0.05939836 -0.057184115 -0.030703917 0.0023706332
0.07299211 -0.012203967 0.024181584 0.08753265 -0.04064201 -0.031180948 0.034176916 0.05739654
-0.082129 0.0036459342 -0.08557288 -0.01648628 -0.07318517 0.07611703 0.040637262 -0.020284124
-0.035962977 -0.0548138 0.005433716 -0.019934349 -0.0095917415 -0.017328942 -0.030197345 0.0007051155
0.085636996 0.042370103 0.07468733 -8.2820654e-05 -0.051109638 -0.0024525896 -0.0024929196 0.027068093
-0.003856725 0.07266305 0.018259123 0.025929235 -0.009538889 -0.08364073 -0.061783567 0.082737185
0.02472732 -0.024426622 0.05148206 0.024200067 0.05132637 -0.052394304 -0.023750313 -0.07734444
0.06904969 -0.02342099 0.009867877 -0.06255378 -0.014467128 -0.034072522 0.014853883 0.06697763
-0.072519325 -0.07327341 0.08417597 0.055407695 0.062629364 -0.021103404 0.04331038 -0.055052917
-0.08085527 -0.0071437913 -0.07335164 0.07174217 0.07178558 0.057648744 0.03806708 0.009934877
-0.0058679357 -0.024163665 -0.028428998 -0.03912657 -0.05693529 0.032175526 -0.08015928 0.06211681
-0.059572756 -0.0435907 0.024823744 -0.026792439 0.07139671 -0.063600615 -0.033946212 0.06951743
-0.04167843 0.002248481 -0.037676066 -0.033899944 -0.077209204 -0.08024531 0.028484501 0.019348271
0.07502643 -0.009148236 -0.018795738 -0.075732015 0.035334736 -0.08579067 -0.08281215 0.04903807
0.04400755 0.01786749 -0.07840312 0.03365449 -0.0017120466 -0.011363573 -0.075708 0.06253418
0.001783775 0.028862787 0.05259609 0.05732184 -0.082240246 0.03895065 -0.03276967 0.009077254
-0.08481976 -0.07259174 0.027229624 0.011145279 0.060665257 0.07767438 -0.05375529 -0.022868015
-0.026097056 -0.06537095 -0.09658554 -0.05129147 0.005627572 -0.019860284 -0.037164226 0.045811437
0.08005469 0.024517983 0.040477656 -0.028167024 0.059940152 -0.061272718 -0.008047856 0.019823031
0.013801092 0.05818381 0.0790126 -0.0036488778 -0.034983747 -0.07160521 0.06612619 -0.06661574
0.01038225 -0.030016985 -0.045221236 0.027152412 0.03707809 0.011487946 0.04689484 0.04307776
0.056247108 -0.0416325 0.05280026 -0.04287787 0.07303887 -0.09535769 0.06588222 0.084172465
0.034910917 0.006831385 0.070876814 -0.052273754 -0.074690714 -0.08410852 -0.0092252735 -0.067563586
-0.08038874 0.06494711 -0.029309962 0.061465062 0.06520244 0.068018325 -0.01808501 0.02210187
0.076899685 0.0027015305 -0.07534966 -0.03239644 0.062053867 0.01638294 0.07413613 0.074755006
-0.06739188 -0.09375607 0.040777586 0.058281764 0.016946755 0.019802654 0.06320489 -0.03032268
00000000: 8a1a 26bd 11bd 3bbd 20ea 4d3b 3668 4e3d
00000010: 39f8 42bd 2ed5 3f3d e086 0ebc 4548 76bd
00000020: 7e85 8cbd 500b d63c befd 6ebd f824 4c3b
00000030: b5b7 843d 403e 053b 3172 8c3d ea27 68bd
00000040: 16b2 263d b8b2 89bd e409 1cbc 2000 09bd
00000050: cd20 a63d 3656 6b3d e9db b23d 583d 473c
00000060: 48bd 1fbc 4582 a83d b9a8 553d d67d 80bd
00000070: 883c 4dbd 968f b4bd 3330 62bd 6e0d 32bd
00000080: 6345 02bd b08d babc d515 1d3d d574 bbbd
00000090: 9e5c c03c 6269 2c3d bed6 713c 7f46 843d
000000a0: b58f 9c3d ed63 75bd 48ab aabd 66ca 593d
000000b0: 7ee6 b7bd 0f3e c23c 04ec 64bd fb7f e33c
000000c0: baea a13d 21c8 b13d 3004 673d 8ddb 973d
000000d0: b24b 733d e439 6abd c886 fbbc a05c 1b3b
000000e0: e37c 953d 26f3 47bc 7518 c63c 5144 b33d
000000f0: 3c78 26bd 306f ffbc 18fd 0b3d a218 6b3d
00000100: 4033 a8bd a0f0 6e3b d640 afbd 3c0e 87bc
00000110: 1be2 95bd 3fe3 9b3d 4273 263d e42a a6bc
00000120: ea4d 13bd 6f84 60bd 500d b23b 5c4d a3bc
00000130: ae26 1dbc 6df5 8dbc 6c60 f7bc 80d7 383a
00000140: 7362 af3d 468c 2d3d acf5 983d 00b0 adb8
00000150: 5758 51bd a0bb 20bb 4060 23bb e8bd dd3c
00000160: 1cc1 7cbb 5dd0 943d 2894 953c 8c69 d43c
00000170: 0049 1cbc d54b abbd c410 7dbd 1d72 a93d
00000180: f390 ca3c 571a c8bc dade 523d 383f c63c
00000190: 9a3b 523d 699b 56bd 0490 c2bc c366 9ebd
000001a0: ed69 8d3d 60dd bfbc e0ac 213c 321c 80bd
000001b0: 8807 6dbc a18f 0bbd b35d 733c 912b 893d
000001c0: 0385 94bd 5f10 96bd 7364 ac3d 2ef3 623d
000001d0: d343 803d 0ce1 acbc 3a66 313d 2b7f 61bd
000001e0: 7397 a5bd 7716 eabb 6239 96bd 8fed 923d
000001f0: 5104 933d 1721 6c3d 3aec 1b3d e5c5 223c
00000200: d047 c0bb e1f2 c5bc eee3 e8bc 2f43 20bd
00000210: fb34 69bd 7cca 033d 8c2a a4bd 326e 7e3d
00000220: 9002 74bd 298c 32bd 2a5b cb3c d17b dbbc
00000230: 7038 923d 0a41 82bd 2f0b 0bbd 285f 8e3d
00000240: 00b7 2abd 405b 133b 3852 1abd abda 0abd
00000250: dc1f 9ebd a757 a4bd 5458 e93c 4480 9e3c
00000260: 75a7 993d 7ce2 15bc 85f9 99bc 6319 9bbd
00000270: 28bb 103d 05b3 afbd 6b99 a9bd 25dc 483d
00000280: 4341 343d d85e 923c d191 a0bd 4ad9 093d
00000290: c066 e0ba 482e 3abc cc0c 9bbd ec11 803d
000002a0: 8fcd e93a a771 ec3c ff6e 573d 4eca 6a3d
000002b0: 936d a8bd b78a 1f3d 7d39 06bd c3b8 143c
000002c0: fbb5 adbd faaa 94bd a910 df3c b09a 363c
000002d0: 227c 783d bf13 9f3d 822e 5cbd b455 bbbc
000002e0: 7ec9 d5bc 34e1 85bd a4ce c5bd 0117 52bd
000002f0: 7f67 b83b 09b2 a2bc 8439 18bd c6a4 3b3d
00000300: b7f3 a33d f0d9 c83c e6cb 253d 88be e6bc
00000310: ce83 753d 1af9 7abd 28db 03bc e963 a23c
00000320: fa1d 623c 2652 6e3d 5cd1 a13d 0322 6fbb
00000330: 1e4b 0fbd c1a5 92bd 2b6d 873d d56d 88bd
00000340: 501a 2a3c 2ee6 f5bc e739 39bd bc6e de3c
00000350: 32df 173d f037 3c3c ce14 403d 4e72 303d
00000360: 5e63 663d d786 2abd 1645 583d b5a0 2fbd
00000370: 6795 953d e44a c3bd 42ed 863d 9d62 ac3d
00000380: c0fe 0e3d d0d9 df3b dd27 913d 011d 56bd
00000390: 72f7 98bd 1641 acbd 9a25 17bc c75e 8abd
000003a0: daa2 a4bd fe02 853d 721b f0bc cac2 7b3d
000003b0: db88 853d 314d 8b3d 0427 94bc fb0e b53c
000003c0: 957d 9d3d 290c 313b ec50 9abd 21b2 04bd
000003d0: 322c 7e3d 8435 863c afd4 973d 2719 993d
000003e0: c104 8abd 2f03 c0bd 6606 273d dcb8 6e3d
000003f0: ecd3 8a3c 2d39 a23c 9171 813d 4567 f8bc

fc2.bias f4 [128]
0.014802403 0.07424379 -0.002550472 0.13138583 0.07991573 0.0028177784 0.1789084 -0.0026015467
0.003086694 -0.13627829 -0.09729996 0.15668494 -0.11979597 -0.07412432 0.021544777 0.17276506
0.017545398 -0.035238218 0.04732926 -0.053195428 -0.06987502 -0.108067706 1.4252961e-05 -0.0021047583
-0.059597533 0.00018349802 -0.07146054 -0.08630465 0.041843735 0.034121178 -0.038333 -0.0690862
0.07128619 -0.13486852 -0.04283814 -0.10532422 0.04719854 -0.031263914 0.003615111 0.113876425
0.2070961 -0.0032768631 0.017318316 0.015689768 -0.071253546 0.016005732 -0.039256807 -0.045872822
-0.13656628 0.022270193 0.054772384 0.14742924 0.1470284 -0.022183387 0.023725314 0.07357692
-0.014186086 0.1563275 -0.08015363 -0.024771653 -0.05149231 0.21347131 -0.010378584 -0.09245082
-0.07103237 -0.0320513 0.009032013 -0.04040147 0.033137843 0.1617455 0.19761604 -0.1371902
0.17544469 0.2321004 0.05843623 -0.005274549 0.18597114 0.19026676 -0.05755093 0.0038820307
0.21179326 0.022121012 -0.08245166 0.0042709173 -0.050559536 0.16496022 -0.06412449 0.065021455
0.003362687 0.07121389 -0.031496454 0.07153415 -0.069003746 0.0365145 0.074654184 -0.008947636
0.014685385 -0.022364382 -0.01667472 0.075404175 0.064288296 -0.0022679716 -0.07026447 0.12732191
0.00359305 -0.08696495 0.029166326 -0.071239874 0.024414185 0.030220998 0.049083885 0.22390987
-0.15264936 -0.03017108 0.027256727 -0.03528996 -0.06820027 -0.07675627 -0.054082356 0.0028489165
0.017514365 -0.09651949 0.034013614 0.012086138 -0.0045551583 0.040257163 -0.04987989 0.0064682034
00000000: c785 723c 210d 983d d225 27bb 028a 063e
00000010: dcaa a33d 7aaa 383b c333 373e b67e 2abb
00000020: 224a 4a3b 898c 0bbe 3445 c7bd 0472 203e
00000030: 9757 f5bd 7ece 97bd ac7e b03c 53e9 303e
00000040: 5ebb 8f3c f355 10bd 53dc 413d 73e3 59bd
00000050: a21a 8fbd 9a52 ddbd 0020 6f37 fcef 09bb
00000060: 8b1c 74bd 6069 4039 e759 92bd 7ec0 b0bd
00000070: 5664 2b3d a6c2 0b3d 1003 1dbd 117d 8dbd
00000080: 7efe 913d f91a 0abe 0c77 2fbd 3ab4 d7bd
00000090: 4253 413d 970e 00bd 80eb 6c3b 0b38 e93d
000000a0: 0011 543e a4c0 56bb 24df 8d3c d487 803c
000000b0: 61ed 91bd 741e 833c bfcb 20bd 24e5 3bbd
000000c0: 08d8 0bbe fb6f b63c 0259 603d b1f7 163e
000000d0: 9d8e 163e efb9 b5bc 975b c23c 7faf 963d
000000e0: c26c 68bc 5114 203e 9627 a4bd eced cabc
000000f0: 9ae9 52bd 3998 5a3e f00a 2abc db56 bdbd
00000100: 6b79 91bd 3948 03bd 02fb 133c 037c 25bd
00000110: 8cbb 073d 9da0 253e dc5b 4a3e 967b 0cbe
00000120: c6a7 333e baab 6d3e d45a 6f3d 20d6 acbb
00000130: 386f 3e3e 4ad5 423e 86ba 6bbd ab69 7e3b
00000140: 55e0 583e 2037 b53c 6adc a8bd 0df3 8b3b
00000150: 8417 4fbd 55eb 283e b353 83bd f829 853d
00000160: 8760 5c3b 97d8 913d 6d02 01bd 7f80 923d
00000170: d651 8dbd 3a90 153d 4be4 983d 1b99 12bc
00000180: f89a 703c 8235 b7bc 6c99 88bc 816d 9a3d
00000190: 95a9 833d 40a2 14bb d2e6 8fbd ad60 023e
000001a0: 6079 6b3b ae1a b2bd 38ee ee3c 36e6 91bd
000001b0: 4200 c83c 0792 f73c 2f0c 493d a148 653e
000001c0: 1d50 1cbe 5729 f7bc 8049 df3c 358c 10bd
000001d0: 95ac 8bbd 6432 9dbd 7685 5dbd e3b4 3a3b
000001e0: 497a 8f3c 03ac c5bd dc51 0b3d f004 463c
000001f0: 7043 95bb b2e4 243d db4e 4cbd 39f3 d33b

out.weight f4 [21, 128]
0.03702403 0.072330214 -0.03046707 0.16687062 -0.077239454 -0.05981966 0.18080689 0.08006021
0.010165364 -0.08549647 0.022784442 0.09145687 -0.054426733 0.0014212355 0.018416353 0.06895948
-0.08036389 0.07698899 0.19536188 0.037584297 -0.04639718 0.03771632 -0.064551756 -0.0056414306
0.05332119 0.07018947 -0.07060741 -0.073287025 0.028625794 0.08062624 0.064816795 -0.030846562
0.08365294 0.0730614 -0.057402775 -0.0366399 -0.025563851 -0.051589258 -0.08284844 0.11218191
0.15691312 0.009598583 -0.08609373 0.04665833 -0.028281398 -0.047399472 -0.009416565 0.00829196
0.02212724 -0.015405476 0.086037256 0.09225948 0.1734769 -0.005356252 0.08108591 0.17220353
0.0032335147 0.12960109 -0.074992195 0.057192676 -0.011376321 0.11351674 0.022219494 -0.05100754
0.06056083 0.014357485 0.004955858 0.003470771 -0.06528689 0.1462927 0.06301994 0.08992227
0.1577568 0.067911536 0.035115913 0.057511233 0.11595207 0.19894536 -0.03912395 0.011294916
0.18143435 -0.01655636 -0.027125362 0.07084129 -0.016050912 0.08059456 0.017546035 -0.014075875
0.025526807 0.13705002 0.04175908 -0.06868909 0.07128958 -0.035292212 -0.07979879 0.06635686
-0.038595356 0.032691568 0.05753573 -0.064008184 -0.0366725 0.011308633 -0.021075808 0.18743682
-0.0021463186 -0.03765922 0.062435545 0.05216696 -0.010602072 0.04395458 0.007214792 0.11171601
-0.03487639 0.109506585 -0.020567954 0.035476528 -0.031055558 0.050682344 -0.06427052 -0.08494068
0.08118319 0.061837666 -0.07423439 0.048427828 0.032406226 0.06262692 0.080783226 -0.059273966
-0.045298275 0.0880084 -0.05424115 0.10437535 0.07506887 0.08624483 0.21566999 0.035582587
-0.04052211 0.028343592 -0.06737018 0.021150917 -0.02472384 0.031301834 0.036273077 0.06710564
0.048311748 -0.08754861 0.031965002 0.064195715 0.044036675 0.071047954 -0.07033921 0.08657556
0.075200565 0.057802416 0.051414333 0.04623566 0.056771986 0.0419764 0.023564428 0.021660633
0.19483642 -0.042848505 -0.06996157 0.007602535 -0.005450599 0.04924596 0.0882797 0.17158665
0.20606323 -0.038830195 -0.08703733 0.04394943 0.030476458 -0.0015759543 -0.067971945 -0.051496252
-0.07110415 0.030292243 -0.053869236 0.14752942 0.103094734 0.06967928 0.09403294 -0.029614953
0.07950271 0.18002714 0.06299148 0.038798086 -0.024097443 0.13788559 -0.03311734 0.025483366
0.02862519 0.0022604917 0.032482743 0.0682993 0.08326479 0.21348485 0.08909156 0.028513256
0.17011504 0.106221415 0.13354924 0.070792116 0.09801479 0.19224206 0.06011618 0.036321856
0.103548385 0.016461812 -0.07757157 0.0125969425 -0.07219582 0.061424274 0.0050494894 0.14250475
-0.051848166 0.18857667 -0.08377185 -0.053840596 0.042246398 0.067169555 0.08828389 0.10231591
0.041780584 -0.0048327073 0.029288761 -0.007622592 -0.051025167 -0.061835833 0.03496357 0.11452143
0.083189555 0.011602163 0.007291496 0.071332775 0.030903883 -0.033751473 0.066488124 0.04065751
0.08968183 -0.06871653 0.063958116 -0.04717207 0.05288706 0.0031728074 -0.046879377 -0.03381567
0.00941509 -0.024857836 -0.010063529 -0.009679489 -0.054057546 -0.038242985 -0.042815264 0.051954158
00000000: 82a6 173d dd21 943d 1496 f9bc 22e0 2a3e
00000010: b82f 9ebd 7605 75bd 7125 393e 9bf6 a33d
00000020: a08c 263c c618 afbd 70a6 ba3c bd4d bb3d
00000030: 91ee 5ebd c048 ba3a e4dd 963c a13a 8d3d
00000040: d395 a4bd 67ac 9d3d f20c 483e fef1 193d
00000050: f80a 3ebd 6e7c 1a3d b633 84bd c0db b8bb
00000060: 5267 5a3d 7fbf 8f3d 9e9a 90bd 8217 96bd
00000070: a480 ea3c 5f1f a53d abbe 843d eeb1 fcbc
00000080: 3c52 ab3d 37a1 953d 2c1f 6bbd b813 16bd
00000090: 486b d1bc 424f 53bd 71ac a9bd a1bf e53d
000000a0: d5ad 203e 6043 1d3c e951 b0bd ce1c 3f3d
000000b0: 64ae e7bc f325 42bd f047 1abc 00db 073c
000000c0: 3044 b53c 4067 7cbc 4d34 b03d 8af2 bc3d
000000d0: eea3 313e 8083 afbb 5f10 a63d 1f56 303e
000000e0: 60e9 533b 26b6 043e 8295 99bd de42 6a3d
000000f0: c063 3abc 777b e83d a805 b63c 48ed 50bd
00000100: a20e 783d a83b 6b3c c064 a23b e075 633b
00000110: 22b5 85bd c1cd 153e 9910 813d 2b29 b83d
00000120: 008b 213e 3415 8b3d b4d5 0f3d e690 6b3d
00000130: 4778 ed3d 55b8 4b3e 6f40 20bd 500e 393c
00000140: edc9 393e 34a1 87bc 0236 debc 3d15 913d
00000150: 347d 83bc c30e a53d b4bc 8f3c 809e 66bc
00000160: 981d d13c d756 0c3e 920b 2b3d deac 8cbd
00000170: 4500 923d 918e 10bd 8c6d a3bd 1be6 873d
00000180: 2a16 1ebd 98e7 053d 96aa 6b3d b916 83bd
00000190: e735 16bd d847 393c 2ca7 acbc 70ef 3f3e
000001a0: 40a9 0cbb 8e40 1abd 6abc 7f3d 06ad 553d
000001b0: 50b4 2dbc b809 343d 106a ec3b 5dcb e43d
000001c0: 8cda 0ebd fd44 e03d 207e a8bc d64f 113d
000001d0: 3a68 febc 4a98 4f3d 43a0 83bd 61f5 adbd
000001e0: 5f43 a63d 7e49 7d3d 3308 98bd 425c 463d
000001f0: 64bc 043d 8b42 803d ad71 a53d 42c9 72bd
00000200: af8a 39bd bf3d b43d f82b 5ebd bec2 d53d
00000210: b5bd 993d 21a1 b03d 98d8 5c3e 0cbf 113d
00000220: 83fa 25bd d230 e83c 60f9 89bd b044 ad3c
00000230: a789 cabc 5a36 003d 1493 143d af6e 893d
00000240: 8ae2 453d b04c b3bd bced 023d 0b79 833d
00000250: cd5f 343d 9781 913d 010e 90bd 874e b13d
00000260: c102 9a3d 3ac2 6c3d d697 523d 9a61 3d3d
00000270: be89 683d 72ef 2b3d 300a c13c a471 b13c
00000280: 3383 473e ea81 2fbd 0348 8fbd b01e f93b
00000290: f09a b2bb 22b6 493d fdcb b43d 69b4 2f3e
000002a0: 3d02 533e 690c 1fbd a140 b2bd 5104 343d
000002b0: c4a9 f93c 4090 ceba e034 8bbd bced 52bd
000002c0: 0d9f 91bd 7027 f83c fda5 5cbd f411 173e
000002d0: 5523 d33d 03b4 8e3d 5894 c03d 0f9b f2bc
000002e0: 51d2 a23d 0959 383e ad01 813d beea 1e3d
000002f0: 0068 c5bc e131 0d3e 0ca6 07bd 7ec2 d03c
00000300: 607f ea3c c224 143b a00c 053d 81e0 8b3d
00000310: bb86 aa3d c69b 5a3e a375 b63d a294 e93c
00000320: a332 2e3e 9d8a d93d 22c1 083e 75fb 903d
00000330: fabb c83d 1adb 443e 623c 763d 3ac6 143d
00000340: 2d11 d43d ecda 863c d8dd 9ebd 6863 4e3c
00000350: 67db 93bd 0598 7b3d 3076 a53b c4ec 113e
00000360: be5e 54bd 3e1a 413e 9390 abbd f587 5cbd
00000370: 8f0a 2d3d 3190 893d 2fce b43d 018b d13d
00000380: 1e22 2b3d b05b 9ebb fcee ef3c f0c6 f9bb
00000390: c4ff 50bd 9247 7dbd f635 0f3d 368a ea3d
000003a0: 495f aa3d 0017 3e3c 80ed ee3b eb16 923d
000003b0: 242a fd3c fc3e 0abd ed2a 883d 7d88 263d
000003c0: 1bab b73d 41bb 8cbd 79fc 823d 8037 41bd
000003d0: 1aa0 583d e0ee 4f3b 9704 40bd 4d82 0abd
000003e0: c041 1a3c a9a2 cbbc 80e1 24bc b896 1ebc
000003f0: 726b 5dbd ada4 1cbd 0f5f 2fbd e2cd 543d

out.bias f4 [21]
0.12101186 0.097466625 0.14834876 0.12620533 0.039117955 0.059206795 0.09661142 0.1632033
0.1752661 0.22759628 0.04901199 0.12965333 0.15648504 0.08764937 0.086425215 0.06119557
0.16511017 -0.0024151905 0.07243937 0.1800549 0.070344076
00000000: 11d5 f73d 959c c73d bde8 173e f83b 013e
00000010: 263a 203d d382 723d 35dc c53d c41e 273e
00000020: f578 333e 000f 693e ccc0 483d d8c3 043e
00000030: 9d3d 203e 8381 b33d b4ff b03d 35a8 7a3d
00000040: a412 293e 2c48 1ebb 185b 943d 5060 383e
00000050: 8e10 903d

fc1.weight f4 [128, 81]
0.019343667 0.005860105 -0.04082351 0.02361209 -0.100863814 0.06267936 -0.08196716 0.05331648
-0.07113263 0.004748076 -0.026935734 -0.026069365 -0.0023125783 0.09140753 -0.0021371841 -0.05929465
-0.07084416 0.013777815 0.075458534 0.108064525 -0.017725416 -0.01260405 -0.068639025 -0.09876898
-0.04731044 0.08896089 0.1029811 0.055662878 -0.072303906 -0.039168566 0.07135441 -0.07446248
-0.10977093 0.0817473 -0.066477105 -0.0621304 0.036325805 -0.059134353 -0.0574748 0.100331716
0.036327027 0.041626044 0.08056297 0.008947358 -0.030483827 -0.01173912 -0.055239994 0.004778467
-0.025070637 0.043653153 -0.050726227 0.08513547 -0.034669347 0.07882216 -0.028427519 0.026560657
0.032613583 0.016448505 -0.08387824 -0.012750626 0.11097466 0.000289917 -0.0877717 0.10287499
0.10921586 -0.050220966 -0.09860473 0.10106707 0.08638882 0.06572182 0.010526761 -0.068389416
-0.058341213 -0.025124341 -0.010307021 0.027737595 -0.03139113 0.103875495 0.04367972 0.015817858
0.082800664 0.17125744 0.19847903 0.0885169 0.11052868 0.079807326 0.043593265 0.10036147
0.12763458 0.15892564 0.18513955 0.06976141 0.05610176 0.049901783 -0.010497429 0.1998246
-0.042882837 0.123478875 -0.003627446 0.20851864 0.016121365 0.115602195 0.052829374 0.103745885
0.70468706 0.15672742 0.06043914 0.29951093 0.17094195 0.02042787 0.13726775 0.028155046
-0.43602127 0.082480565 0.026278112 -0.0026928973 0.07881436 0.1573515 -0.0023431568 0.23437905
-0.09261391 0.15882723 0.09247543 0.07634594 0.22002625 0.17136885 0.075673975 0.11799866
0.18364157 0.04253062 0.0410567 0.09734231 -0.1077637 0.11999215 -0.039811008 0.16124877
0.2384071 0.09476058 0.06922095 0.12021974 0.030721635 0.021049837 0.021216786 0.105203755
0.23693423 0.11039907 -0.07104296 0.17591923 0.11106005 0.013731148 0.052717302 0.09651607
-0.08663727 0.031003987 0.14293732 0.09860672 -0.1320958 0.20517808 -0.07016938 0.2645008
-0.1368009 0.007381864 0.0151556805 -0.03992854 0.095100485 -0.04991432 0.010159269 -0.018375397
-0.11070791 -0.09284936 -0.08878141 -0.089685604 0.009660125 0.07709301 0.048380233 0.045440756
-0.05152525 0.01811602 0.042664386 -0.069312826 -0.0023357868 -0.038377866 -0.07784523 0.10281537
0.06269836 -0.045461163 -0.08944947 0.0118539035 -0.05829341 -0.10521117 0.10971957 0.07397152
-0.10615938 -0.10224126 -0.09563659 -0.035859212 -0.09030911 0.04136885 0.020226397 0.020017616
0.013028346 -0.044203095 -0.10812822 0.060054757 -0.086717926 0.028841339 0.01228486 -0.10402671
0.0049471557 0.033343606 -0.056947272 -0.099902034 0.04795205 0.02149842 0.10808637 -0.008873858
0.07922227 0.056578808 -0.07818086 -0.0018210709 0.04608006 -0.041796394 -0.05844425 -0.104804754
0.05133625 -0.051998165 -0.07800114 0.09126974 0.036190175 -0.023833409 -0.09996887 0.09496785
0.008484669 -0.062038038 -0.09981455 -0.064713046 0.09571182 0.022185452 0.066858925 0.09494371
-0.08948811 -0.096789785 0.018446214 0.039723687 -0.11502424 -0.09876383 -0.024635583 -0.12846504
0.022768099 -0.07847338 -0.033208363 -0.002470615 -0.0022946275 -0.082458615 0.038737882 -0.10496891
00000000: 9c76 9e3c 2006 c03b 8e36 27bd 246e c13c
00000010: b091 cebd 095e 803d 66de a7bd 6262 5a3d
00000020: fcad 91bd c095 9b3b 54a8 dcbc 6c8f d5bc
00000030: a08e 17bb df33 bb3d 0010 0cbb f2de 72bd
00000040: be16 91bd 58bc 613c 018a 9a3d ef50 dd3d
00000050: e434 91bc 3881 4ebc 9e92 8cbd 6447 cabd
00000060: 98c8 41bd 2131 b63d c1e7 d23d c2fe 633d
00000070: 1214 94bd 386f 20bd 4322 923d c97f 98bd
00000080: 95cf e0bd 216b a73d 2625 88bd 727c 7ebd
00000090: 5eca 143d dd36 72bd b26a 6bbd b77a cd3d
000000a0: a6cb 143d 1280 2a3d 33fe a43d f097 123c
000000b0: 38b9 f9bc 7055 40bc 5543 62bd b094 9c3b
000000c0: f060 cdbc a6cd 323d 4ec6 4fbd 815b ae3d
000000d0: 7201 0ebd 836d a13d d4e0 e8bc bc95 d93c
000000e0: d295 053d 04bf 863c 5bc8 abbd 00e8 50bc
000000f0: af46 e33d 0000 9839 a6c1 b3bd 1fb0 d23d
00000100: 91ac df3d 80b4 4dbd 47f1 c9bd 41fc ce3d
00000110: 9fec b03d 2999 863d 7078 2c3c c00f 8cbd
00000120: 32f7 6ebd 90d1 cdbc c8de 28bc f439 e33c
00000130: fc93 00bd adbc d43d 82e9 323d 7494 813c
00000140: 6593 a93d 1c5e 2f3e 163e 4b3e 5948 b53d
00000150: dc5c e23d 0672 a33d da8e 323d 508a cd3d
00000160: a4b2 023e 67bd 223e 3995 3d3e 12df 8e3d
00000170: f6ca 653d d065 4c3d 69fd 2bbc d29e 4c3e
00000180: eaa5 2fbd 7ee2 fc3d 72ba 6dbb e985 553e
00000190: f410 843c d8c0 ec3d 9d63 583d b978 d43d
000001a0: 5f66 343f 277d 203e 088f 773d 7f59 993e
000001b0: 680b 2f3e 5958 a73c eb8f 0c3e 69a5 e63c
000001c0: 2e3e dfbe 92eb a83d 3245 d73c 527b 30bb
000001d0: 6c69 a13d c020 213e a68f 19bb 1001 703e
000001e0: 5dac bdbd 9ba3 223e c263 bd3d 435b 9c3d
000001f0: 904e 613e 517b 2f3e f5fa 9a3d 48a9 f13d
00000200: 890c 3c3e 9634 2e3d 122b 283d 685b c73d
00000210: 37b3 dcbd 72be f53d de10 23bd 661e 253e
00000220: fe20 743e d611 c23d b7c3 8d3d c435 f63d
00000230: f0ab fb3c b570 ac3c d3ce ad3c 1175 d73d
00000240: e39e 723e e818 e23d f97e 91bd 2c24 343e
00000250: 7473 e33d 9cf8 603c 19ee 573d 38aa c53d
00000260: e26e b1bd 13fc fd3c 295e 123e 52f2 c93d
00000270: 1f44 07be 341a 523e f7b4 8fbd a66c 873e
00000280: 8915 0cbe 90e3 f13b 884f 783c 1c8c 23bd
00000290: 0bc4 c23d f572 4cbd 1073 263c 0088 96bc
000002a0: d4ba e2bd ce27 bebd 07d3 b5bd 16ad b7bd
000002b0: 8045 1e3c f1e2 9d3d 5a2a 463d 1620 3a3d
000002c0: 240c 53bd 0c68 943c dac0 2e3d e2f3 8dbd
000002d0: 0014 19bb 1c32 1dbd 526d 9fbd dd90 d23d
000002e0: ff67 803d 7c35 3abd 4931 b7bd e036 423c
000002f0: 12c5 6ebd f478 d7bd a7b4 e03d 617e 973d
00000300: 176a d9bd de63 d1bd 1edd c3bd 1ce1 12bd
00000310: fcf3 b8bd 6272 293d d4b1 a53c fcfb a33c
00000320: d874 553c 4e0e 35bd 5472 ddbd fafb 753d
00000330: 2b99 b1bd ac44 ec3c 7046 493c f50b d5bd
00000340: c01b a23b 4e93 083d 8b41 69bd 7099 ccbd
00000350: 5e69 443d 741d b03c 635c dd3d a863 11bc
00000360: 493f a23d 2ebf 673d 491d a0bd 00b1 eeba
00000370: 72be 3c3d b232 2bbd 3d63 6fbd e0a3 d6bd
00000380: f645 523d 07fc 54bd 10bf 9fbd a1eb ba3d
00000390: 263c 143d 483e c3bc 7bbc ccbd 817e c23d
000003a0: 4803 0b3c 991b 7ebd 926b ccbd 4688 84bd
000003b0: 8f04 c43d 44be b53c 55ed 883d d971 c23d
000003c0: 8b45 b7bd b939 c6bd 841c 973c 4eb5 223d
000003d0: d491 ebbd b144 cabd 90d0 c9bc 578c 03be
000003e0: 2a84 ba3c a7b6 a0bd 7e05 08bd 0bea 21bb
000003f0: 7661 16bb 10e0 a8bd 9dab 1e3d f1f9 d6bd

fc1.bias f4 [128]
0.01578062 0.22188695 0.043995522 0.077342205 0.19098543 -0.08726878 -0.08039835 -0.08775953
-0.04503393 -0.06323293 0.21224575 0.105087325 0.12903014 0.101785116 0.03883585 0.06683901
0.04664849 -0.074799344 0.14170827 0.139683 0.029830016 0.10425783 0.020144157 0.014299549
0.043095626 -0.0046894453 0.24176532 -0.14099976 0.08032354 0.022559192 0.024335187 0.18814044
0.19892381 0.04803309 0.17034413 0.32709882 0.20430437 -0.020649686 0.0782999 -0.035891548
0.040589295 0.13849911 0.01096855 -0.00320331 0.053463224 0.066091806 0.13752297 0.06391749
0.22303131 -0.09678718 0.15023002 0.023567252 0.044288848 -0.029379025 0.0797788 -0.038281985
-0.008597547 -0.024968123 0.1901997 -0.08128553 0.006188581 0.18514566 0.15893807 0.065286316
0.050639458 -0.1059722 -0.11262149 -0.059531372 0.052673616 0.23443113 -0.1264378 -0.07309807
-0.10632114 -0.010158497 -0.09411325 0.02603736 0.0024573235 0.10629383 0.03912027 0.040832944
0.028519457 -0.09580967 0.041057758 0.0018137023 0.081016906 -0.091760896 -0.036021944 -0.0028657038
0.05235462 -0.1261142 0.04914672 0.2104817 -0.038729697 0.028672881 0.11359126 -0.079323426
0.19499707 0.21543452 -0.08062913 -0.04066427 0.09082829 0.04931879 0.05521044 0.13995713
0.051465668 0.034745675 0.068611726 -0.016427746 -0.11355156 0.110726126 0.2031818 0.010873231
-0.13068096 0.099097036 0.058054816 0.003164783 0.06559506 -0.0880454 -0.10190623 0.016753305
-0.051859993 -0.0150135895 -0.0003692693 0.03909823 -0.04879362 0.16740908 -0.07787584 0.107677445
00000000: 5c46 813c 5536 633e a634 343d 9765 9e3d
00000010: af91 433e f9b9 b2bd e4a7 a4bd 45bb b3bd
00000020: 8075 38bd 4480 81bd f356 593e 0638 d73d
00000030: 7a20 043e b774 d03d 5712 1f3d e4e2 883d
00000040: 7d12 3f3d 6630 99bd f91b 113e 0f09 0f3e
00000050: 145e f43c 2185 d53d 5c05 a53c a848 6a3c
00000060: 0a85 303d eba9 99bb 5491 773e 3e62 10be
00000070: ab80 a43d 0ece b83c 965a c73c e3a7 403e
00000080: afb2 4b3e 58be 443d b16e 2e3e 7f79 a73e
00000090: 2a35 513e 8829 a9bc b35b a03d 0403 13bd
000000a0: f640 263d b6d2 0d3e 6fb5 333c a0ee 51bb
000000b0: 41fc 5a3d 245b 873d d2d2 0c3e 2ce7 823d
000000c0: 5262 643e 5b38 c6bd e6d5 193e 1c10 c13c
000000d0: 3968 353d 48ac f0bc 1163 a33d 92cd 1cbd
000000e0: badc 0cbc f389 ccbc b6c3 423e 0779 a6bd
000000f0: 95c9 ca3b d396 3d3e a9c0 223e d5b4 853d
00000100: 526b 4f3d f407 d9bd 19a6 e6bd 2bd7 73bd
00000110: 4ac0 573d b70e 703e e978 01be 71b4 95bd
00000120: e6be d9bd d36f 26bc 73be c0bd 4d4c d53c
00000130: 0c0b 213b 94b0 d93d 943c 203d 7240 273d
00000140: a3a1 e93c dc37 c4bd 2e2c 283d c0b9 ed3a
00000150: 31ec a53d 23ed bbbd bf8b 13bd 88ce 3bbb
00000160: cc71 563d 1524 01be 124e 493d 8488 573e
00000170: 08a3 1ebd 64e3 ea3c 89a2 e83d 5274 a2bd
00000180: 50ad 473e de9a 5c3e e320 a5bd 948f 26bd
00000190: 2f04 ba3d 8002 4a3d 5824 623d ec50 0f3e
000001a0: aacd 523d 7b51 0e3d 4e84 8c3d 7b93 86bc
000001b0: b88d e8bd 61c4 e23d e40e 503e a325 323c
000001c0: 3bd1 05be 63f3 ca3d e3ca 6d3d 3f68 4f3b
000001d0: b456 863d 2651 b4bd 37b4 d0bd 3a3e 893c
000001e0: 256b 54bd 8ffb 75bc 7d9a c1b9 7725 203d
000001f0: d2db 47bd 496d 2b3e 5e7d 9fbd fe85 dc3d

fc2.weight f4 [128, 128]
-0.040552653 -0.045834605 0.0031420067 0.050392352 -0.047600005 0.046834163 -0.008699149 -0.060127515
-0.06861399 0.026128441 -0.058347456 0.0031149965 0.06480352 0.0020331293 0.06857718 -0.05667869
0.04069718 -0.06723541 -0.0095238425 -0.033447385 0.08111725 0.057455264 0.08733351 0.012160622
-0.009749718 0.08227972 0.05216286 -0.06274001 -0.050106555 -0.08816449 -0.055221748 -0.04346984
-0.031804454 -0.02277264 0.0383509 -0.09153143 0.023481663 0.04209269 0.014760671 0.064587586
0.076445974 -0.05990975 -0.083334506 0.053171538 -0.0897951 0.023711232 -0.055889145 0.027770987
0.07906099 0.0868075 0.056400478 0.07414923 0.05939836 -0.057184115 -0.030703917 0.0023706332
0.07299211 -0.012203967 0.024181584 0.08753265 -0.04064201 -0.031180948 0.034176916 0.05739654
-0.082129 0.0036459342 -0.08557288 -0.01648628 -0.07318517 0.07611703 0.040637262 -0.020284124
-0.035962977 -0.0548138 0.005433716 -0.019934349 -0.0095917415 -0.017328942 -0.030197345 0.0007051155
0.085636996 0.042370103 0.07468733 -8.2820654e-05 -0.051109638 -0.0024525896 -0.0024929196 0.027068093
-0.003856725 0.07266305 0.018259123 0.025929235 -0.009538889 -0.08364073 -0.061783567 0.082737185
0.02472732 -0.024426622 0.05148206 0.024200067 0.05132637 -0.052394304 -0.023750313 -0.07734444
0.06904969 -0.02342099 0.009867877 -0.06255378 -0.014467128 -0.034072522 0.014853883 0.06697763
-0.072519325 -0.07327341 0.08417597 0.055407695 0.062629364 -0.021103404 0.04331038 -0.055052917
-0.08085527 -0.0071437913 -0.07335164 0.07174217 0.07178558 0.057648744 0.03806708 0.009934877
-0.0058679357 -0.024163665 -0.028428998 -0.03912657 -0.05693529 0.032175526 -0.08015928 0.06211681
-0.059572756 -0.0435907 0.024823744 -0.026792439 0.07139671 -0.063600615 -0.033946212 0.06951743
-0.04167843 0.002248481 -0.037676066 -0.033899944 -0.077209204 -0.08024531 0.028484501 0.019348271
0.07502643 -0.009148236 -0.018795738 -0.075732015 0.035334736 -0.08579067 -0.08281215 0.04903807
0.04400755 0.01786749 -0.07840312 0.03365449 -0.0017120466 -0.011363573 -0.075708 0.06253418
0.001783775 0.028862787 0.05259609 0.05732184 -0.082240246 0.03895065 -0.03276967 0.009077254
-0.08481976 -0.07259174 0.027229624 0.011145279 0.060665257 0.07767438 -0.05375529 -0.022868015
-0.026097056 -0.06537095 -0.09658554 -0.05129147 0.005627572 -0.019860284 -0.037164226 0.045811437
0.08005469 0.024517983 0.040477656 -0.028167024 0.059940152 -0.061272718 -0.008047856 0.019823031
0.013801092 0.05818381 0.0790126 -0.0036488778 -0.034983747 -0.07160521 0.06612619 -0.06661574
0.01038225 -0.030016985 -0.045221236 0.027152412 0.03707809 0.011487946 0.04689484 0.04307776
0.056247108 -0.0416325 0.05280026 -0.04287787 0.07303887 -0.09535769 0.06588222 0.084172465
0.034910917 0.006831385 0.070876814 -0.052273754 -0.074690714 -0.08410852 -0.0092252735 -0.067563586
-0.08038874 0.06494711 -0.029309962 0.061465062 0.06520244 0.068018325 -0.01808501 0.02210187
0.076899685 0.0027015305 -0.07534966 -0.03239644 0.062053867 0.01638294 0.07413613 0.074755006
-0.06739188 -0.09375607 0.040777586 0.058281764 0.016946755 0.019802654 0.06320489 -0.03032268
00000000: 8a1a 26bd 11bd 3bbd 20ea 4d3b 3668 4e3d
00000010: 39f8 42bd 2ed5 3f3d e086 0ebc 4548 76bd
00000020: 7e85 8cbd 500b d63c befd 6ebd f824 4c3b
00000030: b5b7 843d 403e 053b 3172 8c3d ea27 68bd
00000040: 16b2 263d b8b2 89bd e409 1cbc 2000 09bd
00000050: cd20 a63d 3656 6b3d e9db b23d 583d 473c
00000060: 48bd 1fbc 4582 a83d b9a8 553d d67d 80bd
00000070: 883c 4dbd 968f b4bd 3330 62bd 6e0d 32bd
00000080: 6345 02bd b08d babc d515 1d3d d574 bbbd
00000090: 9e5c c03c 6269 2c3d bed6 713c 7f46 843d
000000a0: b58f 9c3d ed63 75bd 48ab aabd 66ca 593d
000000b0: 7ee6 b7bd 0f3e c23c 04ec 64bd fb7f e33c
000000c0: baea a13d 21c8 b13d 3004 673d 8ddb 973d
000000d0: b24b 733d e439 6abd c886 fbbc a05c 1b3b
000000e0: e37c 953d 26f3 47bc 7518 c63c 5144 b33d
000000f0: 3c78 26bd 306f ffbc 18fd 0b3d a218 6b3d
00000100: 4033 a8bd a0f0 6e3b d640 afbd 3c0e 87bc
00000110: 1be2 95bd 3fe3 9b3d 4273 263d e42a a6bc
00000120: ea4d 13bd 6f84 60bd 500d b23b 5c4d a3bc
00000130: ae26 1dbc 6df5 8dbc 6c60 f7bc 80d7 383a
00000140: 7362 af3d 468c 2d3d acf5 983d 00b0 adb8
00000150: 5758 51bd a0bb 20bb 4060 23bb e8bd dd3c
00000160: 1cc1 7cbb 5dd0 943d 2894 953c 8c69 d43c
00000170: 0049 1cbc d54b abbd c410 7dbd 1d72 a93d
00000180: f390 ca3c 571a c8bc dade 523d 383f c63c
00000190: 9a3b 523d 699b 56bd 0490 c2bc c366 9ebd
000001a0: ed69 8d3d 60dd bfbc e0ac 213c 321c 80bd
000001b0: 8807 6dbc a18f 0bbd b35d 733c 912b 893d
000001c0: 0385 94bd 5f10 96bd 7364 ac3d 2ef3 623d
000001d0: d343 803d 0ce1 acbc 3a66 313d 2b7f 61bd
000001e0: 7397 a5bd 7716 eabb 6239 96bd 8fed 923d
000001f0: 5104 933d 1721 6c3d 3aec 1b3d e5c5 223c
00000200: d047 c0bb e1f2 c5bc eee3 e8bc 2f43 20bd
00000210: fb34 69bd 7cca 033d 8c2a a4bd 326e 7e3d
00000220: 9002 74bd 298c 32bd 2a5b cb3c d17b dbbc
00000230: 7038 923d 0a41 82bd 2f0b 0bbd 285f 8e3d
00000240: 00b7 2abd 405b 133b 3852 1abd abda 0abd
00000250: dc1f 9ebd a757 a4bd 5458 e93c 4480 9e3c
00000260: 75a7 993d 7ce2 15bc 85f9 99bc 6319 9bbd
00000270: 28bb 103d 05b3 afbd 6b99 a9bd 25dc 483d
00000280: 4341 343d d85e 923c d191 a0bd 4ad9 093d
00000290: c066 e0ba 482e 3abc cc0c 9bbd ec11 803d
000002a0: 8fcd e93a a771 ec3c ff6e 573d 4eca 6a3d
000002b0: 936d a8bd b78a 1f3d 7d39 06bd c3b8 143c
000002c0: fbb5 adbd faaa 94bd a910 df3c b09a 363c
000002d0: 227c 783d bf13 9f3d 822e 5cbd b455 bbbc
000002e0: 7ec9 d5bc 34e1 85bd a4ce c5bd 0117 52bd
000002f0: 7f67 b83b 09b2 a2bc 8439 18bd c6a4 3b3d
00000300: b7f3 a33d f0d9 c83c e6cb 253d 88be e6bc
00000310: ce83 753d 1af9 7abd 28db 03bc e963 a23c
00000320: fa1d 623c 2652 6e3d 5cd1 a13d 0322 6fbb
00000330: 1e4b 0fbd c1a5 92bd 2b6d 873d d56d 88bd
00000340: 501a 2a3c 2ee6 f5bc e739 39bd bc6e de3c
00000350: 32df 173d f037 3c3c ce14 403d 4e72 303d
00000360: 5e63 663d d786 2abd 1645 583d b5a0 2fbd
00000370: 6795 953d e44a c3bd 42ed 863d 9d62 ac3d
00000380: c0fe 0e3d d0d9 df3b dd27 913d 011d 56bd
00000390: 72f7 98bd 1641 acbd 9a25 17bc c75e 8abd
000003a0: daa2 a4bd fe02 853d 721b f0bc cac2 7b3d
000003b0: db88 853d 314d 8b3d 0427 94bc fb0e b53c
000003c0: 957d 9d3d 290c 313b ec50 9abd 21b2 04bd
000003d0: 322c 7e3d 8435 863c afd4 973d 2719 993d
000003e0: c104 8abd 2f03 c0bd 6606 273d dcb8 6e3d
000003f0: ecd3 8a3c 2d39 a23c 9171 813d 4567 f8bc

fc2.bias f4 [128]
0.014802403 0.07424379 -0.002550472 0.122016676 0.07991573 0.0028177784 0.17195249 -0.0026015467
0.003086694 -0.13627829 -0.09729996 0.14819285 -0.11979597 -0.07412432 0.021544777 0.16230322
0.017545398 -0.035238218 0.040967185 -0.053195428 -0.06987502 -0.108067706 1.4252961e-05 -0.0021047583
-0.059597533 0.00018349802 -0.07146054 -0.08630465 0.041843735 0.034121178 -0.038333 -0.0690862
0.062207624 -0.13486852 -0.04283814 -0.10532422 0.04719854 -0.031263914 0.003615111 0.10375521
0.1973551 -0.0032768631 0.017318316 0.015689768 -0.071253546 0.016005732 -0.039256807 -0.045872822
-0.13656628 0.022270193 0.054772384 0.13760217 0.13841648 -0.022183387 0.023725314 0.076070584
-0.014186086 0.14760122 -0.08015363 -0.024771653 -0.05149231 0.20491628 -0.010378584 -0.09245082
-0.07103237 -0.0320513 0.009032013 -0.04040147 0.033137843 0.15501045 0.18831833 -0.13642238
0.16477865 0.223604 0.05843623 -0.005274549 0.17897226 0.17993647 -0.05755093 0.0038820307
0.20232907 0.022121012 -0.08245166 0.0042709173 -0.050559536 0.15564303 -0.06412449 0.065021455
0.003362687 0.06696538 -0.031496454 0.07153415 -0.069003746 0.0365145 0.074654184 -0.008947636
0.014685385 -0.022364382 -0.01667472 0.075404175 0.064288296 -0.0022679716 -0.07026447 0.12067536
0.00359305 -0.08696495 0.029166326 -0.071239874 0.024414185 0.03500141 0.049083885 0.21495987
-0.15264936 -0.0005068764 0.027256727 -0.03528996 -0.06820027 -0.07675627 -0.054082356 0.0028489165
0.017514365 -0.09651949 0.034013614 0.012086138 -0.0045551583 0.040257163 -0.04987989 0.0064682034
00000000: c785 723c 210d 983d d225 27bb e1e3 f93d
00000010: dcaa a33d 7aaa 383b 5014 303e b67e 2abb
00000020: 224a 4a3b 898c 0bbe 3445 c7bd debf 173e
00000030: 9757 f5bd 7ece 97bd ac7e b03c d132 263e
00000040: 5ebb 8f3c f355 10bd 35cd 273d 73e3 59bd
00000050: a21a 8fbd 9a52 ddbd 0020 6f37 fcef 09bb
00000060: 8b1c 74bd 6069 4039 e759 92bd 7ec0 b0bd
00000070: 5664 2b3d a6c2 0b3d 1003 1dbd 117d 8dbd
00000080: 6ccd 7e3d f91a 0abe 0c77 2fbd 3ab4 d7bd
00000090: 4253 413d 970e 00bd 80eb 6c3b 9d7d d43d
000000a0: 7517 4a3e a4c0 56bb 24df 8d3c d487 803c
000000b0: 61ed 91bd 741e 833c bfcb 20bd 24e5 3bbd
000000c0: 08d8 0bbe fb6f b63c 0259 603d 95e7 0c3e
000000d0: 0dbd 0d3e efb9 b5bc 975b c23c e5ca 9b3d
000000e0: c26c 68bc c624 173e 9627 a4bd eced cabc
000000f0: 9ae9 52bd 93d5 513e f00a 2abc db56 bdbd
00000100: 6b79 91bd 3948 03bd 02fb 133c 037c 25bd
00000110: 8cbb 073d 0fbb 1e3e 85d6 403e 4fb2 0bbe
00000120: bcbb 283e 72f8 643e d45a 6f3d 20d6 acbb
00000130: 8144 373e 4441 383e 86ba 6bbd ab69 7e3b
00000140: 5a2f 4f3e 2037 b53c 6adc a8bd 0df3 8b3b
00000150: 8417 4fbd e360 1f3e b353 83bd f829 853d
00000160: 8760 5c3b 2525 893d 6d02 01bd 7f80 923d
00000170: d651 8dbd 3a90 153d 4be4 983d 1b99 12bc
00000180: f89a 703c 8235 b7bc 6c99 88bc 816d 9a3d
00000190: 95a9 833d 40a2 14bb d2e6 8fbd a524 f73d
000001a0: 6079 6b3b ae1a b2bd 38ee ee3c 36e6 91bd
000001b0: 4200 c83c a35d 0f3d 2f0c 493d 711e 5c3e
000001c0: 1d50 1cbe e6df 04ba 8049 df3c 358c 10bd
000001d0: 95ac 8bbd 6432 9dbd 7685 5dbd e3b4 3a3b
000001e0: 497a 8f3c 03ac c5bd dc51 0b3d f004 463c
000001f0: 7043 95bb b2e4 243d db4e 4cbd 39f3 d33b
