WSNs/trained_wrsn_agent.pth (torch, 484786 bytes, 24 tensors)

fc1.weight f4 [128, 81]
0	0xbde19356	-0.1101443
1	0x3ce2de6c	0.02769395
2	0xbb73011d	-0.003707952
3	0xbd6d9580	-0.058003902
4	0x3c33783b	0.010953958
5	0x3dbd34f3	0.09238615
6	0xbdb5e19f	-0.088809244
7	0x3c073370	0.00825201
8	0xbdb34a3f	-0.08754396
9	0xbdb3b403	-0.08774569
10	0x3d52a545	0.051427145
11	0x3d6277a2	0.055289872
12	0x3da68d55	0.08132426
13	0x3dc8cbaa	0.09804471
14	0xbc25d170	-0.010120735
15	0x3cf6e2d4	0.030137457
16	0x3cf1ac4f	0.029501108
17	0x3dd0b07e	0.10189913
18	0xbb745aae	-0.0037285495
19	0xbd983316	-0.07431619
20	0xbdf235a6	-0.11826639
21	0xbdbe9501	-0.09305764
22	0xbcfd1dd8	-0.03089802
23	0x3dc8f6fb	0.09812733
24	0x3d989e0d	0.07452021
25	0xbddef426	-0.10886411
26	0xbda6e1b5	-0.08148519
27	0x3dbad3f5	0.09122459
28	0x3c88408b	0.016632339
29	0xbdbd547d	-0.092446305
30	0x3d5a35c3	0.053273927
31	0xbccd46d4	-0.025058188
32	0xbd7506b1	-0.059820835
33	0x3d9f0034	0.077637106
34	0xbdd7ac18	-0.10530871
35	0x3c16aa90	0.009195939
36	0xbd140e8c	-0.036146685
37	0x3c272fac	0.010204237
38	0xbdb5a0c5	-0.08868555
39	0xbd8020a6	-0.06256227
40	0x3ce76187	0.028244747
41	0x3ceb4882	0.028721098
42	0x3d624f1c	0.055251226
43	0xbcc6bbc8	-0.024259463
44	0xbde5d9d2	-0.112231866
45	0xbca58e23	-0.020209378
46	0x3d0de1ae	0.034639053
47	0xbd7fcfcb	-0.062454026
48	0x3db2b5e3	0.087260984
49	0xbdc5a3b7	-0.09650367
50	0x3b5ee749	0.0034012368
51	0xbd70e08e	-0.058807902
52	0x3d03b13b	0.032151442
53	0x3db1017e	0.08642863
54	0xbd13d129	-0.036088143
55	0x3d4d88aa	0.05017916
56	0xbde5756b	-0.11204036
57	0xbdea6f94	-0.11447063
58	0xbdb29871	-0.08720482
59	0x3dc14719	0.09437389
60	0x3cdadf49	0.026717799
61	0xbd859f59	-0.06524534
62	0x3daa7773	0.083235644
63	0xbc88d9a4	-0.016705342
64	0xbdf51281	-0.1196642
65	0xbd9bfdc3	-0.076167606
66	0xbd701459	-0.058613155
67	0xbd7c06ae	-0.061529808
68	0xbd9c379f	-0.076277964
69	0x3d92301d	0.07138083
70	0x3d8f9b41	0.07012034
71	0xbc9ba25c	-0.018998317
72	0x3d89a1c7	0.0672031
73	0xbd466e2e	-0.04844492
74	0xbd637c16	-0.05553826
75	0xbc8e0ed4	-0.017341055
76	0x3d18b523	0.03728212
77	0xbd8c9179	-0.06863684
78	0x3d9407ee	0.07228075
79	0x3d39cfea	0.045364298
80	0xbda55b36	-0.08074038
81	0x3df38145	0.118898906
82	0x3dc3316c	0.09530911
83	0x3dacc1de	0.08435415
84	0xbdcfee5b	-0.101528846
85	0xbc4f9d64	-0.012671802
86	0x3db73988	0.0894652
87	0xbd8b29eb	-0.067951046
88	0x3e98728d	0.29774895
89	0x3af7b052	0.0018897152
90	0xbdbcb836	-0.09214823
91	0x3daadfbb	0.083434545
92	0x3dda53f4	0.10660544
93	0xbc0b45d5	-0.008500536
94	0x3da7497e	0.081683144
95	0x3d973b06	0.07384305
96	0x3e788335	0.24268802
97	0x3e105543	0.14095025
98	0x3dbb9c2e	0.09160648
99	0xbd4fb868	-0.050712973
100	0x3ddea848	0.10871941
101	0x3db71752	0.08939995
102	0x3d926dc6	0.07149844
103	0x3d0385d6	0.032110058
104	0xbe06a49b	-0.1314873
105	0x3c8fc941	0.01755202
106	0xbdae492f	-0.085100524
107	0xbd901f49	-0.07037217
108	0x3d877930	0.066149116
109	0x3df8d92a	0.12150796
110	0x3d3b37e7	0.04570761
111	0x3d9e7440	0.07737017
112	0x3e42892d	0.18997641
113	0x3dbb6f0b	0.09152039
114	0xbd969d47	-0.07354217
115	0x3ce21e68	0.02760239
116	0x3c1004c5	0.0087902
117	0xba4d36d8	-0.0007828302
118	0x3d323ab4	0.043513015
119	0x3d081735	0.033225257
120	0x3e0aa000	0.13537598
121	0x3b31f6de	0.00271552
122	0x3db99560	0.09061694
123	0x3e067a13	0.13132505
124	0xbd068eea	-0.032851137
125	0x3e136883	0.14395337
126	0x3dcb0c42	0.09914447
127	0x3dbdfd88	0.09276873
128	0x3eee588b	0.46551928
129	0x3e0d7693	0.13814764
130	0x3dcf6733	0.101271056
131	0x3c9ba476	0.01899932
132	0xbba447e8	-0.0050134547
133	0xbbd8e2fe	-0.0066188565
134	0x3cc11698	0.023570344
135	0x3e0bd016	0.13653597
136	0x3e6b0a96	0.22953257
137	0x3d285b93	0.041102957
138	0xbd62849d	-0.05530225
139	0x3cbc8722	0.023013655
140	0x3d4af619	0.049551103
141	0xbd1699db	-0.03676782
142	0xbd550c67	-0.05201378
143	0xbca9ea9f	-0.020741759
144	0x3ee84fc2	0.4537335
145	0x3d1a15b3	0.03761835
146	0xbccb3fcb	-0.024810692
147	0x3c58253a	0.013192469
148	0x3d640586	0.05566933
149	0x3def8d17	0.116968326
150	0x3e0af52d	0.1357009
151	0x3dc0311e	0.09384368
152	0xbc98380d	-0.018581415
153	0x3c9ed02b	0.019386372
154	0x3bbfc6cc	0.005852556
155	0xbc431a15	-0.011908074
156	0x3e5340eb	0.20630233
157	0x3dd4bf8a	0.10388096
158	0xbd72f6ea	-0.059317507
159	0x3e146169	0.14490284
160	0xbdaf4498	-0.08558005
161	0x3c2ff093	0.01073851
162	0x3e563e88	0.20922291
163	0x3d8315fb	0.06400677
164	0x3e22ae74	0.15886861
165	0xbca10b9c	-0.019658856
166	0x3d11920c	0.03553967
167	0x3c9f6ceb	0.019461116
168	0x3df3441f	0.118782274
169	0x3e3b685a	0.18301526
170	0x3e39d61f	0.18148087
171	0x3e0bb751	0.13644148
172	0x3df8b8ea	0.121446446
173	0x3e1dc431	0.15406872
174	0x3d8ef574	0.0698041
175	0xbbb2de5c	-0.005458636
176	0x3e2991e0	0.16559553
177	0x3e9155d4	0.28385794
178	0x3e46030c	0.193371
179	0x3e21f4ac	0.15815991
180	0x3e2fc6af	0.17165636
181	0x3ddddf90	0.10833657
182	0x3e558b47	0.20853911
183	0xbbaa8775	-0.005204136
184	0x3dd5b43c	0.104347676
185	0xbd3968cc	-0.045265958
186	0x3d79b5e3	0.060964476
187	0x3e062e7d	0.13103671
188	0x3d672041	0.056427244
189	0x3d1d1d2a	0.03835789
190	0x3de76c57	0.11299961
191	0xbcaa3221	-0.020775856
192	0x3e2c27bd	0.16812034
193	0x3d3ca482	0.046055324
194	0x3dbf29f0	0.09334171
195	0x3d88b6e3	0.06675508
196	0x3e309795	0.17245324
197	0x3e12c1fd	0.14331813
198	0x3e4d8a2a	0.20072237
199	0x3df92b3f	0.12166452
200	0x3e184ea5	0.1487375
201	0x3daa2743	0.0830827
202	0x3e10b15e	0.1413016
203	0x3dc6065b	0.09669181
204	0x3e446ae0	0.19181395
205	0x3c2e89fd	0.010653016
206	0x3e03447f	0.12819098
207	0x3d9fd4f3	0.07804289
208	0x3e1feba3	0.15617232
209	0x3f003d3c	0.50093436
210	0x3e59c276	0.21265587
211	0xbc54e814	-0.012994785
212	0x3e0fc41a	0.1403965
213	0x3d4dcd13	0.050244402
214	0x3e37ef2c	0.1796233
215	0x3c4cd70c	0.012502443
216	0x3e450053	0.19238405
217	0x3e6554b5	0.22395594
218	0x3d79dce2	0.061001666
219	0xbccb72d3	-0.024835026
220	0x3c98a3f6	0.01863287
221	0x3e26399c	0.16232914
222	0x3e09467b	0.13405792
223	0x3d6d0f04	0.05787565
224	0x3e09d444	0.13459879
225	0x3ed279c1	0.41108516
226	0x3df4a3f1	0.11945332
227	0x3e0cef35	0.13763125
228	0x3dcbd997	0.09953611
229	0x3db76bb7	0.08956092
230	0x3e2782ab	0.1635844
231	0x3d28da87	0.04122403
232	0x3e43462e	0.1906974
233	0xbd383edd	-0.044981826
234	0x3e1dcbb2	0.15409735
235	0x3deba68f	0.11506378
236	0x3dfc3cde	0.12316297
237	0x3e336827	0.175202
238	0x3e5ab427	0.21357785
239	0x3d21d3fb	0.0395088
240	0x3cf15675	0.029460171
241	0xbe19d45e	-0.15022418
242	0x3e300d70	0.17192626
243	0xbdd285ce	-0.102794275
244	0xbcd8c5c0	-0.026461482
245	0x3cff100c	0.031135581
246	0xbc8d8754	-0.017276444
247	0xbd0f8d28	-0.035046726
248	0xbc33da70	-0.0109773725
249	0xbde352fb	-0.11099812
250	0x3ce4951c	0.027903132
251	0xbdcb20ae	-0.099183425
252	0x3d0923da	0.033481456
253	0xbd4b6495	-0.04965647
254	0x3dcd27a3	0.10017326
255	0xbd8886da	-0.06666346

fc1.bias f4 [128]
0	0xbbec53e3	-0.0072121485
1	0x3caad7e6	0.020854902
2	0x3ca4374e	0.020045903
3	0x3dd199af	0.10234391
4	0xbdb4ee03	-0.0883446
5	0x3e4868c6	0.19571218
6	0xbdcbd73c	-0.09953162
7	0xbe04a5bb	-0.12953846
8	0x3dc2cee6	0.09512119
9	0xbdde7859	-0.10862798
10	0x3e0fb1a0	0.14032602
11	0x3d492116	0.04910382
12	0xbbe6120c	-0.0070211943
13	0x3e68911d	0.22711606
14	0xbd94f5b8	-0.0727343
15	0xbe001c0e	-0.12510702
16	0x3a91670d	0.0011093334
17	0x3c9c65e9	0.019091563
18	0x37d40f46	2.5279482e-05
19	0x3c3d28c7	0.011545367
20	0xbde64db0	-0.112452865
21	0x3d8bbb80	0.06822872
22	0x3e2fa126	0.17151317
23	0x3db80eab	0.08987173
24	0xbe0b18dd	-0.13583703
25	0x3d705d92	0.058682986
26	0x3c9d7f8c	0.019225858
27	0xbc922d88	-0.017843977
28	0x3deed8e7	0.116624646
29	0xbd374a60	-0.044748664
30	0xbe02f435	-0.1278847
31	0x3d2858d9	0.041100357
32	0x3e3f721a	0.1869587
33	0x3de628d9	0.1123826
34	0x3d9bc300	0.07605553
35	0x3bd2aa90	0.006429024
36	0x3e47ec1e	0.19523665
37	0xbdc6f70b	-0.097150885
38	0xbd73ea55	-0.05954965
39	0xbc682bdf	-0.014170616
40	0x3d5c90f2	0.053849168
41	0xbd747900	-0.059685707
42	0x3e3284b1	0.1743343
43	0xbda0d80e	-0.07853709
44	0x3e078c0b	0.13237016
45	0x3e79071f	0.24319123
46	0x3d02f136	0.031968318
47	0xbd9d9757	-0.076948814
48	0xbc6e6242	-0.014549794
49	0xbdd523db	-0.104072295
50	0x3d61e89d	0.055153478
51	0x3dc6cc85	0.09706978
52	0x3e35bf47	0.17748748
53	0x3dc07ff0	0.09399402
54	0xbcc64d4c	-0.02420678
55	0x3d56189c	0.052269563
56	0xbdabb2da	-0.083837226
57	0x3ca645d3	0.020296967
58	0x3cd87064	0.02642078
59	0x3c1d2bc8	0.009592958
60	0x3c3a8bd1	0.011385874
61	0x3c91982c	0.017772757
62	0x3e3885c7	0.18019782
63	0x3e0a01d6	0.13477263
64	0x3d442ceb	0.0478944
65	0x3e2ee588	0.17079747
66	0xbdc09ce4	-0.094049245
67	0x3e62ad0d	0.22136326
68	0x3e1ca123	0.15295844
69	0xbdaae54e	-0.08344518
70	0x3d9f2a1b	0.07771703
71	0xbdf3796d	-0.118883945
72	0xbddd9db1	-0.10821093
73	0x3c834754	0.016025223
74	0x3da83bca	0.08214529
75	0x3df02668	0.117260754
76	0x3d733e81	0.05938578
77	0x3d4cb05e	0.049972884
78	0x3e507a4d	0.20359154
79	0x3d2b5376	0.04182764
80	0xbdf0775b	-0.11741515
81	0x3e41fb46	0.1894351
82	0xbe0520ac	-0.13000745
83	0xbdc89e47	-0.09795814
84	0x3e4c1717	0.19930683
85	0x3d3f81eb	0.04675476
86	0xbb3a5f60	-0.0028438196
87	0xbd91e03c	-0.071228474
88	0x3d86a5a2	0.06574561
89	0xbd892792	-0.066970006
90	0xbd54d942	-0.051965006
91	0xbca5d208	-0.020241752
92	0xbdfe3310	-0.12412083
93	0xbd05319c	-0.032518014
94	0xbd20798e	-0.039178424
95	0xbdefd511	-0.11710561
96	0x3dcd559a	0.10026093
97	0x3d3f16b6	0.04665252
98	0x3d7b7c7e	0.061398022
99	0xbd174797	-0.036933508
100	0x3c43266b	0.011911015
101	0x3d56b5a2	0.052419312
102	0x3df43643	0.11924412
103	0x3da0fdf3	0.07860937
104	0x3eb740c6	0.35791606
105	0xbd537e75	-0.05163427
106	0x3db9591f	0.090502016
107	0xbd24bef1	-0.04022116
108	0x3c92ba2c	0.01791104
109	0xbb418d60	-0.002953373
110	0x3ddda974	0.10823336
111	0xbcd3f4a9	-0.025873499
112	0x3d8186b9	0.063245244
113	0xbdcc9cf1	-0.09990872
114	0x3d9b4873	0.07582178
115	0x3d2043e6	0.039127253
116	0x3e4cc1f6	0.19995865
117	0x3e361404	0.17781073
118	0xbceff689	-0.029292362
119	0x3e5443c2	0.20728973
120	0x3e177351	0.14790083
121	0x3e02cbb4	0.12773019
122	0x3e3c0ab9	0.18363465
123	0xbde305db	-0.11085101
124	0x3e78cfab	0.24297969
125	0x3dccb663	0.09995725
126	0x3d553962	0.052056678
127	0x3da8b97f	0.082385056

fc2.weight f4 [128, 128]
0	0x3d0d89e8	0.034555346
1	0x3d26aefb	0.040694218
2	0xbc119e28	-0.008887805
3	0x3d86a5f9	0.065746255
4	0x3d9581b5	0.0730013
5	0x3d8c37cc	0.0684658
6	0xbd934be9	-0.07192213
7	0x3d87cadd	0.0663049
8	0x3d90de17	0.0707361
9	0x3d8d78a9	0.0690778
10	0x3d422165	0.04739513
11	0x3daf71d9	0.085666366
12	0x3cc79d3d	0.02436697
13	0xbda852e0	-0.08218932
14	0xbd955d51	-0.07293189
15	0xbd635a36	-0.055505954
16	0x3d5eae72	0.054365583
17	0x3d4a8e50	0.049452126
18	0xbd910ea5	-0.07082871
19	0xbd83936f	-0.06424605
20	0x3da0b225	0.078464784
21	0xbb8fa01a	-0.0043830993
22	0xbb1de354	-0.0024091797
23	0x3bc1bf10	0.005912669
24	0xbd9dee12	-0.07711424
25	0x3d380b42	0.04493261
26	0xbd4973b2	-0.0491826
27	0xbd9b5cc0	-0.0758605
28	0x3d66894f	0.05628329
29	0xbdaaa5a9	-0.083323784
30	0xbd6cc9d2	-0.05780966
31	0x3c9a78a2	0.01885635
32	0xbd76b689	-0.060232673
33	0x3cbe2955	0.023213068
34	0xbdebfd77	-0.11522954
35	0xbd60096b	-0.05469648
36	0xbdb8d59f	-0.0902512
37	0x3d866771	0.06562699
38	0x3d49b28a	0.049242534
39	0x3b295c88	0.0025842506
40	0xbd4aa284	-0.049471393
41	0x3cdbf95c	0.026852302
42	0x3d04b5ab	0.032399815
43	0xbc4a0c48	-0.01233203
44	0xbaf72194	-0.0018854612
45	0x3cffe0c5	0.031235108
46	0x3d863a03	0.065540336
47	0xbcf38d7e	-0.029730555
48	0x3c895b8f	0.016767291
49	0x3d9be71d	0.07612441
50	0x3c6b39e6	0.014357066
51	0x3d9973ec	0.074928135
52	0x3ce616fd	0.028087134
53	0xbc8a866b	-0.016909799
54	0x3d04fd67	0.032468226
55	0x3ba9eb00	0.005185485
56	0x3c7a23b4	0.015267301
57	0xbd27d9ff	-0.04097938
58	0xbce4313a	-0.027855504
59	0xbd83663e	-0.064159855
60	0x3b8d9ee4	0.0043219198
61	0xbd96895e	-0.073504195
62	0xbda0f4db	-0.078592025
63	0x3cec8cc5	0.028875718
64	0xbcbc90de	-0.023018297
65	0x3d00d0a9	0.031448994
66	0x3d5af9c9	0.05346087
67	0xbda06870	-0.0783242
68	0xbc50f876	-0.01275455
69	0x3d307d92	0.043088503
70	0xbd90f444	-0.0707784
71	0x3d885685	0.06657127
72	0xbcbf27c4	-0.023334391
73	0x3d1eb21e	0.038744085
74	0xbd977ffd	-0.07397459
75	0xbd4f9d5e	-0.050687186
76	0x3d7c5512	0.061604567
77	0xbd8953ff	-0.06705474
78	0x3d41e8b8	0.04734108
79	0xbd782f9b	-0.060592275
80	0x3d5cd1ae	0.053910904
81	0xbceb5f9f	-0.02873212
82	0xbd16cefe	-0.036818497
83	0x3db32ae3	0.08748414
84	0xbdbe4db1	-0.09292162
85	0xbd7c4108	-0.061585456
86	0xbd2b55c1	-0.04182983
87	0x3d8850c1	0.066560276
88	0xbd930459	-0.071785636
89	0xbcba1b44	-0.02271808
90	0x3d9ad60d	0.07560358
91	0x3d20166e	0.03908389
92	0x3d05a8ab	0.032631557
93	0xbd97744e	-0.0739523
94	0x3c8c36bc	0.017115943
95	0x3cde4f15	0.027137319
96	0x3cba19e0	0.022717416
97	0xbd8f160c	-0.06986627
98	0x3c672650	0.0141082555
99	0x3d972998	0.0738098
100	0xbcd0fdcb	-0.025511643
101	0x3c74d908	0.014944322
102	0xbd1a1933	-0.037621688
103	0x3cd51934	0.026012994
104	0x3daeb594	0.08530727
105	0x3db10b03	0.086446784
106	0xbcb99ab0	-0.022656769
107	0x3d4c081e	0.04981243
108	0x3d6fac64	0.058514014
109	0x3cc246d0	0.023715407
110	0xbd9f7cf5	-0.077875055
111	0x3c1cf400	0.0095796585
112	0x3d6ce8ae	0.05783909
113	0xbd2b1dbb	-0.0417764
114	0x3d81c02b	0.06335481
115	0xbd370307	-0.04468062
116	0x3acdf3b8	0.0015712893
117	0xbd797006	-0.06089785
118	0x3d736b5a	0.05942855
119	0x3d77546f	0.060383257
120	0x3d79b80d	0.06096654
121	0xbd05b394	-0.032641962
122	0xbc9017a3	-0.017589396
123	0x3da7a529	0.08185799
124	0xbd5c16d1	-0.053732697
125	0x3d97e54d	0.074167825
126	0x3d8c6d93	0.06856837
127	0x3c6e5c90	0.014548436
128	0x3d130d32	0.035901256
129	0x3cc58f63	0.024116224
130	0x3bf16c0b	0.007367616
131	0x3da94013	0.08264174
132	0xbd8358a0	-0.06413388
133	0x3cdc4a81	0.026890995
134	0xbd9ace95	-0.07558934
135	0x3d62709a	0.055283166
136	0x3d0be297	0.03415164
137	0x3cb06d84	0.021536596
138	0x3d074010	0.03302008
139	0xbc0e9078	-0.008701436
140	0xbdadae36	-0.08480494
141	0xbd28a389	-0.041171584
142	0xbc3c4650	-0.011491373
143	0xbd9a5392	-0.07535471
144	0xbd186b0c	-0.037211463
145	0xbdacdfd7	-0.084411316
146	0xbd09d946	-0.033654474
147	0x3d39eebe	0.045393698
148	0xbc9815f0	-0.018565148
149	0x3d50af51	0.050948445
150	0x3ccac203	0.024750715
151	0xbc7c75e8	-0.01540897
152	0x3d2a18d6	0.04152759
153	0x3da39887	0.07988077
154	0xbd8060d0	-0.062684655
155	0x3d79d2da	0.0609921
156	0x3d77f046	0.060531877
157	0xbb567960	-0.0032726154
158	0x3d1a4ca6	0.037670754
159	0xbd4ad90f	-0.04952341
160	0x3d8d9526	0.069132134
161	0xbc87790f	-0.016537217
162	0xbcab547e	-0.020914312
163	0x3d00d372	0.03145165
164	0xbcafbb4e	-0.021451619
165	0xbdb1276d	-0.08650098
166	0xba73f280	-0.00093058497
167	0x3d859ba7	0.06523829
168	0xbd40a3ab	-0.047031086
169	0x3d23f0ce	0.04002457
170	0xbd8b8836	-0.068130895
171	0x3da224e9	0.07917196
172	0x3cf21b01	0.029553892
173	0x3cf3d310	0.029763728
174	0xbd888a89	-0.066670485
175	0x3daa8fd7	0.083282165
176	0x3d2657d9	0.04061112
177	0xbb4cccc0	-0.003124997
178	0xbdadbca7	-0.08483248
179	0xbce68826	-0.028141093
180	0xbda84b68	-0.082175076
181	0xbd9351a4	-0.07193306
182	0x3d573f22	0.052550443
183	0x3cd29cac	0.025709473
184	0xbd558e62	-0.05213774
185	0xbd99046c	-0.074715465
186	0xbd9a1a02	-0.07524492
187	0x3dadef71	0.084929354
188	0x3bc2cdb0	0.00594493
189	0xbd38773b	-0.045035582
190	0xbcc78e8d	-0.024359966
191	0xbd934249	-0.07190377
192	0x3d081142	0.033219583
193	0xbd41a8b7	-0.04728004
194	0x3d4a042a	0.049320377
195	0xbdc01608	-0.09379202
196	0xbda5faed	-0.08104501
197	0xbc137828	-0.009000815
198	0x3b410d20	0.0029457286
199	0xbc8f6490	-0.017504007
200	0x3d2604ce	0.040531926
201	0xbce9318e	-0.028466012
202	0xbdaf61f3	-0.08563604
203	0x3d5d714e	0.054063134
204	0xbd11545e	-0.03548085
205	0x3da375bb	0.0798144
206	0xbc0a6047	-0.008445806
207	0xbd36ec25	-0.0446588
208	0x3d15c93e	0.036568873
209	0xbda8c07e	-0.0823984
210	0x3da518cd	0.08061371
211	0xbd25bea3	-0.04046501
212	0xbb84a233	-0.004047656
213	0x3d89d786	0.06730561
214	0x3da8fc25	0.08251218
215	0xbd8e00f6	-0.06933777
216	0xbc54c7a8	-0.012987055
217	0x3d400e52	0.046888657
218	0x3a9b18c0	0.0011832938
219	0xbdafb325	-0.08579091
220	0xbc715687	-0.014730102
221	0x3db34a43	0.08754399
222	0x3d48954e	0.048970513
223	0x3d695186	0.056962512
224	0x3c85fe54	0.016356625
225	0x3dad4677	0.08460706
226	0x3a915240	0.0011087134
227	0x3bc2e820	0.0059480816
228	0x3c2fb71f	0.010724812
229	0x3da46b0f	0.08028232
230	0xbd8a560a	-0.06754692
231	0xbda75911	-0.08171285
232	0x3d069602	0.032857902
233	0xbcc021e8	-0.023453668
234	0xbcc59808	-0.024120346
235	0x3cf3b264	0.02974815
236	0xbdb51c79	-0.08843321
237	0x3d326122	0.043549664
238	0xbd09c15e	-0.033631675
239	0xbdb0c2e6	-0.08630924
240	0xbda5a292	-0.080876485
241	0xbd871330	-0.065954566
242	0xbd57e6a0	-0.052710176
243	0x3d9caec9	0.07650525
244	0x3c43a59c	0.01194134
245	0x3d3002ee	0.042971544
246	0x3d30cae2	0.043162234
247	0xbd2f572b	-0.04280774
248	0xbd81d3a5	-0.06339196
249	0x3d80cec7	0.0628944
250	0xbcba584b	-0.02274718
251	0xbd1fd7e2	-0.03902424
252	0xbd9c29c4	-0.07625154
253	0xbd9eb6b3	-0.07749691
254	0xbccb7718	-0.024837062
255	0x3c8ede70	0.01744005

fc2.bias f4 [128]
0	0x3d362bba	0.044475295
1	0x3cae122a	0.021248896
2	0x3e112e45	0.14177807
3	0x3d1b73dd	0.037952293
4	0x3e24a130	0.16077113
5	0x3e01d61a	0.1267933
6	0xbd8638f1	-0.065538295
7	0xbddca6c7	-0.10773998
8	0xbcc03549	-0.023462908
9	0x3d867a65	0.06566314
10	0x3dbcac8f	0.092126004
11	0xbb7c87c0	-0.0038533062
12	0x3e5f681a	0.21817055
13	0x3dfbaff8	0.12289423
14	0x3dba0fb8	0.09085029
15	0x3d4144d2	0.047184773
16	0xbdce9236	-0.10086481
17	0xbd3fc040	-0.046814203
18	0x3c915f1c	0.017745547
19	0xbd52194b	-0.051293653
20	0x3d7e1116	0.062028013
21	0x3d58807d	0.05285691
22	0x3d45fe1a	0.048338033
23	0x3e29f4f0	0.16597342
24	0xbc265e10	-0.010154262
25	0x3d96480f	0.07337963
26	0xbdb8fd93	-0.090327404
27	0xbcb13130	-0.0216299
28	0xbdd44db2	-0.10366382
29	0xbd81e41f	-0.06342339
30	0x3d3516ae	0.044211082
31	0x3ca74374	0.020417906
32	0xbc8c2790	-0.017108709
33	0x3c784178	0.015152328
34	0xbbe625d0	-0.0070235506
35	0xbbc06723	-0.00587167
36	0xbc8a3b9e	-0.01687413
37	0xbd30c67b	-0.043158036
38	0x3d6cde31	0.057829086
39	0x3db56899	0.08857841
40	0x3cdd8a60	0.027043521
41	0xbbac3492	-0.0052552903
42	0x3d59b678	0.05315253
43	0x3c8996e5	0.016795585
44	0xbda09f8f	-0.078429334
45	0xbdbfd870	-0.09367454
46	0x3debc0d1	0.11511386
47	0xbc8e003f	-0.017334102
48	0xbca51372	-0.020150874
49	0x3d23b400	0.039966583
50	0x3e5e1b61	0.21690132
51	0x3b9461fe	0.004528283
52	0xbb90cee9	-0.004419197
53	0xbc25bf88	-0.010116465
54	0xbd29d604	-0.041463867
55	0xbc68e4b8	-0.014214687
56	0xbcda3f3a	-0.026641477
57	0x3da2fcf9	0.07958407
58	0x3e58fb15	0.2118953
59	0x3d7be819	0.061500642
60	0x3d52b284	0.051439777
61	0x3bd9a725	0.0066422396
62	0xbbd40bb0	-0.00647112
63	0xbb73d080	-0.0037203133
64	0x3b512ba5	0.0031916883
65	0x3c8a6ac4	0.016896613
66	0xbb833685	-0.004004302
67	0xbdb390d3	-0.087678574
68	0x3df9f565	0.122050084
69	0x3cf632e7	0.030053569
70	0xbcd71ac3	-0.026257878
71	0xbc63db52	-0.0139072705
72	0x3db8b611	0.090191014
73	0xbcf1a136	-0.029495817
74	0x3c9f4a53	0.01944462
75	0x3e0f3488	0.13984883
76	0xbd088c52	-0.033336945
77	0xbdad05f3	-0.084484
78	0xbd4d61cf	-0.050142106
79	0x3e46d51c	0.19417232
80	0x3dab7ca4	0.08373383
81	0xbdcdbe1a	-0.100460246
82	0xbd156c0e	-0.036480002
83	0x3d7036a2	0.058645852
84	0x3cf62de7	0.030051185
85	0xbcfcfe5c	-0.030883007
86	0x3cc33b34	0.023831941
87	0xbd5ed077	-0.054398026
88	0xbc628f77	-0.01382815
89	0xbd4f8c06	-0.050670646
90	0xbd8294a4	-0.06376007
91	0x3d809569	0.06278498
92	0x3da55d9b	0.080744945
93	0xbcb9444b	-0.022615572
94	0xbd7f8834	-0.062385753
95	0xbae3dd40	-0.0017384663
96	0xbc7ddb1b	-0.015494133
97	0x3d56107a	0.052261807
98	0xbe03af25	-0.12859781
99	0x3e43a05b	0.1910414
100	0x3e5b911b	0.21442072
101	0x3ca850f2	0.02054641
102	0x3e62ebe7	0.22160302
103	0xbd3aba19	-0.045587633
104	0x3cf0ebb7	0.029409273
105	0x3debb0e6	0.1150835
106	0x3d47a9a6	0.048745774
107	0xbda5cbe4	-0.0809553
108	0xbd321dcc	-0.043485448
109	0x3d88236b	0.066473804
110	0x3e85356d	0.26017323
111	0x3ca4492d	0.020054424
112	0xbc115281	-0.008869768
113	0x3da8021f	0.082035296
114	0xbd45c0ba	-0.0482795
115	0x3d35ec4a	0.044414796
116	0xbbb494e9	-0.0055109155
117	0x3e3c677c	0.18398851
118	0x3da08b67	0.07839089
119	0xbcdf4294	-0.027253427
120	0xbd0027eb	-0.03128807
121	0xbd8f2892	-0.0699016
122	0x3e140656	0.14455542
123	0xbd938e7a	-0.072049096
124	0x3c6979e0	0.014250249
125	0x3a3bb80f	0.0007160911
126	0x3dc28f7a	0.09500022
127	0x3c9af960	0.01891774

out.weight f4 [21, 128]
0	0x3cb4a128	0.022049502
1	0xbd951ff4	-0.07281485
2	0x3e07c96d	0.13260432
3	0x3d975eb5	0.07391111
4	0x3e243a54	0.16037875
5	0x3e317ff7	0.17333971
6	0x3d8b77c3	0.06809952
7	0x3cc47cf4	0.023985364
8	0xbd7475de	-0.05968272
9	0x3d72a8fa	0.05924318
10	0x3d0d3829	0.034477387
11	0x3db23c8f	0.08702957
12	0x3d9ae8a0	0.07563901
13	0x3ddb08ea	0.106950596
14	0x3dd444fd	0.10364721
15	0xbd0dc211	-0.034608904
16	0x3d66aae6	0.056315325
17	0xbbb019e0	-0.0053741783
18	0x3da1795b	0.07884475
19	0x3d8c3269	0.068455525
20	0x3db8514a	0.0899988
21	0x3d8b0b1f	0.067892306
22	0xbd4ef364	-0.050525084
23	0x3dea6177	0.11444371
24	0x3d7315aa	0.059346832
25	0x3d960f2b	0.07327112
26	0xbd9918e8	-0.074754536
27	0xbd40c134	-0.047059253
28	0x3c01e808	0.007928856
29	0xbd72b546	-0.059254907
30	0x3df54334	0.119757086
31	0xbda27bd1	-0.07933772
32	0xbcc62764	-0.024188705
33	0xbd975352	-0.07388939
34	0x3c9d37c0	0.019191623
35	0x3c2e42c8	0.010636039
36	0xbd1f6128	-0.038911015
37	0xbcbc03f0	-0.022951096
38	0xbd0cc3a7	-0.034366276
39	0x3c951830	0.01820001
40	0x3d255456	0.040363632
41	0x3d4e43c2	0.050357588
42	0xbc9c9b18	-0.019116923
43	0xbcbf806c	-0.023376666
44	0x3d37e98a	0.044900455
45	0x3d1ae78e	0.037818484
46	0x3e2cc176	0.16870674
47	0x3d1aad72	0.037763067
48	0x3c9fdd54	0.019514717
49	0x3daf4b31	0.085592635
50	0x3de8c0eb	0.11364921
51	0x3d2e0c42	0.04249216
52	0xbc8a3529	-0.016871052
53	0xbaad0200	-0.0013199449
54	0xbceb3980	-0.028713942
55	0xbda06be1	-0.07833076
56	0x3d9fed87	0.078089766
57	0x3e0a607b	0.13513367
58	0x3d839837	0.06425517
59	0xbcac0f94	-0.021003522
60	0x3c50de58	0.012748323
61	0xbbf40340	-0.0074466765
62	0x3d634b42	0.055491693
63	0x3d3c594e	0.045983605
64	0xbd61642d	-0.055027176
65	0x3e09db4a	0.13462558
66	0xbd81882a	-0.06324799
67	0xbc9df50c	-0.019281887
68	0x3e174168	0.14771044
69	0x3d31390a	0.043267287
70	0xbd719290	-0.058977664
71	0x3da89281	0.082310684
72	0x3e234dbc	0.15947622
73	0xbd842768	-0.06452829
74	0xbc5393e8	-0.012913682
75	0x3d7cad9e	0.06168901
76	0x3c8dd50c	0.017313503
77	0x3d334f12	0.04377658
78	0xbc6a0888	-0.014284261
79	0x3d028551	0.03186542
80	0x3d347f66	0.04406681
81	0xbd8f24c2	-0.06989433
82	0xbd4ea8f7	-0.050454106
83	0xbc2ac628	-0.010423221
84	0x3de6fbe1	0.11278511
85	0xbb8cf440	-0.004301578
86	0x3aeec61f	0.0018217004
87	0xbd664ef3	-0.056227636
88	0x3d71a56e	0.058995657
89	0x3c8ecfa8	0.017433003
90	0x3d94bbf5	0.072624125
91	0xbc9d73b8	-0.019220218
92	0x3d42b4ef	0.047535833
93	0x3db2b6db	0.08726283
94	0xb9cc6a00	-0.00038988888
95	0xbd012280	-0.031527042
96	0x38139800	3.5189092e-05
97	0xbc6d1418	-0.014470123
98	0x3ca4e081	0.020126583
99	0x3e51bd5d	0.20482393
100	0x3d5fe712	0.054663725
101	0x3d1ce25a	0.038301803
102	0x3e4bdabd	0.19907661
103	0x3daf2397	0.0855171
104	0x3d9f4cfb	0.07778355
105	0x3e45995c	0.19296783
106	0x3d356852	0.04428894
107	0x3cc94b5c	0.024572067
108	0x3d0768e2	0.03305901
109	0x3d72a896	0.059242807
110	0x3e17ffb9	0.14843644
111	0xbcff9956	-0.031201046
112	0xbc43c350	-0.011948422
113	0x3e36573f	0.17806719
114	0xbd37d5ab	-0.044881504
115	0x3d70ea4a	0.058817185
116	0x3d77ef46	0.060530923
117	0x3e030380	0.12794304
118	0x3daaa61d	0.08332465
119	0x3d2cf886	0.042229198
120	0xbd9cdefa	-0.07659717
121	0x3da0c565	0.0785015
122	0x3d91eba1	0.07125021
123	0xbcd7f80a	-0.026363391
124	0x3da261c3	0.07928803
125	0x3d51b592	0.05119855
126	0x3d939ce4	0.07207659
127	0x3d8fb7f3	0.070175074
128	0x3c6e12d8	0.01453086
129	0xbc8070a0	-0.015678704
130	0x3dfc7069	0.12326128
131	0x3d4fb6f6	0.050711595
132	0x3e2cbe59	0.16869487
133	0x3dafa4f7	0.085763864
134	0x3d3a0326	0.04541316
135	0xbc7fa3f0	-0.015603051
136	0x3cbc3164	0.02297277
137	0xbc8e2a04	-0.017354019
138	0x3d9902cd	0.07471237
139	0x3c6fda18	0.0146394
140	0x3e3610a6	0.17779788
141	0x3de55379	0.11197562
142	0x3e1c2e39	0.15252008
143	0x3d2d8326	0.0423614
144	0xbd80fbf1	-0.06298054
145	0x3d720bca	0.059093274
146	0x3d208656	0.039190613
147	0xbd5dbf59	-0.05413756
148	0x3e32cbd4	0.17460567
149	0x3a371300	0.0006983727
150	0x3db4dae1	0.0883081
151	0x3e236e32	0.15960005
152	0xbd625709	-0.055258784
153	0x3cf06680	0.02934575
154	0x3db3c393	0.08777537
155	0xbd9eeaba	-0.07759614
156	0xbd91980e	-0.0710908
157	0xbcf179c0	-0.029477
158	0x3e15cd4f	0.146291
159	0x3cf41da8	0.029799297
160	0xbc4a1338	-0.012333684
161	0x3d1c9266	0.038225554
162	0x3d5e644a	0.05429486
163	0x3c2e2e80	0.010631204
164	0xbd96a9c9	-0.07356603
165	0xbd1ab2fc	-0.03776835
166	0xbd600e01	-0.054700855
167	0x39417c00	0.00018452108
168	0x3c2aaad0	0.010416701
169	0xbc17d320	-0.009266645
170	0xbd80f848	-0.06297356
171	0xbcdea440	-0.02717793
172	0x3da60d7f	0.08108043
173	0x3c874840	0.016513944
174	0x3e212a90	0.15738893
175	0xbc0e5a00	-0.00868845
176	0x3c668680	0.014070153
177	0xbd4abee8	-0.04949847
178	0x3d1abdcd	0.037778664
179	0x3c802dd8	0.01564686
180	0xbd538922	-0.051644452
181	0x3d5830ca	0.052780904
182	0x3d2f57ce	0.042808346
183	0xbd8e3f2d	-0.069456436
184	0x3cf7cec0	0.030249953
185	0x3e09ffe7	0.13476525
186	0x3df90367	0.12158852
187	0x3b9211f0	0.0044577047
188	0xbdaab78f	-0.08335792
189	0xbc815438	-0.015787229
190	0xbb1a27a0	-0.0023522153
191	0xbdaf460d	-0.08558283
192	0xbccc2f14	-0.024924792
193	0x3e1a3e1a	0.15062752
194	0xbd8537c0	-0.06504774
195	0xbd50b3a4	-0.05095257
196	0x3da03c62	0.07824017
197	0x3d2fefe2	0.04295338
198	0xbd9727a6	-0.07380609
199	0xbd514fc1	-0.05110145
200	0x3d95c08d	0.07312117
201	0xbd684fbf	-0.056716677
202	0x3cd6d67c	0.026225321
203	0x3d77ead3	0.06052668
204	0xbd13e7e6	-0.036109827
205	0xbda90578	-0.08252996
206	0xbda87774	-0.08225909
207	0x3e28af86	0.16473207
208	0x3b59cd00	0.0033233762
209	0x3d7159f2	0.05892367
210	0xbac524c0	-0.001504086
211	0xbdae1934	-0.08500901
212	0x3dc1b45b	0.09458228
213	0x3cb17f54	0.02166716
214	0xbcb71080	-0.022346735
215	0x3d4b61fa	0.049653985
216	0x3d2fbc56	0.04290422
217	0xbc1dfa70	-0.0096422285
218	0xbd893779	-0.06700034
219	0x3cc92678	0.024554476
220	0x3dd0f9d8	0.10203904
221	0x3c93fe08	0.018065467
222	0xbd67d85e	-0.05660283
223	0x3d94cf8b	0.07266148
224	0x3d235976	0.03988024
225	0x3d26e62e	0.04074686
226	0x3db59fc0	0.088683605
227	0x3d0c3125	0.034226555
228	0x3d85f8fa	0.06541629
229	0xbca32818	-0.01991658
230	0x3c0f4826	0.008745229
231	0x3d8bff91	0.06835855
232	0xbd5ebbd2	-0.05437834
233	0x3cdd70bb	0.027031293
234	0x3bd5da00	0.0065262318
235	0xbbf8c440	-0.007591754
236	0xbd80feeb	-0.06298622
237	0xbd8fd099	-0.07022209
238	0x3e04706c	0.1293351
239	0x3e1f0ba8	0.1553179
240	0xbd8c19de	-0.06840871
241	0x3e210f9f	0.15728615
242	0x3a2abb00	0.00065128505
243	0x3d278612	0.040899344
244	0x3cc891bc	0.024483554
245	0x3ca2da02	0.019879345
246	0xbd78b0f7	-0.06071564
247	0xbce12846	-0.027485024
248	0x3caab628	0.020838812
249	0xbcf6ee04	-0.030142792
250	0x3e2c81a4	0.16846329
251	0x3d867087	0.06564432
252	0x3d839df9	0.06426615
253	0xbbf444c0	-0.0074544847
254	0x3db70769	0.0893696
255	0x3cdab39c	0.026696973

out.bias f4 [21]
0	0x3d7d546c	0.06184809
1	0x3c95ff61	0.01831025
2	0x3d05e497	0.032688703
3	0x3e108c7f	0.14116095
4	0x3e016bea	0.12638822
5	0x3e03cfd6	0.12872252
6	0x3e2c2f59	0.16814937
7	0x3e3838ca	0.17990413
8	0x3db80cac	0.08986792
9	0x3e06116b	0.13092582
10	0x3e0c3a4b	0.13694112
11	0x3dc849d8	0.097797096
12	0x3e24da15	0.16098817
13	0x3de84cf5	0.113428034
14	0x3b494f4d	0.0030717433
15	0x3d434381	0.0476718
16	0x3bab144c	0.0052209254
17	0x3d375ec1	0.0447681
18	0x3e0ce428	0.1375891
19	0x3e260ef5	0.16216643
20	0x3dbcdd76	0.09221928

fc1.weight f4 [128, 81]
0	0xbde19356	-0.1101443
1	0x3ce2de6c	0.02769395
2	0xbb73011d	-0.003707952
3	0xbd6d9580	-0.058003902
4	0x3c33783b	0.010953958
5	0x3dbd34f3	0.09238615
6	0xbdb5e19f	-0.088809244
7	0x3c073370	0.00825201
8	0xbdb34a3f	-0.08754396
9	0xbdb3b403	-0.08774569
10	0x3d52a545	0.051427145
11	0x3d6277a2	0.055289872
12	0x3da68d55	0.08132426
13	0x3dc8cbaa	0.09804471
14	0xbc25d170	-0.010120735
15	0x3cf6e2d4	0.030137457
16	0x3cf1ac4f	0.029501108
17	0x3dd0b07e	0.10189913
18	0xbb745aae	-0.0037285495
19	0xbd983316	-0.07431619
20	0xbdf235a6	-0.11826639
21	0xbdbe9501	-0.09305764
22	0xbcfd1dd8	-0.03089802
23	0x3dc8f6fb	0.09812733
24	0x3d989e0d	0.07452021
25	0xbddef426	-0.10886411
26	0xbda6e1b5	-0.08148519
27	0x3dbad3f5	0.09122459
28	0x3c88408b	0.016632339
29	0xbdbd547d	-0.092446305
30	0x3d5a35c3	0.053273927
31	0xbccd46d4	-0.025058188
32	0xbd7506b1	-0.059820835
33	0x3d9f0034	0.077637106
34	0xbdd7ac18	-0.10530871
35	0x3c16aa90	0.009195939
36	0xbd140e8c	-0.036146685
37	0x3c272fac	0.010204237
38	0xbdb5a0c5	-0.08868555
39	0xbd8020a6	-0.06256227
40	0x3ce76187	0.028244747
41	0x3ceb4882	0.028721098
42	0x3d624f1c	0.055251226
43	0xbcc6bbc8	-0.024259463
44	0xbde5d9d2	-0.112231866
45	0xbca58e23	-0.020209378
46	0x3d0de1ae	0.034639053
47	0xbd7fcfcb	-0.062454026
48	0x3db2b5e3	0.087260984
49	0xbdc5a3b7	-0.09650367
50	0x3b5ee749	0.0034012368
51	0xbd70e08e	-0.058807902
52	0x3d03b13b	0.032151442
53	0x3db1017e	0.08642863
54	0xbd13d129	-0.036088143
55	0x3d4d88aa	0.05017916
56	0xbde5756b	-0.11204036
57	0xbdea6f94	-0.11447063
58	0xbdb29871	-0.08720482
59	0x3dc14719	0.09437389
60	0x3cdadf49	0.026717799
61	0xbd859f59	-0.06524534
62	0x3daa7773	0.083235644
63	0xbc88d9a4	-0.016705342
64	0xbdf51281	-0.1196642
65	0xbd9bfdc3	-0.076167606
66	0xbd701459	-0.058613155
67	0xbd7c06ae	-0.061529808
68	0xbd9c379f	-0.076277964
69	0x3d92301d	0.07138083
70	0x3d8f9b41	0.07012034
71	0xbc9ba25c	-0.018998317
72	0x3d89a1c7	0.0672031
73	0xbd466e2e	-0.04844492
74	0xbd637c16	-0.05553826
75	0xbc8e0ed4	-0.017341055
76	0x3d18b523	0.03728212
77	0xbd8c9179	-0.06863684
78	0x3d9407ee	0.07228075
79	0x3d39cfea	0.045364298
80	0xbda55b36	-0.08074038
81	0x3de72b92	0.11287607
82	0x3dd10564	0.10206106
83	0x3d99a050	0.0750128
84	0xbd9d6238	-0.07684749
85	0xbc92e2bf	-0.017930387
86	0x3dbf397d	0.09337137
87	0xbd96d3a1	-0.07364584
88	0x3e8333b4	0.25625384
89	0xbb44d0f6	-0.0030031777
90	0xbdb6ef28	-0.08932334
91	0x3d9ab06e	0.075531825
92	0x3e062b46	0.13102445
93	0xbc66e8c0	-0.014093578
94	0x3dbb5e67	0.09148865
95	0x3d91d3d6	0.071204826
96	0x3e3617d0	0.17782521
97	0x3e0acb14	0.1355403
98	0x3dc09d4c	0.09405002
99	0xbd68addf	-0.05680644
100	0x3dffd575	0.124918856
101	0x3dae210b	0.08502396
102	0x3d99ccd9	0.07509775
103	0x3cf40407	0.029787077
104	0xbe0ae9a4	-0.1356569
105	0x3c476e56	0.012172302
106	0xbd998e47	-0.074978404
107	0xbd9d1105	-0.07669262
108	0x3d879c42	0.06621601
109	0x3ded87ad	0.11598144
110	0x3d682c51	0.05668289
111	0x3d8f6638	0.070019186
112	0x3e034a8c	0.12821406
113	0x3db0377a	0.08604331
114	0xbd889750	-0.066694856
115	0x3ca61a94	0.020276345
116	0x3cf00c6c	0.029302798
117	0xbbda988a	-0.006671016
118	0x3d44d152	0.048051186
119	0x3cf83b4e	0.030301716
120	0x3e073d9c	0.13207096
121	0xbb1f565c	-0.0024312949
122	0x3dcdcfac	0.10049376
123	0x3df750e8	0.120759785
124	0xbd93e478	-0.07221311
125	0x3e0e73df	0.13911389
126	0x3dd6d260	0.104893446
127	0x3db7b265	0.08969573
128	0x3ebfd768	0.3746903
129	0x3e07924b	0.132394
130	0x3dd22b26	0.10262136
131	0x3c838d65	0.016058633
132	0xbd1d562c	-0.038412258
133	0xbc4a5f60	-0.012351841
134	0x3cd85c4b	0.026411196
135	0x3e079dbb	0.13243763
136	0x3e60917a	0.21930495
137	0x3d18adc6	0.0372751
138	0xbd59bc93	-0.053158354
139	0x3c820dbe	0.015875693
140	0x3daf0ca3	0.08547332
141	0xbd2dae55	-0.042402584
142	0xbd41d5c0	-0.04732299
143	0xbca36308	-0.019944683
144	0x3ebd4501	0.36966708
145	0x3cfca109	0.030838506
146	0xbcbadbf3	-0.022809958
147	0x3c37f70e	0.011228336
148	0x3d615966	0.055016898
149	0x3de3c83d	0.11122177
150	0x3e0f2b12	0.13981274
151	0x3db1bef6	0.08679001
152	0x3ae686fc	0.0017587836
153	0x3c68c57f	0.014207243
154	0x3c62f7e0	0.013853043
155	0xbc955b9a	-0.018232156
156	0x3e3dfbd1	0.18553092
157	0x3dc9e28e	0.09857665
158	0xbd57882c	-0.052620098
159	0x3e100ddc	0.14067787
160	0xbd97e021	-0.07415796
161	0x3bd4eaa9	0.0064977002
162	0x3e4c3295	0.1994117
163	0x3d8a6dd4	0.06759229
164	0x3e14c9c6	0.14530095
165	0x3b695e77	0.0035609284
166	0x3cd9dbfb	0.026594153
167	0x3cab6ad5	0.020924965
168	0x3ddffd3c	0.109369725
169	0x3e143e05	0.14476784
170	0x3e30f16f	0.172796
171	0x3e0abd86	0.1354886
172	0x3de00d36	0.1094002
173	0x3e3cb80f	0.18429588
174	0x3d7777f2	0.060417123
175	0x3af73e9a	0.0018863261
176	0x3e234cbe	0.15947244
177	0x3e5afd38	0.21385658
178	0x3e3caa18	0.1842426
179	0x3e20f341	0.15717794
180	0x3e25d51d	0.16194578
181	0x3df9ae35	0.121914305
182	0x3e4d8072	0.20068529
183	0xbb94386b	-0.004523327
184	0x3dcb0db3	0.09914722
185	0xbd73dbbc	-0.059535727
186	0x3d54f475	0.051990945
187	0x3e0cd7f9	0.13754262
188	0x3d3d475c	0.04621063
189	0x3d1d3933	0.038384628
190	0x3dd46b79	0.10372061
191	0xbc4cc5b5	-0.012498309
192	0x3e210f41	0.15728475
193	0xbc8569d8	-0.016285822
194	0x3dac4f0e	0.08413516
195	0x3d9222dc	0.07135555
196	0x3e250f34	0.16119081
197	0x3e29520b	0.16535203
198	0x3e43a3a3	0.19105391
199	0x3dfc1dbd	0.123103596
200	0x3e1290fc	0.1431312
201	0x3d8ab5f3	0.06772985
202	0x3e07c5c7	0.1325904
203	0x3dd42056	0.1035773
204	0x3e358a64	0.17728573
205	0xbd01ec49	-0.03171948
206	0x3df54038	0.119751394
207	0x3da6ab42	0.081381336
208	0x3e18a913	0.14908247
209	0x3ecdd1af	0.40199038
210	0x3e50153a	0.20320597
211	0xbc7a6909	-0.015283831
212	0x3e090615	0.13381226
213	0x3c79179e	0.015203385
214	0x3e2e33e6	0.17011985
215	0x3c429f0d	0.011878741
216	0x3e3d9ea4	0.18517548
217	0x3e5e8cda	0.21733418
218	0x3d5b1e5e	0.053495757
219	0xbcd1575b	-0.02555435
220	0x3bfbac8d	0.0076804818
221	0x3e4164e4	0.18886143
222	0x3dff5738	0.124678075
223	0x3d716063	0.058929812
224	0x3e079b13	0.1324275
225	0x3ea599f0	0.32344007
226	0x3ddee27b	0.108830415
227	0x3e0bd4f5	0.13655455
228	0x3dc00d36	0.0937752
229	0x3db4eff1	0.08834828
230	0x3e1dc4f8	0.15407169
231	0x3d2ce60c	0.042211577
232	0x3e382dbb	0.17986195
233	0xbcd186b0	-0.02557692
234	0x3e14a761	0.14516975
235	0x3df5010b	0.119630896
236	0x3de8714d	0.113497354
237	0x3e1ca4ef	0.15297292
238	0x3e516fd8	0.20452821
239	0x3d319a17	0.043359842
240	0x3cb20ce0	0.021734655
241	0xbe091ea5	-0.13390596
242	0x3e280a0d	0.16410084
243	0xbdd285ce	-0.102794275
244	0xbcd8c5c0	-0.026461482
245	0x3cff100c	0.031135581
246	0xbc8d8754	-0.017276444
247	0xbd0f8d28	-0.035046726
248	0xbc33da70	-0.0109773725
249	0xbde352fb	-0.11099812
250	0x3ce4951c	0.027903132
251	0xbdcb20ae	-0.099183425
252	0x3d0923da	0.033481456
253	0xbd4b6495	-0.04965647
254	0x3dcd27a3	0.10017326
255	0xbd8886da	-0.06666346

fc1.bias f4 [128]
0	0xbbec53e3	-0.0072121485
1	0x3c77c1df	0.015121906
2	0x3c2cb9c7	0.01054234
3	0x3dd199af	0.10234391
4	0xbdb4ee03	-0.0883446
5	0x3e3ee8f1	0.18643548
6	0xbdcbd73c	-0.09953162
7	0xbe04a5bb	-0.12953846
8	0x3db307d7	0.0874173
9	0xbdde7859	-0.10862798
10	0x3e05d8ce	0.13070986
11	0x3d492116	0.04910382
12	0xbc781779	-0.015142315
13	0x3e5f0785	0.21780212
14	0xbd94f5b8	-0.0727343
15	0xbe001c0e	-0.12510702
16	0x3a91670d	0.0011093334
17	0x3c28ee1e	0.010310678
18	0xbc15aece	-0.009135915
19	0x3c3d28c7	0.011545367
20	0xbde64db0	-0.112452865
21	0x3d70efa8	0.058822304
22	0x3e26e2a2	0.16297391
23	0x3db80eab	0.08987173
24	0xbe0b18dd	-0.13583703
25	0x3d705d92	0.058682986
26	0x3c9d7f8c	0.019225858
27	0xbc922d88	-0.017843977
28	0x3dee78f5	0.116441645
29	0xbd374a60	-0.044748664
30	0xbe02f435	-0.1278847
31	0x3d2858d9	0.041100357
32	0x3e36816e	0.17822811
33	0x3deb5b0c	0.11491975
34	0x3d8ab299	0.06772346
35	0x3bd2aa90	0.006429024
36	0x3e3e4ecd	0.18584748
37	0xbdc6f70b	-0.097150885
38	0xbd73ea55	-0.05954965
39	0xbc682bdf	-0.014170616
40	0x3d3516ad	0.04421108
41	0xbd747900	-0.059685707
42	0x3e2933b4	0.1652363
43	0xbda0d80e	-0.07853709
44	0x3dfdfd09	0.12401778
45	0x3e6fa582	0.2340298
46	0x3d02f136	0.031968318
47	0xbd9d9757	-0.076948814
48	0xbcbcb83a	-0.023037065
49	0xbdd523db	-0.104072295
50	0x3d61e89d	0.055153478
51	0x3dc6cc85	0.09706978
52	0x3e2c6d54	0.1683858
53	0x3dad6386	0.08466248
54	0xbcc64d4c	-0.02420678
55	0x3d56189c	0.052269563
56	0xbdabb2da	-0.083837226
57	0x3ca645d3	0.020296967
58	0x3cd87064	0.02642078
59	0x3c1d2bc8	0.009592958
60	0x3c03cf71	0.008045063
61	0x3c91982c	0.017772757
62	0x3e2ef4ab	0.17085521
63	0x3e00a5e7	0.12563287
64	0x3d1f9de5	0.03896894
65	0x3e2565d5	0.16152127
66	0xbdc09ce4	-0.094049245
67	0x3e587dc8	0.21141732
68	0x3e13c666	0.14431152
69	0xbdaae54e	-0.08344518
70	0x3d9f2a1b	0.07771703
71	0xbdf3796d	-0.118883945
72	0xbddd9db1	-0.10821093
73	0x3c834754	0.016025223
74	0x3d954e91	0.07290376
75	0x3ddd4e04	0.10805896
76	0x3d733e81	0.05938578
77	0x3d4cb05e	0.049972884
78	0x3e47e2ee	0.1952016
79	0x3d2b5376	0.04182764
80	0xbdf0775b	-0.11741515
81	0x3e38729f	0.18012474
82	0xbe0520ac	-0.13000745
83	0xbdc89e47	-0.09795814
84	0x3e440627	0.19142972
85	0x3d193ce6	0.037411593
86	0xbb3a5f60	-0.0028438196
87	0xbd91e03c	-0.071228474
88	0x3d6da17c	0.05801533
89	0xbd892792	-0.066970006
90	0xbd54d942	-0.051965006
91	0xbca5d208	-0.020241752
92	0xbdfe3310	-0.12412083
93	0xbd05319c	-0.032518014
94	0xbd20798e	-0.039178424
95	0xbdefd511	-0.11710561
96	0x3db9d370	0.09073532
97	0x3d3f16b6	0.04665252
98	0x3d7b7c7e	0.061398022
99	0xbd174797	-0.036933508
100	0x3b5af222	0.0033408483
101	0x3d56b5a2	0.052419312
102	0x3de024c1	0.1094451
103	0x3d968307	0.0734921
104	0x3eb1d8ba	0.34735662
105	0xbd537e75	-0.05163427
106	0x3db9591f	0.090502016
107	0xbd24bef1	-0.04022116
108	0x3c163269	0.009167292
109	0xbb418d60	-0.002953373
110	0x3dcb3f44	0.09924176
111	0xbcd3f4a9	-0.025873499
112	0x3d8186b9	0.063245244
113	0xbdcc9cf1	-0.09990872
114	0x3d9b4873	0.07582178
115	0x3d25e9e1	0.040506247
116	0x3e42d016	0.19024691
117	0x3e2cf44c	0.16890067
118	0xbceff689	-0.029292362
119	0x3e4bb667	0.198938
120	0x3e0dc69d	0.13845296
121	0x3df2d5a9	0.11857159
122	0x3e3258b4	0.1741665
123	0xbde305db	-0.11085101
124	0x3e6ef8d2	0.23337105
125	0x3dbd7c39	0.09252209
126	0x3d553962	0.052056678
127	0x3da8b97f	0.082385056

fc2.weight f4 [128, 128]
0	0x3d0d89e8	0.034555346
1	0x3d26aefb	0.040694218
2	0xbc119e28	-0.008887805
3	0x3d86a5f9	0.065746255
4	0x3d9581b5	0.0730013
5	0x3d8c37cc	0.0684658
6	0xbd934be9	-0.07192213
7	0x3d87cadd	0.0663049
8	0x3d90de17	0.0707361
9	0x3d8d78a9	0.0690778
10	0x3d422165	0.04739513
11	0x3daf71d9	0.085666366
12	0x3cc79d3d	0.02436697
13	0xbda852e0	-0.08218932
14	0xbd955d51	-0.07293189
15	0xbd635a36	-0.055505954
16	0x3d5eae72	0.054365583
17	0x3d4a8e50	0.049452126
18	0xbd910ea5	-0.07082871
19	0xbd83936f	-0.06424605
20	0x3da0b225	0.078464784
21	0xbb8fa01a	-0.0043830993
22	0xbb1de354	-0.0024091797
23	0x3bc1bf10	0.005912669
24	0xbd9dee12	-0.07711424
25	0x3d380b42	0.04493261
26	0xbd4973b2	-0.0491826
27	0xbd9b5cc0	-0.0758605
28	0x3d66894f	0.05628329
29	0xbdaaa5a9	-0.083323784
30	0xbd6cc9d2	-0.05780966
31	0x3c9a78a2	0.01885635
32	0xbd76b689	-0.060232673
33	0x3cbe2955	0.023213068
34	0xbdebfd77	-0.11522954
35	0xbd60096b	-0.05469648
36	0xbdb8d59f	-0.0902512
37	0x3d866771	0.06562699
38	0x3d49b28a	0.049242534
39	0x3b295c88	0.0025842506
40	0xbd4aa284	-0.049471393
41	0x3cdbf95c	0.026852302
42	0x3d04b5ab	0.032399815
43	0xbc4a0c48	-0.01233203
44	0xbaf72194	-0.0018854612
45	0x3cffe0c5	0.031235108
46	0x3d863a03	0.065540336
47	0xbcf38d7e	-0.029730555
48	0x3c895b8f	0.016767291
49	0x3d9be71d	0.07612441
50	0x3c6b39e6	0.014357066
51	0x3d9973ec	0.074928135
52	0x3ce616fd	0.028087134
53	0xbc8a866b	-0.016909799
54	0x3d04fd67	0.032468226
55	0x3ba9eb00	0.005185485
56	0x3c7a23b4	0.015267301
57	0xbd27d9ff	-0.04097938
58	0xbce4313a	-0.027855504
59	0xbd83663e	-0.064159855
60	0x3b8d9ee4	0.0043219198
61	0xbd96895e	-0.073504195
62	0xbda0f4db	-0.078592025
63	0x3cec8cc5	0.028875718
64	0xbcbc90de	-0.023018297
65	0x3d00d0a9	0.031448994
66	0x3d5af9c9	0.05346087
67	0xbda06870	-0.0783242
68	0xbc50f876	-0.01275455
69	0x3d307d92	0.043088503
70	0xbd90f444	-0.0707784
71	0x3d885685	0.06657127
72	0xbcbf27c4	-0.023334391
73	0x3d1eb21e	0.038744085
74	0xbd977ffd	-0.07397459
75	0xbd4f9d5e	-0.050687186
76	0x3d7c5512	0.061604567
77	0xbd8953ff	-0.06705474
78	0x3d41e8b8	0.04734108
79	0xbd782f9b	-0.060592275
80	0x3d5cd1ae	0.053910904
81	0xbceb5f9f	-0.02873212
82	0xbd16cefe	-0.036818497
83	0x3db32ae3	0.08748414
84	0xbdbe4db1	-0.09292162
85	0xbd7c4108	-0.061585456
86	0xbd2b55c1	-0.04182983
87	0x3d8850c1	0.066560276
88	0xbd930459	-0.071785636
89	0xbcba1b44	-0.02271808
90	0x3d9ad60d	0.07560358
91	0x3d20166e	0.03908389
92	0x3d05a8ab	0.032631557
93	0xbd97744e	-0.0739523
94	0x3c8c36bc	0.017115943
95	0x3cde4f15	0.027137319
96	0x3cba19e0	0.022717416
97	0xbd8f160c	-0.06986627
98	0x3c672650	0.0141082555
99	0x3d972998	0.0738098
100	0xbcd0fdcb	-0.025511643
101	0x3c74d908	0.014944322
102	0xbd1a1933	-0.037621688
103	0x3cd51934	0.026012994
104	0x3daeb594	0.08530727
105	0x3db10b03	0.086446784
106	0xbcb99ab0	-0.022656769
107	0x3d4c081e	0.04981243
108	0x3d6fac64	0.058514014
109	0x3cc246d0	0.023715407
110	0xbd9f7cf5	-0.077875055
111	0x3c1cf400	0.0095796585
112	0x3d6ce8ae	0.05783909
113	0xbd2b1dbb	-0.0417764
114	0x3d81c02b	0.06335481
115	0xbd370307	-0.04468062
116	0x3acdf3b8	0.0015712893
117	0xbd797006	-0.06089785
118	0x3d736b5a	0.05942855
119	0x3d77546f	0.060383257
120	0x3d79b80d	0.06096654
121	0xbd05b394	-0.032641962
122	0xbc9017a3	-0.017589396
123	0x3da7a529	0.08185799
124	0xbd5c16d1	-0.053732697
125	0x3d97e54d	0.074167825
126	0x3d8c6d93	0.06856837
127	0x3c6e5c90	0.014548436
128	0x3d130d32	0.035901256
129	0x3cc58f63	0.024116224
130	0x3bf16c0b	0.007367616
131	0x3da94013	0.08264174
132	0xbd8358a0	-0.06413388
133	0x3cdc4a81	0.026890995
134	0xbd9ace95	-0.07558934
135	0x3d62709a	0.055283166
136	0x3d0be297	0.03415164
137	0x3cb06d84	0.021536596
138	0x3d074010	0.03302008
139	0xbc0e9078	-0.008701436
140	0xbdadae36	-0.08480494
141	0xbd28a389	-0.041171584
142	0xbc3c4650	-0.011491373
143	0xbd9a5392	-0.07535471
144	0xbd186b0c	-0.037211463
145	0xbdacdfd7	-0.084411316
146	0xbd09d946	-0.033654474
147	0x3d39eebe	0.045393698
148	0xbc9815f0	-0.018565148
149	0x3d50af51	0.050948445
150	0x3ccac203	0.024750715
151	0xbc7c75e8	-0.01540897
152	0x3d2a18d6	0.04152759
153	0x3da39887	0.07988077
154	0xbd8060d0	-0.062684655
155	0x3d79d2da	0.0609921
156	0x3d77f046	0.060531877
157	0xbb567960	-0.0032726154
158	0x3d1a4ca6	0.037670754
159	0xbd4ad90f	-0.04952341
160	0x3d8d9526	0.069132134
161	0xbc87790f	-0.016537217
162	0xbcab547e	-0.020914312
163	0x3d00d372	0.03145165
164	0xbcafbb4e	-0.021451619
165	0xbdb1276d	-0.08650098
166	0xba73f280	-0.00093058497
167	0x3d859ba7	0.06523829
168	0xbd40a3ab	-0.047031086
169	0x3d23f0ce	0.04002457
170	0xbd8b8836	-0.068130895
171	0x3da224e9	0.07917196
172	0x3cf21b01	0.029553892
173	0x3cf3d310	0.029763728
174	0xbd888a89	-0.066670485
175	0x3daa8fd7	0.083282165
176	0x3d2657d9	0.04061112
177	0xbb4cccc0	-0.003124997
178	0xbdadbca7	-0.08483248
179	0xbce68826	-0.028141093
180	0xbda84b68	-0.082175076
181	0xbd9351a4	-0.07193306
182	0x3d573f22	0.052550443
183	0x3cd29cac	0.025709473
184	0xbd558e62	-0.05213774
185	0xbd99046c	-0.074715465
186	0xbd9a1a02	-0.07524492
187	0x3dadef71	0.084929354
188	0x3bc2cdb0	0.00594493
189	0xbd38773b	-0.045035582
190	0xbcc78e8d	-0.024359966
191	0xbd934249	-0.07190377
192	0x3d081142	0.033219583
193	0xbd41a8b7	-0.04728004
194	0x3d4a042a	0.049320377
195	0xbdc01608	-0.09379202
196	0xbda5faed	-0.08104501
197	0xbc137828	-0.009000815
198	0x3b410d20	0.0029457286
199	0xbc8f6490	-0.017504007
200	0x3d2604ce	0.040531926
201	0xbce9318e	-0.028466012
202	0xbdaf61f3	-0.08563604
203	0x3d5d714e	0.054063134
204	0xbd11545e	-0.03548085
205	0x3da375bb	0.0798144
206	0xbc0a6047	-0.008445806
207	0xbd36ec25	-0.0446588
208	0x3d15c93e	0.036568873
209	0xbda8c07e	-0.0823984
210	0x3da518cd	0.08061371
211	0xbd25bea3	-0.04046501
212	0xbb84a233	-0.004047656
213	0x3d89d786	0.06730561
214	0x3da8fc25	0.08251218
215	0xbd8e00f6	-0.06933777
216	0xbc54c7a8	-0.012987055
217	0x3d400e52	0.046888657
218	0x3a9b18c0	0.0011832938
219	0xbdafb325	-0.08579091
220	0xbc715687	-0.014730102
221	0x3db34a43	0.08754399
222	0x3d48954e	0.048970513
223	0x3d695186	0.056962512
224	0x3c85fe54	0.016356625
225	0x3dad4677	0.08460706
226	0x3a915240	0.0011087134
227	0x3bc2e820	0.0059480816
228	0x3c2fb71f	0.010724812
229	0x3da46b0f	0.08028232
230	0xbd8a560a	-0.06754692
231	0xbda75911	-0.08171285
232	0x3d069602	0.032857902
233	0xbcc021e8	-0.023453668
234	0xbcc59808	-0.024120346
235	0x3cf3b264	0.02974815
236	0xbdb51c79	-0.08843321
237	0x3d326122	0.043549664
238	0xbd09c15e	-0.033631675
239	0xbdb0c2e6	-0.08630924
240	0xbda5a292	-0.080876485
241	0xbd871330	-0.065954566
242	0xbd57e6a0	-0.052710176
243	0x3d9caec9	0.07650525
244	0x3c43a59c	0.01194134
245	0x3d3002ee	0.042971544
246	0x3d30cae2	0.043162234
247	0xbd2f572b	-0.04280774
248	0xbd81d3a5	-0.06339196
249	0x3d80cec7	0.0628944
250	0xbcba584b	-0.02274718
251	0xbd1fd7e2	-0.03902424
252	0xbd9c29c4	-0.07625154
253	0xbd9eb6b3	-0.07749691
254	0xbccb7718	-0.024837062
255	0x3c8ede70	0.01744005

fc2.bias f4 [128]
0	0x3d362bba	0.044475295
1	0x3cae122a	0.021248896
2	0x3e054c3b	0.13017361
3	0x3d1b73dd	0.037952293
4	0x3e1601eb	0.14649169
5	0x3de71397	0.11283033
6	0xbd8638f1	-0.065538295
7	0xbddca6c7	-0.10773998
8	0xbcc03549	-0.023462908
9	0x3d867a65	0.06566314
10	0x3daa8f01	0.08328057
11	0xbb7c87c0	-0.0038533062
12	0x3e527555	0.20552571
13	0x3de82260	0.113346815
14	0x3de414c1	0.11136771
15	0x3d4144d2	0.047184773
16	0xbdce9236	-0.10086481
17	0xbd3fc040	-0.046814203
18	0x3c915f1c	0.017745547
19	0xbd52194b	-0.051293653
20	0x3d6a558b	0.057210486
21	0x3d58807d	0.05285691
22	0x3d45fe1a	0.048338033
23	0x3e1f7999	0.1557373
24	0xbc265e10	-0.010154262
25	0x3d96480f	0.07337963
26	0xbdb8fd93	-0.090327404
27	0xbcb13130	-0.0216299
28	0xbdd44db2	-0.10366382
29	0xbd81e41f	-0.06342339
30	0x3d0f01f6	0.03491398
31	0x3ca74374	0.020417906
32	0xbc8c2790	-0.017108709
33	0x3c784178	0.015152328
34	0xbbe625d0	-0.0070235506
35	0xbbc06723	-0.00587167
36	0xbc8a3b9e	-0.01687413
37	0xbd30c67b	-0.043158036
38	0x3d6cde31	0.057829086
39	0x3db56899	0.08857841
40	0x3cdd8a60	0.027043521
41	0xbbac3492	-0.0052552903
42	0x3d59b678	0.05315253
43	0x3c8996e5	0.016795585
44	0xbda09f8f	-0.078429334
45	0xbdbfd870	-0.09367454
46	0x3de36e97	0.11105078
47	0xbc8e003f	-0.017334102
48	0xbca51372	-0.020150874
49	0x3d23b400	0.039966583
50	0x3e5258f5	0.20541747
51	0x3b9461fe	0.004528283
52	0xbb90cee9	-0.004419197
53	0xbc25bf88	-0.010116465
54	0xbd29d604	-0.041463867
55	0xbc68e4b8	-0.014214687
56	0xbcda3f3a	-0.026641477
57	0x3d84c929	0.06483681
58	0x3e4a04bc	0.19728369
59	0x3d7be819	0.061500642
60	0x3d52b284	0.051439777
61	0x3bd9a725	0.0066422396
62	0xbbd40bb0	-0.00647112
63	0xbb73d080	-0.0037203133
64	0x3b512ba5	0.0031916883
65	0x3c71cc7d	0.014758226
66	0xbb833685	-0.004004302
67	0xbdb390d3	-0.087678574
68	0x3dda38b0	0.106553435
69	0x3cf632e7	0.030053569
70	0xbcd71ac3	-0.026257878
71	0xbc63db52	-0.0139072705
72	0x3d9b7a44	0.0759168
73	0xbcf1a136	-0.029495817
74	0x3c9f4a53	0.01944462
75	0x3e01ef45	0.1268893
76	0xbd088c52	-0.033336945
77	0xbdad05f3	-0.084484
78	0xbd4d61cf	-0.050142106
79	0x3e396bb9	0.18107499
80	0x3dab7ca4	0.08373383
81	0xbdcdbe1a	-0.100460246
82	0xbd156c0e	-0.036480002
83	0x3d7036a2	0.058645852
84	0x3cf62de7	0.030051185
85	0xbcfcfe5c	-0.030883007
86	0x3cc33b34	0.023831941
87	0xbd5ed077	-0.054398026
88	0xbc628f77	-0.01382815
89	0xbd4f8c06	-0.050670646
90	0xbd8294a4	-0.06376007
91	0x3d809569	0.06278498
92	0x3d89f955	0.067370094
93	0xbcb9444b	-0.022615572
94	0xbd7f8834	-0.062385753
95	0xbae3dd40	-0.0017384663
96	0xbc7ddb1b	-0.015494133
97	0x3d56107a	0.052261807
98	0xbe03af25	-0.12859781
99	0x3e369cc7	0.17833243
100	0x3e4d156e	0.20027706
101	0x3ca850f2	0.02054641
102	0x3e537848	0.20651352
103	0xbd3aba19	-0.045587633
104	0x3cf0ebb7	0.029409273
105	0x3dd96573	0.10615053
106	0x3d47a9a6	0.048745774
107	0xbda5cbe4	-0.0809553
108	0xbd321dcc	-0.043485448
109	0x3d88236b	0.066473804
110	0x3e7bf4e9	0.24605145
111	0x3c966ba4	0.018361874
112	0xbc115281	-0.008869768
113	0x3d964133	0.073366545
114	0xbd45c0ba	-0.0482795
115	0x3d35ec4a	0.044414796
116	0xbbb494e9	-0.0055109155
117	0x3e2de1a5	0.16980608
118	0x3da08b67	0.07839089
119	0xbcdf4294	-0.027253427
120	0xbd0027eb	-0.03128807
121	0xbd8f2892	-0.0699016
122	0x3e0497f0	0.12948585
123	0xbd938e7a	-0.072049096
124	0x3c6979e0	0.014250249
125	0x3a3bb80f	0.0007160911
126	0x3da71393	0.0815803
127	0x3c9af960	0.01891774
