WSNs/trained_wrsn_agent.pth (torch, 484786 bytes, 24 tensors)

fc1.weight f4 [128, 81]
0	0xbccd4938	-0.025059327
1	0x3a88a90f	0.001042636
2	0x3ca5a739	0.02022134
3	0xbdb44bce	-0.08803521
4	0xbe03ad5a	-0.12859097
5	0xbd8eb16d	-0.06967435
6	0x3d189e49	0.037260327
7	0xbdef453c	-0.11683127
8	0xbd81eab6	-0.06343596
9	0x3d3f6261	0.04672468
10	0xbb8dcf75	-0.0043277093
11	0xbdc1a630	-0.09455526
12	0xbc9f67bd	-0.019458646
13	0xbc519e7c	-0.012794133
14	0xbe07db76	-0.13267311
15	0xbce6e29a	-0.028184224
16	0x3d0c3781	0.03423262
17	0xbd345049	-0.04402188
18	0xbcadd958	-0.021221802
19	0xbd3ff856	-0.04686769
20	0xbdca5c05	-0.098808326
21	0xbdaa4c8e	-0.08315383
22	0xbca86b57	-0.020558996
23	0xbe091058	-0.13385141
24	0x3d61a6ce	0.055090718
25	0xbdeefdc0	-0.11669493
26	0xbdf74a1f	-0.12074684
27	0x3cb01824	0.021495886
28	0xbd40d6c7	-0.047079828
29	0xbd4817d4	-0.04885085
30	0x3d9533f7	0.07285302
31	0xbd009209	-0.03138927
32	0xbbb51f7c	-0.005527435
33	0xbdc36b10	-0.09541905
34	0x3cd794d0	0.026316077
35	0x3d12b83f	0.035820242
36	0x3d51739e	0.05113565
37	0xbe00abb2	-0.12565497
38	0xbe0b56c2	-0.13607314
39	0xbda26c74	-0.07930842
40	0xbd828ae9	-0.06374151
41	0xbdacc053	-0.084351204
42	0x3cb0d41b	0.021585515
43	0xbc19b320	-0.009381086
44	0xb99b4a7a	-0.00029619393
45	0x3d73022c	0.059328243
46	0xbc7fb7e0	-0.015607804
47	0xbd37bcec	-0.044857904
48	0x3d429b20	0.04751122
49	0x3ca82b51	0.020528467
50	0xbd58d823	-0.0529405
51	0xbdb37aa9	-0.0876363
52	0xbdd52ed4	-0.104093224
53	0x3d66475d	0.0562204
54	0xbe1d3171	-0.15350892
55	0x3bd910b0	0.0066243038
56	0xbddaff93	-0.10693278
57	0xbdfec5dc	-0.124400824
58	0x3ba5717e	0.0050489297
59	0x3c022b2a	0.007944861
60	0x3cc8fb66	0.024533939
61	0x3d49d562	0.049275763
62	0xbda4d847	-0.08049064
63	0x3e03b01f	0.12860154
64	0x3d5a30fd	0.053269375
65	0xbdedcb71	-0.11611069
66	0xbdf8f706	-0.12156491
67	0x3da88cfa	0.08230014
68	0xbe1f395c	-0.15549225
69	0x3d8acaba	0.06776948
70	0xbe0861d9	-0.13318576
71	0x3e1a7551	0.15083815
72	0xbe198d9b	-0.14995424
73	0x3d5998ca	0.053124227
74	0xbd7b1286	-0.061296962
75	0x3dab199d	0.08354495
76	0xbcf118be	-0.029430743
77	0x3d1b86f8	0.037970513
78	0x3d2b950a	0.04189018
79	0x3de92c39	0.11385388
80	0xbaf850da	-0.0018944994
81	0xbbb0dfaa	-0.0053977566
82	0xbcb3d915	-0.021954099
83	0x3debd1d6	0.115146324
84	0xbd6f664c	-0.058447167
85	0x3d86f903	0.06590464
86	0xbd073c1a	-0.0330163
87	0x3cb4ca97	0.022069259
88	0x3d18952f	0.037251648
89	0x3b885061	0.0041599725
90	0xbd2713cd	-0.040790368
91	0xbd682a70	-0.056681097
92	0x3d9fb7d2	0.07798733
93	0x3cc1a18a	0.023636598
94	0x3da9a6f8	0.082838
95	0xbe16bac2	-0.1471968
96	0x3e4a1672	0.19735125
97	0x3d4b1ec8	0.049589902
98	0x3d50ef9f	0.05100977
99	0x3c27759c	0.010220911
100	0x3d10881d	0.035286058
101	0x3db2c90e	0.087297544
102	0x3d30d255	0.04316934
103	0x3d748d12	0.059704848
104	0xbcdaa3ff	-0.026689528
105	0xbbee7bad	-0.007277927
106	0xbcf4bc44	-0.029874928
107	0x3da5b6d8	0.08091515
108	0xbb6b13de	-0.0035869996
109	0x3d6102b6	0.054934226
110	0xbc971c20	-0.018446028
111	0x3db56d53	0.088587426
112	0xbde9fada	-0.11424799
113	0xbc33a6b9	-0.010965043
114	0xbda24945	-0.07924131
115	0xbc6b2959	-0.01435312
116	0xbe64ca87	-0.22342883
117	0xbd4d03b6	-0.050052367
118	0x3e03d937	0.1287583
119	0x3e4089ff	0.18802641
120	0x3da7ca42	0.081928745
121	0xbd8bf2eb	-0.06833442
122	0xbc7b39cd	-0.015333605
123	0xbd9daace	-0.07698594
124	0xbd969f90	-0.07354653
125	0x3dac3a90	0.084096074
126	0x3e166a34	0.14688951
127	0x3d963bfb	0.07335659
128	0xbdba1dfa	-0.09087749
129	0xbd93bff9	-0.0721435
130	0xb9c37fc1	-0.00037288482
131	0xbc93a3bc	-0.01802241
132	0x3dce1528	0.10062629
133	0x3d46575d	0.04842316
134	0x3d84ee8d	0.064908125
135	0xbd90d0f6	-0.07071106
136	0x3e5b3224	0.21405846
137	0x3d9f0e79	0.07766432
138	0xbb988f6d	-0.0046557696
139	0x3dd1e925	0.10249547
140	0x3d48d368	0.049029738
141	0x3e005a99	0.1253456
142	0xbaaf03f7	-0.0013352622
143	0x3c589c2d	0.013220829
144	0x3e39ffed	0.18164034
145	0x3bcf6979	0.006329712
146	0xbae0daba	-0.0017155029
147	0xbdcdcde0	-0.10049033
148	0x3df0890f	0.11744892
149	0xbd4d6e0c	-0.050153777
150	0x3b3a047a	0.0028384016
151	0xbdababed	-0.083824016
152	0xbe41d594	-0.1892913
153	0x3c84086a	0.016117293
154	0x3d2ded9f	0.04246294
155	0xbe01698e	-0.12637922
156	0x3e12edc9	0.1434852
157	0xbdd6341c	-0.10459158
158	0xbd516eb0	-0.05113095
159	0xb99d4bf2	-0.00030001957
160	0x3d36e473	0.04465146
161	0xbd6f01e1	-0.0583514
162	0x3e3269c7	0.17423163
163	0xbdb09e77	-0.08623975
164	0x3e765238	0.24054801
165	0x3e7b4da3	0.24541335
166	0x3e2eb103	0.17059712
167	0xbd489587	-0.048970725
168	0x3e253a81	0.16135599
169	0xbd122a62	-0.03568495
170	0x3e3ca9a2	0.18424085
171	0x3e536eea	0.20647779
172	0x3e0f1e9d	0.13976522
173	0xbea7f7f9	-0.32806376
174	0x3dade879	0.08491606
175	0x3cf7d400	0.030252457
176	0x3dddd471	0.108315356
177	0xbdaf1ecc	-0.08550796
178	0x3e1ace9b	0.15117876
179	0x3c5822da	0.013191903
180	0x3d47fe80	0.048826694
181	0xbe80de48	-0.25169587
182	0x3e05dcc8	0.13072503
183	0x3d6edce9	0.058316145
184	0x3dafc4e7	0.08582478
185	0x3d971053	0.073761605
186	0x3e5a8cd5	0.21342786
187	0xbd858b40	-0.065207005
188	0x3e06d6a0	0.1316781
189	0x3dd18a73	0.10231485
190	0x3e545f8d	0.20739575
191	0xbbb90cc7	-0.005647275
192	0x3d387482	0.045032986
193	0x3d4501af	0.04809731
194	0x3cfd86dc	0.030948095
195	0xbd82d775	-0.063887514
196	0x3e962aa1	0.29329398
197	0xbe24491c	-0.16043514
198	0x3b145294	0.0022632228
199	0x3e1cf8ed	0.15329333
200	0x3cb07a0e	0.021542575
201	0xbe12cb3e	-0.14335343
202	0x3e49a9a6	0.19693622
203	0x3d150280	0.036379337
204	0x3d5e7a0c	0.05431561
205	0x3da004e9	0.078134365
206	0x3dee5b00	0.116384506
207	0x3c023a13	0.007948416
208	0x3eaea7c5	0.34112373
209	0xbf47208e	-0.7778405
210	0x3e23e443	0.16005044
211	0x3de389db	0.11110278
212	0xbd130e7c	-0.035902485
213	0x3e11cdf7	0.14238726
214	0x3e4bae5e	0.19890735
215	0x3e3c5b2b	0.18394153
216	0x3c7ceb1c	0.015436914
217	0x3e8061c6	0.25074595
218	0x3c87c929	0.016575413
219	0xbd96d469	-0.07364733
220	0x3dabb33a	0.08383794
221	0x3e1d3fb5	0.15356334
222	0x3dc0c768	0.09413034
223	0x3e16df4d	0.1473362
224	0x3e340e4f	0.17583583
225	0xbc3f70e7	-0.011684633
226	0x3d8d14be	0.06888722
227	0x3c93d3ca	0.018045325
228	0x3e320c8a	0.17387596
229	0xbef88285	-0.48537078
230	0x3e69c728	0.22829878
231	0x3da41789	0.080123015
232	0x3da78855	0.081803
233	0xbf05f2ef	-0.5232381
234	0x3e34fe7a	0.176752
235	0x3cf14618	0.029452369
236	0x3e188804	0.14895636
237	0xbf613b28	-0.8798089
238	0x3dabf03c	0.083954304
239	0xbd037262	-0.032091506
240	0x3e84d4ad	0.2594351
241	0xbf25fcc1	-0.64838797
242	0x3e25b87c	0.16183656
243	0xbdb85e03	-0.09002306
244	0xbe0fe82e	-0.14053413
245	0xbd9ccf8f	-0.07656776
246	0xbd9b362a	-0.0757869
247	0x3d0b00dd	0.03393637
248	0xbd5485cb	-0.051885407
249	0x3c2bde58	0.010490023
250	0xbdc4a3a0	-0.096015215
251	0xbdb350e2	-0.087556615
252	0xbd1cbf14	-0.038268164
253	0x3b2fce18	0.0026825722
254	0x3d111bd2	0.035426922
255	0xbd2f966a	-0.042868055

fc1.bias f4 [128]
0	0x3c65d3c8	0.014027543
1	0xbd5f040b	-0.054447215
2	0x3cf82d95	0.030295173
3	0xbd38f8db	-0.045159202
4	0xbd3ad3d9	-0.04561219
5	0x3e0fbc03	0.14036565
6	0x3e0fdd5d	0.14049287
7	0xbe086dfc	-0.13323206
8	0x3d026b54	0.031840637
9	0x3e3d7a3e	0.18503663
10	0x3dbcbea5	0.0921605
11	0xbdb8fcbb	-0.090325795
12	0x3e4651c4	0.19367129
13	0xbd598c93	-0.053112578
14	0xbd459e86	-0.048246883
15	0xbe012adf	-0.1261401
16	0x3d81a99e	0.0633118
17	0xbe022589	-0.12709631
18	0x3d8388d1	0.0642258
19	0x3d6cdfba	0.05783055
20	0x3d9b3c27	0.075798325
21	0x3dde8443	0.10865071
22	0x3e0a9056	0.13531622
23	0xbcd7a74f	-0.026324896
24	0xbdd75286	-0.10513787
25	0xbdb4f972	-0.088366404
26	0xbdc5199b	-0.096240245
27	0x3da11d27	0.078668885
28	0x3db01f94	0.08599773
29	0xbda71f1d	-0.08160231
30	0xbd1e50ae	-0.03865116
31	0xbd745039	-0.05964682
32	0xbd540634	-0.05176373
33	0x3bd7549d	0.006571366
34	0x3d852f52	0.06503166
35	0xbe1e0a20	-0.1543355
36	0x3d32bfde	0.04364001
37	0x3df7a727	0.12092429
38	0x3d21c734	0.039496616
39	0x3df3817a	0.1188993
40	0xbd864212	-0.06555571
41	0x3d253cac	0.040341064
42	0x3caa0bb6	0.020757537
43	0xbd19c328	-0.03753963
44	0xbdb93537	-0.09043353
45	0x3e2b721e	0.16742751
46	0xbdb3f94b	-0.08787783
47	0x3c3ed707	0.011647946
48	0xbdb95927	-0.090502076
49	0xbc2d4162	-0.0105746705
50	0x3e17fb74	0.14842016
51	0x3df6145b	0.12015601
52	0xbd3b08f6	-0.045662843
53	0x3d93ae2c	0.07210955
54	0x3e38531c	0.18000454
55	0x3d70cf12	0.058791228
56	0x3d55bd2c	0.05218236
57	0xbd88d009	-0.066803046
58	0x3e1f47b7	0.15554701
59	0x3e559b51	0.2086003
60	0x3d8dd343	0.069250606
61	0x3d98840f	0.07447063
62	0x3dbd59c7	0.09245639
63	0xbdc4da17	-0.0961191
64	0xbd4b1e84	-0.04958965
65	0xbdbe84f1	-0.093027
66	0x3b8a4923	0.0042201444
67	0x3d9f8c13	0.07790389
68	0x3e152cfd	0.14567943
69	0x3d64d800	0.055870056
70	0x3e446098	0.19177473
71	0x3e4c1049	0.19928087
72	0x3d5bc57e	0.05365514
73	0x3d75933c	0.059954867
74	0x3e30e6b7	0.1727551
75	0xbd99bdec	-0.07506928
76	0x3d66ffb9	0.05639622
77	0xbce2f1df	-0.027703224
78	0x3cf5d435	0.030008415
79	0x3e10bb26	0.14133891
80	0x3d3d02fe	0.04614543
81	0xbdafd294	-0.085850865
82	0xbdc8f5ed	-0.098125316
83	0xbc47a947	-0.012186355
84	0x3e72e063	0.23718409
85	0xbd5ef914	-0.05443676
86	0x3d461602	0.048360832
87	0xbcf9a4f6	-0.030474167
88	0xbda1a3da	-0.0789258
89	0x3d9dc304	0.07703212
90	0x3d398a5a	0.045297958
91	0xbd3a9aa8	-0.045557648
92	0x3e3ebc47	0.1862651
93	0x3e5ea23e	0.21741578
94	0xbde9e00e	-0.11419688
95	0x3c961058	0.01831834
96	0x3e4811ce	0.19538042
97	0x3dabcee4	0.08389071
98	0xbd82f8b6	-0.06395094
99	0xbba68b2a	-0.0050825076
100	0x3d9853b2	0.074378386
101	0xbcdc639f	-0.026902972
102	0xbdb71381	-0.08939267
103	0x3deace2e	0.11465107
104	0xbd0c72c8	-0.03428915
105	0xbd2cabfd	-0.04215621
106	0x3e5abdcc	0.21361464
107	0x3e0f0e9e	0.1397042
108	0x3b079eca	0.002069401
109	0xbe0897f2	-0.13339213
110	0xbd765318	-0.060137838
111	0x3dbf604e	0.093445405
112	0x3e62a97c	0.22134966
113	0x3b6c004e	0.0036010924
114	0x3dbfbc60	0.093621016
115	0x3cf4e4a4	0.02989418
116	0x3e600243	0.21875863
117	0xbda54de2	-0.080714956
118	0xbd83efc1	-0.06442214
119	0x3e890dad	0.26768246
120	0x3e45b296	0.19306406
121	0xbdda7c4d	-0.1066824
122	0x3e6501fd	0.2236404
123	0x3c90e9c1	0.017689588
124	0x3da43b26	0.08019094
125	0xbd86f1d6	-0.06589095
126	0x3d8ab7fa	0.06773372
127	0x3d870d78	0.06594366

fc2.weight f4 [128, 128]
0	0xbcb9b402	-0.022668842
1	0xbe069919	-0.1314434
2	0x3e949f46	0.29027766
3	0xbc9ac205	-0.018891344
4	0x3d1e6d71	0.03867859
5	0x3e0dc2a1	0.13843776
6	0x3e3fccde	0.18730494
7	0x3dccdf38	0.10003513
8	0x3d8ac4d0	0.0677582
9	0x3e17dc8e	0.14830229
10	0x3c06aa4b	0.008219312
11	0xbd437b32	-0.04772491
12	0x3e2519bf	0.16123103
13	0xbdaa2c1a	-0.08309193
14	0xbd1fa0e1	-0.038971785
15	0x3cd5282a	0.026020128
16	0xbc074b26	-0.008257663
17	0xbd41f04f	-0.047348317
18	0x3c86cc68	0.01645489
19	0x3d1c0a6a	0.03809587
20	0x3d735542	0.05940748
21	0x3de7110e	0.1128255
22	0x3e36878d	0.17825146
23	0xbc3ca754	-0.0115145035
24	0x3d84edb0	0.06490648
25	0xbd10b4ed	-0.035328794
26	0x3c81f10f	0.015862016
27	0x3e2f81cf	0.17139362
28	0x3e466826	0.19375667
29	0x3c92d1c9	0.017922299
30	0x3c178af8	0.009249441
31	0x3d483f7a	0.04888866
32	0x3d96bbd2	0.07360043
33	0xbdc96c1b	-0.098350726
34	0x3e61cbfe	0.22050473
35	0xbe13ae72	-0.14422014
36	0xbb168bac	-0.0022971435
37	0x3e4f01e4	0.20215565
38	0xbc12c111	-0.008957163
39	0x3e66a7a5	0.22524889
40	0xbd8de9ea	-0.06929381
41	0xbd1af832	-0.037834354
42	0x3d2e54a4	0.04256119
43	0x3dae51b3	0.08511677
44	0x3cf4ebb5	0.02989755
45	0x3e3136e5	0.17306097
46	0xbd544f38	-0.05183336
47	0xbdc05c0c	-0.093925565
48	0x3d0cdb00	0.034388542
49	0x3d11003e	0.03540062
50	0x3d62ae57	0.055342045
51	0x3e15d64b	0.14632528
52	0xbd78e747	-0.06076744
53	0x3d75e452	0.060032196
54	0xbcc63d5f	-0.024199186
55	0x3dc78ce0	0.09743667
56	0x3d11aa4b	0.035562795
57	0x3d757752	0.059928246
58	0x3e55447d	0.20826907
59	0x3e398a62	0.18119195
60	0x3e0825a4	0.13295609
61	0xba5c6050	-0.00084066857
62	0x3e30e13d	0.17273422
63	0xbd328401	-0.04358292
64	0x3d2e95ca	0.04262332
65	0x3d6ab8f8	0.057305306
66	0x3d6f9582	0.05849219
67	0x3dad3b6e	0.08458601
68	0x3cf05eee	0.029342141
69	0x3c3502b0	0.011048004
70	0x3dc16d22	0.094446436
71	0x3e071b82	0.13194087
72	0x3e5ffd0c	0.21873873
73	0x3dc063c2	0.09394027
74	0x3e5660f0	0.20935416
75	0x3ccc60db	0.024948528
76	0x3d28ec67	0.041241076
77	0x3ca1a6e5	0.019732902
78	0x3e1b3376	0.1515635
79	0x3e2a1d58	0.16612756
80	0x3da97aef	0.08275401
81	0x3cfe0876	0.031009894
82	0x3cc8f0b2	0.024528835
83	0x3d8fcae8	0.07021123
84	0x3e4cb726	0.1999174
85	0x3c9fdb11	0.019513639
86	0xbdd1a006	-0.102356
87	0x3dd8706e	0.10568319
88	0xbda557da	-0.08073397
89	0x3d3648d4	0.044503048
90	0x3d8b8d11	0.06814016
91	0xba835300	-0.0010019243
92	0x3dd9fbbe	0.10643719
93	0x3e20d29f	0.15705346
94	0x3d39b984	0.045342937
95	0x3dfe6fc0	0.12423658
96	0x3e028732	0.12746885
97	0x3db7e30d	0.089788534
98	0x3d51b8de	0.051201694
99	0xbd914cb4	-0.07094708
100	0x3cdd6789	0.027026908
101	0x3e49cbc4	0.19706637
102	0x3dc77a4c	0.09740123
103	0x3dd768a4	0.105180055
104	0x3ce10220	0.027466834
105	0xbd23f65f	-0.04002988
106	0x3e197514	0.14986068
107	0x3df4428e	0.11926757
108	0x3e2b7801	0.16744997
109	0x3db98bd8	0.09059876
110	0x3b280b5c	0.0025641536
111	0x3ddc337a	0.10752006
112	0x3d8815ba	0.06644769
113	0xbc60f368	-0.013729908
114	0xbb145048	-0.002263086
115	0x3d9f206a	0.07769854
116	0x3e3526c6	0.17690572
117	0xbc2ca9c4	-0.010538522
118	0xbc298690	-0.010347024
119	0x3e254b0a	0.16141906
120	0x3e09bdb3	0.13451271
121	0xbd993daa	-0.074824646
122	0x3e28e48e	0.16493437
123	0xbd847583	-0.06467726
124	0xbd6975b3	-0.056997012
125	0x3d8eac8b	0.06966504
126	0x3d4af5e4	0.049550906
127	0x3dae6853	0.08515992
128	0x3c1daec8	0.009624191
129	0xbb934340	-0.004494101
130	0xbd7e4eb9	-0.062086795
131	0x3d3452ee	0.0440244
132	0xbdb46d29	-0.08809883
133	0xbc053278	-0.0081297085
134	0x3d9fb641	0.07798434
135	0x3cb9bf88	0.022674337
136	0xbc2588a8	-0.010103382
137	0x3af67300	0.0018802583
138	0xbcc0cc04	-0.023534782
139	0xba866a40	-0.0010255054
140	0xbcd81d02	-0.02638102
141	0x3cdc02fc	0.026856892
142	0x3da93fcf	0.08264124
143	0xbd9b6bd8	-0.07588929
144	0xbc323f98	-0.01087942
145	0xbd1c5321	-0.038165215
146	0x3ca8cf20	0.020606577
147	0x3d4abb66	0.049495123
148	0x3d96c349	0.073614664
149	0x3d32192e	0.043481044
150	0xbd0af033	-0.033920478
151	0x3c2063a8	0.009789385
152	0xbcf2c2f4	-0.029633977
153	0x3b22d700	0.0024847388
154	0xbccfa358	-0.025346443
155	0x3cced8d8	0.025249884
156	0xbdaf0ea7	-0.085477166
157	0x3a754080	0.00093556195
158	0x3d2ed2e2	0.042681582
159	0xbcde1960	-0.02711171
160	0xbce23a58	-0.027615711
161	0x3c60db88	0.013724215
162	0xbd0545ea	-0.03253738
163	0x3d7a1842	0.06105829
164	0xbccaf574	-0.024775244
165	0x3dad9139	0.08474965
166	0x3d2b8532	0.04187507
167	0xbd3a022c	-0.045412228
168	0x3d17c2d6	0.037051044
169	0xbda86c4f	-0.08223783
170	0x3d02e302	0.031954773
171	0xba795800	-0.0009511709
172	0xbafa20c0	-0.0019083247
173	0xbd90d694	-0.070721775
174	0x3d4ad816	0.04952248
175	0xbcf84498	-0.030306146
176	0x3d44502a	0.047928013
177	0xbc4794f8	-0.012181513
178	0x3d1dbebe	0.038511984
179	0xbd8b685e	-0.06807016
180	0xbce94616	-0.028475802
181	0x3db05f9b	0.08611985
182	0xbd64ada0	-0.055829644
183	0xbd154cb3	-0.0364501
184	0xbd288b7d	-0.04114865
185	0x3d825b0d	0.06365023
186	0xbcf5f80e	-0.030025508
187	0xbd841766	-0.064497754
188	0x3d026fc0	0.031844854
189	0xbc341528	-0.010991372
190	0xbd2756d3	-0.040854286
191	0x3d641bb6	0.05569049
192	0xbc4ebc78	-0.012618177
193	0xbb33ce60	-0.0027436242
194	0x3d6d003e	0.05786156
195	0x3d90f379	0.07077689
196	0x3d82e605	0.06391529
197	0x3da7ee41	0.0819974
198	0xbd87f090	-0.066376805
199	0x3d1e28da	0.038613178
200	0xbd93ea31	-0.07222403
201	0xbd93b35d	-0.07211945
202	0x3ce7b3c8	0.028283969
203	0x3db1b9fb	0.08678051
204	0xbc5c9da0	-0.013465315
205	0x3d23d3d6	0.039996944
206	0x3d6dcb0a	0.05805496
207	0xbd89374f	-0.067000024
208	0x3cdf6808	0.027271286
209	0x3cd88268	0.02642937
210	0xbd9b7292	-0.07590212
211	0xbd082082	-0.033234127
212	0xbd53ef05	-0.05174162
213	0x3d4bbd36	0.049740992
214	0x3d95683f	0.07295274
215	0xbcdc157e	-0.026865717
216	0xbc4a1f08	-0.0123365
217	0x3d41d696	0.047323786
218	0xbcd7817c	-0.02630686
219	0x3d2588be	0.04041361
220	0x3cbcb090	0.02303341
221	0xbd5497a8	-0.051902443
222	0x3d27d082	0.040970333
223	0xbd8bcd4b	-0.06826266
224	0xbd4a0e60	-0.049330115
225	0x3d05a738	0.032630175
226	0x3cae6c0c	0.021291755
227	0x3b827380	0.003981054
228	0x3d8f16f9	0.069868036
229	0xbd87f211	-0.066379674
230	0xbd190592	-0.037358828
231	0xbd75a770	-0.059974134
232	0xbd7f8c7b	-0.062389832
233	0x3d0e67ce	0.034766965
234	0xbda63729	-0.0811599
235	0xbd94afe1	-0.07260109
236	0x3d109942	0.035302408
237	0xbd0737ed	-0.03301232
238	0x3bb0baa0	0.005393341
239	0x3cefc828	0.029270247
240	0xbd895376	-0.06705372
241	0xbc0a7fe0	-0.008453339
242	0xbca4dd98	-0.020125195
243	0xbd2219bb	-0.03957532
244	0x3d799e36	0.060941897
245	0xbce6c35e	-0.02816933
246	0x3bbf4440	0.0058369935
247	0x3d74085e	0.059578292
248	0xbd9409f6	-0.072284624
249	0x3ca3ebc8	0.02000989
250	0x3d91b307	0.07114225
251	0xbd933da6	-0.07189493
252	0x3d70e6c6	0.058813833
253	0xbd983035	-0.0743107
254	0xbda304d7	-0.079599075
255	0xbba833d0	-0.0051331297

fc2.bias f4 [128]
0	0x3d9b2b64	0.075766355
1	0xbd228ec8	-0.039686948
2	0xbd6f2fe1	-0.05839527
3	0x3c5c460e	0.013444437
4	0x3d307db3	0.043088626
5	0x3c67e9eb	0.0141548915
6	0xbdb62a62	-0.08894803
7	0xbd319baf	-0.043361362
8	0xbd53f7bd	-0.051749934
9	0x3d541977	0.051782098
10	0x3c82e7b3	0.015979623
11	0x3dfa60c0	0.12225485
12	0x3d184e2d	0.03718393
13	0x3cfbbc39	0.0307294
14	0xbc9660f4	-0.018356778
15	0xbd607263	-0.054796588
16	0xbd9885c5	-0.074473895
17	0xbcbe1074	-0.023201205
18	0xbcdd9db8	-0.027052745
19	0x3dc81685	0.0976992
20	0x3e2e9a21	0.17050983
21	0x3e3946bd	0.18093391
22	0x3e746b23	0.23868994
23	0xbd9063ba	-0.07050271
24	0xbc51bde2	-0.012801619
25	0xbd507942	-0.05089689
26	0xbd117b4b	-0.035517972
27	0xbd5c9a82	-0.053858288
28	0x3d511f08	0.051054984
29	0xbcb1188c	-0.02161815
30	0xbdb44f5d	-0.088042
31	0x3d0041be	0.031312697
32	0xbce898e4	-0.028393216
33	0x3dbc0124	0.09179905
34	0x3b52d48e	0.003217015
35	0xbcf800bd	-0.03027379
36	0xbdb46e46	-0.088100955
37	0x3e6d3cfe	0.23167798
38	0x3cb74a20	0.022374213
39	0x3dcfde1f	0.10149788
40	0xbd921c58	-0.071343124
41	0xbd690504	-0.05688955
42	0x3c044d44	0.008075062
43	0x3dc4c15a	0.096071914
44	0x3c98045d	0.018556768
45	0xbc8353f2	-0.01603124
46	0xbd6aab86	-0.057292484
47	0x3e5b2fc8	0.21404946
48	0x3d4add62	0.049527533
49	0xbd3ba666	-0.045812987
50	0x3d00d0f4	0.031449273
51	0xbdc4df4a	-0.096129015
52	0x3e728ed7	0.23687302
53	0x3d47186e	0.048607282
54	0xbbb5608f	-0.0055351923
55	0xbdad7718	-0.08469981
56	0x3e391607	0.18074809
57	0x3e468f21	0.19390537
58	0x3c18e019	0.009330773
59	0xbd988ca0	-0.07448697
60	0x3d8b9b88	0.068167746
61	0x3dc0904a	0.09402521
62	0xbdbcb2fb	-0.09213825
63	0xbd31e8ad	-0.043434788
64	0x3bf3783a	0.0074301036
65	0x3c37c59f	0.01121655
66	0xbcc248e7	-0.023716403
67	0x3d92fe8b	0.071774565
68	0x3cc1869b	0.023623755
69	0x3cf24734	0.029574968
70	0xbc9abf00	-0.018889904
71	0xbd12046b	-0.035648745
72	0x3d15cfb8	0.03657505
73	0xbb25d285	-0.0025302481
74	0xbd57061b	-0.052496057
75	0x3d26e95f	0.040749904
76	0x3cd33475	0.02578185
77	0xbd306e8f	-0.043074187
78	0x3e47dfe0	0.19518995
79	0xbd3a93ae	-0.045550995
80	0xbd8248bc	-0.06361529
81	0xbd5815c5	-0.052755136
82	0xbb034b27	-0.0020033808
83	0x3aa0dbd2	0.0012272543
84	0x3cd55326	0.026040625
85	0xbddc0e9c	-0.10744974
86	0x3b8d68d8	0.004315477
87	0xbd90af5f	-0.070646994
88	0x3cf84cc2	0.030310038
89	0x3cef0818	0.029178664
90	0xbd3f4a00	-0.04670143
91	0x3e85860f	0.2607884
92	0x3ceac06a	0.028656203
93	0x3daf968a	0.08573635
94	0x3d5dfe3a	0.054197527
95	0xbcf1efad	-0.029533232
96	0x3d505db2	0.050870605
97	0x3a2584dc	0.0006314048
98	0xbd2ea199	-0.04263458
99	0x3ce68ce5	0.028143356
100	0x3d4e20f9	0.050324414
101	0x3da54a7b	0.08070847
102	0x3cbfb890	0.023403436
103	0x3da8f891	0.08250535
104	0xbd114a4b	-0.035471242
105	0x3d522b98	0.051311105
106	0x3d83a8ec	0.06428704
107	0xbd96796d	-0.07347379
108	0x3d5db47c	0.0541272
109	0x3dd70bde	0.1050031
110	0x3da6d7cf	0.08146631
111	0x3c16f066	0.009212589
112	0x3ca7e3aa	0.0204943
113	0x3e20a5c2	0.15688232
114	0xbd1d8d36	-0.038464747
115	0x3e5efdea	0.21776548
116	0xbdafb0e0	-0.08578658
117	0xbbf127a0	-0.00735946
118	0x3e74294b	0.23843877
119	0x3e791633	0.24324875
120	0xbdcc3d9b	-0.09972688
121	0xbd91c386	-0.07117371
122	0x3d6ecf38	0.058303088
123	0x3df4f0e1	0.119600065
124	0x3d46e483	0.04855777
125	0x3d1538a4	0.03643097
126	0x3b590944	0.0033117095
127	0x3d6397ec	0.055564806

out.weight f4 [21, 128]
0	0x3e3c2e76	0.18377098
1	0xbd41b423	-0.047290932
2	0x3cf60304	0.030030735
3	0xbcb01324	-0.021493502
4	0xbdae7565	-0.08518485
5	0xbc7f16d8	-0.015569411
6	0xbda2de80	-0.07952595
7	0xbd3ffe7f	-0.046873566
8	0x3d504fa6	0.05085721
9	0xbd1cc972	-0.03827805
10	0x3cf95e10	0.03044036
11	0x3e302ed2	0.1720536
12	0x3d272d86	0.0408149
13	0x3e1633bd	0.14668174
14	0xbd80d38c	-0.06290349
15	0x3daeeecb	0.0854164
16	0x3d8251b9	0.063632436
17	0xbd983483	-0.07431891
18	0xbc8acd50	-0.016943604
19	0xbd2e5fdc	-0.042571887
20	0x3e08e86d	0.13369913
21	0x3d8a760f	0.06760799
22	0x3e0b4f1b	0.13604395
23	0xbd12b085	-0.035812873
24	0x3dac8d55	0.084253944
25	0x3ce0a240	0.027421117
26	0x3d2c2f9e	0.0420376
27	0x3d71cbaa	0.05903212
28	0xbd79ea94	-0.061014727
29	0xbce4c5b2	-0.0279263
30	0x3d16c40e	0.036808066
31	0x3d4bacde	0.049725406
32	0x3d0ddd50	0.03463489
33	0x3e2b8527	0.16750012
34	0x3c764ee0	0.015033454
35	0xbd1ea46c	-0.038731024
36	0xbda12ad8	-0.078695
37	0x3d71e414	0.059055403
38	0xbcad27d8	-0.021137163
39	0x3e2905c9	0.16506113
40	0x3e3da580	0.18520164
41	0x3cc28184	0.023743398
42	0xbd634b4c	-0.05549173
43	0xbd229445	-0.039692182
44	0x3ba6a1a0	0.005085185
45	0xbd51ab83	-0.051188957
46	0xbdae6f20	-0.08517289
47	0x3e29f352	0.16596726
48	0x3d23008e	0.03979545
49	0x3d188422	0.037235387
50	0x3e091159	0.13385524
51	0x3d8e8047	0.06958061
52	0x3e2b2d0a	0.167164
53	0xbcfdf234	-0.03099928
54	0x3ce93550	0.028467804
55	0xbd898298	-0.06714362
56	0x3e31d791	0.17367388
57	0x3e25fe48	0.16210282
58	0xbcd022f4	-0.025407292
59	0x3d6d3746	0.05791404
60	0x3e1bdbdd	0.1522059
61	0x3e280971	0.16409852
62	0x3d4a2756	0.04935392
63	0x3d6d988a	0.0580068
64	0xbd79eaec	-0.061015055
65	0x3d421baa	0.047389664
66	0x3d6f4586	0.058415912
67	0x3d8bd775	0.068282045
68	0x3ce17f00	0.027526379
69	0x3d157fc8	0.036498815
70	0x3d863a9d	0.06554148
71	0xbd2324e6	-0.03983011
72	0x3c0f4958	0.008745514
73	0x3d1e42f2	0.038638063
74	0x3d35fbfa	0.044429757
75	0xbbe5c2a0	-0.0070117265
76	0x3cf92208	0.030411735
77	0x3cb59720	0.022166789
78	0x3dfbf962	0.12303425
79	0xbc343ad8	-0.011000358
80	0x3d36b102	0.0446024
81	0x3d5b13ce	0.053485684
82	0xbd18fc15	-0.03734978
83	0xbd666dcf	-0.056257065
84	0xbd1aa124	-0.037751332
85	0x3d8773d1	0.06613887
86	0xbd4974f4	-0.0491838
87	0xbd87289a	-0.06599541
88	0x3d8d3d23	0.068964265
89	0xbd1f64a2	-0.03891433
90	0x3dafd9cd	0.08586464
91	0x3e023883	0.1271687
92	0x3c9f28b0	0.019428581
93	0x3dc3aae6	0.09554081
94	0x3c007e58	0.007842623
95	0xbcd4f6d6	-0.025996607
96	0x3dad61c5	0.08465914
97	0xbd87d468	-0.0663231
98	0x3cba92e4	0.022775121
99	0xbcf6a360	-0.0301072
100	0xbdaf81c5	-0.085696734
101	0xbd2c3065	-0.04203834
102	0x3c376fd0	0.011196092
103	0x3cacdf30	0.021102518
104	0x3d652dc3	0.055951845
105	0xbc8b7d0c	-0.0170274
106	0xbdb01c9d	-0.085992076
107	0x3c631840	0.013860762
108	0xbc9869dc	-0.018605165
109	0x3cd711b9	0.026253568
110	0x3d2d566a	0.04231874
111	0xbc4dc870	-0.012559995
112	0x3c882ad8	0.016621992
113	0x3e3c152e	0.18367454
114	0xbcdd3fd4	-0.027007975
115	0x3e27d136	0.16388401
116	0x3c5bbb50	0.013411358
117	0xbda73747	-0.0816484
118	0x3d113dab	0.0354592
119	0x3dbaca9a	0.091206744
120	0x3d9ffe45	0.0781217
121	0x3bce3cb0	0.0062938556
122	0x3d940905	0.07228283
123	0x3cb3d932	0.021954153
124	0xbda740de	-0.08166669
125	0x3ce45768	0.02787371
126	0xbc1d8c08	-0.009615906
127	0x3ce37314	0.027764834
128	0x3d94f4c5	0.072732486
129	0x3ce1fc40	0.027586102
130	0xbd20dec0	-0.03927493
131	0x3d1ca142	0.038239725
132	0xbbd73460	-0.006567523
133	0xbc823b2c	-0.015897356
134	0x3d96c9e4	0.07362726
135	0x3da969b1	0.08272112
136	0x3c5080f8	0.012726061
137	0xbd7ece7a	-0.06220863
138	0x3d883565	0.06650809
139	0x3e295e90	0.16539979
140	0xbd91b2a2	-0.0711415
141	0x3e219a48	0.1578151
142	0x3bc92020	0.006137863
143	0x3daa3c19	0.08312244
144	0x3db3e9e5	0.08784846
145	0xbd51ced6	-0.051222645
146	0xbd5fb792	-0.054618426
147	0xbd02237b	-0.031772118
148	0x3d5efcc8	0.05444029
149	0x3e0a8b00	0.13529587
150	0x3e56a343	0.20960717
151	0xbd8f9b7f	-0.070120804
152	0x3a0b3580	0.00053104013
153	0x3ce03218	0.027367637
154	0xbd864dd7	-0.065578155
155	0x3d66ee02	0.056379326
156	0xbda098c3	-0.07841637
157	0xbad0c2f3	-0.001592724
158	0xbd64db0e	-0.05587297
159	0xbce07d88	-0.027403608
160	0x3cfe8d70	0.031073302
161	0x3e568733	0.20950012
162	0xbcdfc46c	-0.027315341
163	0x3d2c295a	0.042031623
164	0xbda023a9	-0.07819302
165	0x3e67bc55	0.22630437
166	0xbd6b6974	-0.057473615
167	0x3d98e994	0.074664265
168	0x3dd3597e	0.10319804
169	0xbdb0176d	-0.08598218
170	0x3d96a437	0.0735554
171	0x3cf2e320	0.029649317
172	0xbd806a43	-0.06270268
173	0x3cb420c0	0.021988273
174	0x3cfbf3d8	0.030755922
175	0x3e451dbb	0.19249623
176	0x3e3512fd	0.17683025
177	0xbb6158a0	-0.00343851
178	0x3db94264	0.09045866
179	0x3d2a0bf6	0.041515313
180	0x3e0c402b	0.13696353
181	0x3cddba54	0.027066387
182	0x3d55a42a	0.052158512
183	0x3cf2e910	0.029652148
184	0x3dc04ea1	0.09389997
185	0x3d6c6367	0.057711985
186	0x3d71cf26	0.059035443
187	0x3bd2eef0	0.006437175
188	0x3d7d29bb	0.061807375
189	0xbbd6e9f9	-0.0065586534
190	0x3d483756	0.048880897
191	0x3cf587f0	0.029972047
192	0x3d74060a	0.05957607
193	0x3cd4f708	0.0259967
194	0xbd7d6868	-0.061867148
195	0x3c605278	0.013691537
196	0x3d241bcf	0.040065583
197	0xbc14d828	-0.009084739
198	0x3db3fc39	0.08788342
199	0xbd1d1abe	-0.03835558
200	0x3d9220ff	0.071352
201	0xbc4fd5e8	-0.012685277
202	0xbd4c4c7d	-0.049877632
203	0xbd5b48cf	-0.053536233
204	0x3d3eba06	0.046564125
205	0x3d563d7a	0.052304722
206	0x3d79af13	0.06095798
207	0xbc005ad8	-0.007834159
208	0x3bc1f9b3	0.005919659
209	0xbda47189	-0.080294676
210	0x3ce3d79c	0.027812771
211	0x3c9e27c4	0.019306071
212	0x3cfefd00	0.0311265
213	0xbd8b314a	-0.067965105
214	0xbd2ac2f7	-0.04168984
215	0x3c64e218	0.013969921
216	0xbd88500d	-0.066558935
217	0x3dab26a3	0.08356979
218	0x3c81867c	0.015811197
219	0x3dddcb81	0.10829831
220	0x3d85ec31	0.065391906
221	0x3dd2dbd8	0.10295838
222	0x3da21f59	0.07916135
223	0x3d91814b	0.07104739
224	0x3d5f14ca	0.054463185
225	0x3c8d3cf4	0.017240979
226	0xbd00515d	-0.031327594
227	0x3d801649	0.062542506
228	0xbd7164d0	-0.058934033
229	0xbc1c0b20	-0.009524137
230	0x3d1a5cee	0.03768628
231	0x3c381398	0.01123514
232	0x3e5f32df	0.2179675
233	0x3d3ee012	0.04660041
234	0x3d3cfaba	0.04613755
235	0x3d2f4cae	0.042797737
236	0x3c9b1c70	0.018934458
237	0x3e068afd	0.13138957
238	0x3b43c340	0.0029871017
239	0x3bf1f071	0.007383399
240	0x3d90fea9	0.070798226
241	0x3d7d9a15	0.061914522
242	0xbd0f0266	-0.034914397
243	0x3db72a54	0.0894362
244	0xbb188500	-0.0023272634
245	0x3d35a13a	0.04434321
246	0x3dd75fc1	0.105163105
247	0x3df1b858	0.11802739
248	0xbda11ba2	-0.07866599
249	0xbbe186c0	-0.0068825185
250	0x3c32f65f	0.010922997
251	0x3e1e45e2	0.15456346
252	0x3cc609f8	0.024174675
253	0xbd685f7d	-0.05673169
254	0x3cbbf68c	0.022944711
255	0xbd9cd48b	-0.07657727

out.bias f4 [21]
0	0x3ce954a9	0.028482752
1	0x3de2c2c8	0.11072308
2	0x3e1b0420	0.15138292
3	0x3e41711f	0.18890809
4	0x3c48e694	0.012262005
5	0x3d709b59	0.0587419
6	0x3d01002a	0.031494297
7	0x3d30a3f3	0.043125104
8	0x3e191928	0.14951003
9	0x3e4baf37	0.19891058
10	0x3d4ebf04	0.050475135
11	0x3dbbf1c3	0.09176972
12	0x3e30f156	0.17279562
13	0x3e03d796	0.12875208
14	0x3dda2b89	0.10652835
15	0x3c217e1b	0.009856726
16	0x3d9b7cfe	0.075922
17	0x3e0d3417	0.13789402
18	0x3d93587a	0.0719461
19	0x3df9abab	0.12190946
20	0x3dcb18e0	0.09916854

fc1.weight f4 [128, 81]
0	0xbccd4938	-0.025059327
1	0x3a88a90f	0.001042636
2	0x3ca5a739	0.02022134
3	0xbdb44bce	-0.08803521
4	0xbe03ad5a	-0.12859097
5	0xbd8eb16d	-0.06967435
6	0x3d189e49	0.037260327
7	0xbdef453c	-0.11683127
8	0xbd81eab6	-0.06343596
9	0x3d3f6261	0.04672468
10	0xbb8dcf75	-0.0043277093
11	0xbdc1a630	-0.09455526
12	0xbc9f67bd	-0.019458646
13	0xbc519e7c	-0.012794133
14	0xbe07db76	-0.13267311
15	0xbce6e29a	-0.028184224
16	0x3d0c3781	0.03423262
17	0xbd345049	-0.04402188
18	0xbcadd958	-0.021221802
19	0xbd3ff856	-0.04686769
20	0xbdca5c05	-0.098808326
21	0xbdaa4c8e	-0.08315383
22	0xbca86b57	-0.020558996
23	0xbe091058	-0.13385141
24	0x3d61a6ce	0.055090718
25	0xbdeefdc0	-0.11669493
26	0xbdf74a1f	-0.12074684
27	0x3cb01824	0.021495886
28	0xbd40d6c7	-0.047079828
29	0xbd4817d4	-0.04885085
30	0x3d9533f7	0.07285302
31	0xbd009209	-0.03138927
32	0xbbb51f7c	-0.005527435
33	0xbdc36b10	-0.09541905
34	0x3cd794d0	0.026316077
35	0x3d12b83f	0.035820242
36	0x3d51739e	0.05113565
37	0xbe00abb2	-0.12565497
38	0xbe0b56c2	-0.13607314
39	0xbda26c74	-0.07930842
40	0xbd828ae9	-0.06374151
41	0xbdacc053	-0.084351204
42	0x3cb0d41b	0.021585515
43	0xbc19b320	-0.009381086
44	0xb99b4a7a	-0.00029619393
45	0x3d73022c	0.059328243
46	0xbc7fb7e0	-0.015607804
47	0xbd37bcec	-0.044857904
48	0x3d429b20	0.04751122
49	0x3ca82b51	0.020528467
50	0xbd58d823	-0.0529405
51	0xbdb37aa9	-0.0876363
52	0xbdd52ed4	-0.104093224
53	0x3d66475d	0.0562204
54	0xbe1d3171	-0.15350892
55	0x3bd910b0	0.0066243038
56	0xbddaff93	-0.10693278
57	0xbdfec5dc	-0.124400824
58	0x3ba5717e	0.0050489297
59	0x3c022b2a	0.007944861
60	0x3cc8fb66	0.024533939
61	0x3d49d562	0.049275763
62	0xbda4d847	-0.08049064
63	0x3e03b01f	0.12860154
64	0x3d5a30fd	0.053269375
65	0xbdedcb71	-0.11611069
66	0xbdf8f706	-0.12156491
67	0x3da88cfa	0.08230014
68	0xbe1f395c	-0.15549225
69	0x3d8acaba	0.06776948
70	0xbe0861d9	-0.13318576
71	0x3e1a7551	0.15083815
72	0xbe198d9b	-0.14995424
73	0x3d5998ca	0.053124227
74	0xbd7b1286	-0.061296962
75	0x3dab199d	0.08354495
76	0xbcf118be	-0.029430743
77	0x3d1b86f8	0.037970513
78	0x3d2b950a	0.04189018
79	0x3de92c39	0.11385388
80	0xbaf850da	-0.0018944994
81	0xbd09b400	-0.033618927
82	0x3d7cff02	0.061766632
83	0x3c2030b8	0.00977724
84	0x3c408420	0.011750251
85	0x3d161012	0.03663642
86	0xbd59181d	-0.05300151
87	0x3d652702	0.055945404
88	0x3cc73a24	0.024319716
89	0xbc8f77b0	-0.017513126
90	0xbbe3ea40	-0.006955415
91	0xbca4579c	-0.020061307
92	0x3db16c3b	0.086632214
93	0xbb2fa440	-0.0026800781
94	0x3da07ddf	0.07836508
95	0xbd5db252	-0.054125138
96	0x3ddf7443	0.10910847
97	0x3c6d79b8	0.014494352
98	0x3cdf89bc	0.027287357
99	0x3ba50350	0.0050357953
100	0x3dabbe51	0.08385909
101	0x3d64347a	0.055714108
102	0x3cc92a3c	0.024556272
103	0x3c47b7d8	0.012189828
104	0xbc9a9200	-0.018868446
105	0xbd4e2ccb	-0.050335687
106	0xbdb2b100	-0.08725166
107	0xba34ea80	-0.00069013983
108	0x3c6c37d8	0.014417611
109	0x3cd6df64	0.026229568
110	0xbcdc1738	-0.02686654
111	0x3d3a758a	0.04552225
112	0xbdd530ae	-0.104096755
113	0xbd28fa6a	-0.04125444
114	0xbdd1802c	-0.10229525
115	0xbd929fc0	-0.07159376
116	0xbdd5afe4	-0.10433939
117	0xbda1fe09	-0.079097815
118	0x3ddbd77d	0.107344605
119	0x3dd253ff	0.10269927
120	0x3da775f7	0.08176797
121	0xbdbaaafb	-0.09114643
122	0xbd8904e2	-0.066903844
123	0xbd7dc7e4	-0.06195821
124	0xbad40000	-0.0016174316
125	0x3d620a12	0.055185385
126	0x3db3d369	0.08780558
127	0xbd0da428	-0.03458038
128	0xbc86c3c0	-0.016450763
129	0xbdda772b	-0.10667261
130	0xbd692e55	-0.05692895
131	0xbdd96aa2	-0.10616042
132	0x3d8f37d3	0.069930695
133	0x3c553e70	0.013015375
134	0x3d2f629a	0.042818643
135	0x3d46605e	0.048431747
136	0x3d994ebf	0.07485723
137	0x3d697b6e	0.057002477
138	0x3c3052d8	0.010761939
139	0x3d5521ee	0.05203431
140	0x3dce2cab	0.100671135
141	0x3dd53e6d	0.104122974
142	0x3c8607bc	0.01636111
143	0x3d51d33a	0.051226832
144	0x3d862985	0.06550888
145	0xbcca36ec	-0.024684392
146	0x3c3dcca8	0.011584438
147	0xbd9fa570	-0.077952266
148	0x3c645518	0.013936304
149	0xbd7bc6b2	-0.061468787
150	0xbcce69ac	-0.025196873
151	0xbdae9f04	-0.085264236
152	0xbda69524	-0.08133915
153	0xbc936890	-0.017994195
154	0x3d3f63fe	0.04672622
155	0x3bf1f900	0.0073844194
156	0x3d7e85ea	0.06213943
157	0xbdcab2cc	-0.09897384
158	0xbd0f4720	-0.03497994
159	0x3d0f2ea6	0.034956597
160	0xbc9615f8	-0.018321022
161	0xbda97e6c	-0.08276066
162	0x3e2a0208	0.16602337
163	0xbda047bb	-0.078261815
164	0x3e68ecce	0.22746584
165	0x3e634cf8	0.2219733
166	0x3e26f754	0.16305286
167	0xbd38f078	-0.045151204
168	0x3e216262	0.15760186
169	0xbd088328	-0.033328205
170	0x3e356b01	0.177166
171	0x3e545224	0.20734459
172	0x3e0a0f23	0.13482337
173	0xbe8d1fbf	-0.27563283
174	0x3d9c5a60	0.07634425
175	0x3d0a1bec	0.033718035
176	0x3dd9de64	0.10638121
177	0xbdb34cdc	-0.08754894
178	0x3e11e9c4	0.14249331
179	0x3c81331e	0.015771445
180	0x3d32bae6	0.04363527
181	0xbe5a0613	-0.2129138
182	0x3dfb314c	0.12265262
183	0x3d6bcfe9	0.057571325
184	0x3d9b6690	0.075879216
185	0x3e01814b	0.12646978
186	0x3e53b853	0.20675783
187	0xbd870f24	-0.06594685
188	0x3e018506	0.126484
189	0x3df08553	0.117441796
190	0x3e4c295b	0.19937651
191	0xbb0136bf	-0.001971647
192	0x3d0779ff	0.03307533
193	0x3d2ef62d	0.04271524
194	0x3cb1a637	0.021685703
195	0xbd6eff47	-0.05834892
196	0x3e8b9490	0.27261782
197	0xbe03bc8d	-0.12864895
198	0xbbc038c1	-0.0058661406
199	0x3e1917ee	0.14950535
200	0x3c3b420f	0.011429324
201	0xbdbe94cc	-0.093057245
202	0x3e417255	0.1889127
203	0x3d310755	0.043219883
204	0x3d38746b	0.0450329
205	0x3e17e63c	0.14833921
206	0x3dde1d96	0.10845487
207	0x3c402cdd	0.011729446
208	0x3ea83a1c	0.32856834
209	0xbf364495	-0.711984
210	0x3e1a90a3	0.15094237
211	0x3debd5e0	0.11515403
212	0xbd3182ce	-0.043337636
213	0x3e18900e	0.14898703
214	0x3e43a371	0.19105317
215	0x3e3e5d26	0.18590221
216	0x3c1ec018	0.009689353
217	0x3dd99901	0.10624886
218	0x3bf8c552	0.007591882
219	0xbd8ebb11	-0.06969274
220	0x3d9844b1	0.07434977
221	0x3e087832	0.13327101
222	0x3db2a3c6	0.087226436
223	0x3e192ec3	0.14959244
224	0x3e28d288	0.16486561
225	0xbc4de3b9	-0.0125665
226	0x3d7a5c70	0.06112331
227	0x3cd7ae69	0.026328282
228	0x3e213f78	0.15746868
229	0xbefd0ae9	-0.49422386
230	0x3e617155	0.22015889
231	0x3d96fb26	0.073721215
232	0x3d913e62	0.07091977
233	0xbee428d3	-0.44562396
234	0x3e2c89be	0.1684942
235	0x3cfbfe5c	0.030760936
236	0x3e0e2109	0.1387979
237	0xbf4a577e	-0.7903975
238	0x3d9c47cc	0.07630882
239	0xbd008cef	-0.031384405
240	0x3e80c213	0.25148067
241	0xbf253956	-0.6454061
242	0x3e1cb3ef	0.15303014
243	0xbdb85e03	-0.09002306
244	0xbe0fe82e	-0.14053413
245	0xbd9ccf8f	-0.07656776
246	0xbd9b362a	-0.0757869
247	0x3d0b00dd	0.03393637
248	0xbd5485cb	-0.051885407
249	0x3c2bde58	0.010490023
250	0xbdc4a3a0	-0.096015215
251	0xbdb350e2	-0.087556615
252	0xbd1cbf14	-0.038268164
253	0x3b2fce18	0.0026825722
254	0x3d111bd2	0.035426922
255	0xbd2f966a	-0.042868055

fc1.bias f4 [128]
0	0x3c65d3c8	0.014027543
1	0xbda9ebae	-0.082969055
2	0x3cb795d4	0.02241031
3	0xbd38f8db	-0.045159202
4	0xbd3ad3d9	-0.04561219
5	0x3e05e167	0.13074265
6	0x3e06c4f0	0.13161063
7	0xbdd00617	-0.101574115
8	0x3cce731e	0.025201377
9	0x3e34c252	0.17652252
10	0x3dbcbea5	0.0921605
11	0xbdb8fcbb	-0.090325795
12	0x3e3dfde8	0.18553889
13	0xbd598c93	-0.053112578
14	0xbd459e86	-0.048246883
15	0xbe012adf	-0.1261401
16	0x3d81a99e	0.0633118
17	0xbe022589	-0.12709631
18	0x3d8388d1	0.0642258
19	0x3d6cdfba	0.05783055
20	0x3d9b3c27	0.075798325
21	0x3dcd1761	0.10014225
22	0x3e014174	0.12622625
23	0xbcd7a74f	-0.026324896
24	0xbdd75286	-0.10513787
25	0xbdb4f972	-0.088366404
26	0xbdc5199b	-0.096240245
27	0x3d8dee26	0.06930189
28	0x3d9fdce0	0.078058004
29	0xbda71f1d	-0.08160231
30	0xbd1e50ae	-0.03865116
31	0xbd745039	-0.05964682
32	0xbd540634	-0.05176373
33	0x3bd7549d	0.006571366
34	0x3d656fd7	0.056014862
35	0xbe1e0a20	-0.1543355
36	0x3d32bfde	0.04364001
37	0x3de3d42f	0.11124455
38	0x3d21c734	0.039496616
39	0x3ddfbb85	0.109244384
40	0xbd864212	-0.06555571
41	0x3d253cac	0.040341064
42	0x3caa0bb6	0.020757537
43	0xbd19c328	-0.03753963
44	0xbdb93537	-0.09043353
45	0x3e21c125	0.15796335
46	0xbdb3f94b	-0.08787783
47	0x3c3ed707	0.011647946
48	0xbdb95927	-0.090502076
49	0xbc2d4162	-0.0105746705
50	0x3e0fc6e7	0.14040719
51	0x3de644b6	0.11243574
52	0xbd2bc85a	-0.041939117
53	0x3d93ae2c	0.07210955
54	0x3e2f8979	0.17142285
55	0x3d4c17ac	0.049827263
56	0x3d55bd2c	0.05218236
57	0xbd88d009	-0.066803046
58	0x3e161ac2	0.14658645
59	0x3e4c4970	0.19949889
60	0x3d8b9f8d	0.06817541
61	0x3d98840f	0.07447063
62	0x3dab9640	0.08378267
63	0xbdc4da17	-0.0961191
64	0xbd4b1e84	-0.04958965
65	0xbdbe84f1	-0.093027
66	0x3b8a4923	0.0042201444
67	0x3d8d2b55	0.068930306
68	0x3e0d7809	0.13815321
69	0x3d64d800	0.055870056
70	0x3e3aeae5	0.18253668
71	0x3e432fe4	0.19061238
72	0x3d34c197	0.044129934
73	0x3d75933c	0.059954867
74	0x3e27b1f4	0.16376477
75	0xbd99bdec	-0.07506928
76	0x3d66ffb9	0.05639622
77	0xbce2f1df	-0.027703224
78	0x3cb0f3eb	0.021600684
79	0x3e073b40	0.13206196
80	0x3d3d02fe	0.04614543
81	0xbdafd294	-0.085850865
82	0xbdc8f5ed	-0.098125316
83	0x3ca04bdc	0.019567423
84	0x3e695e23	0.22789817
85	0xbd5ef914	-0.05443676
86	0x3d461602	0.048360832
87	0xbcf9a4f6	-0.030474167
88	0xbda1a3da	-0.0789258
89	0x3d9f1947	0.07768493
90	0x3d14e894	0.036354616
91	0xbd3a9aa8	-0.045557648
92	0x3e351f67	0.1768776
93	0x3e55b026	0.20867977
94	0xbde9e00e	-0.11419688
95	0x3c28df5f	0.010307162
96	0x3e3ea81c	0.18618816
97	0x3d9a9c36	0.07549326
98	0xbd82f8b6	-0.06395094
99	0x3cda514c	0.026650093
100	0x3d9853b2	0.074378386
101	0xbd125c97	-0.03573283
102	0xbdb71381	-0.08939267
103	0x3dd9093a	0.10597463
104	0xbd0c72c8	-0.03428915
105	0xbd2cabfd	-0.04215621
106	0x3e50deed	0.2039754
107	0x3e058eca	0.13042751
108	0xbbbc4c43	-0.005746396
109	0xbe0897f2	-0.13339213
110	0xbd765318	-0.060137838
111	0x3dbf604e	0.093445405
112	0x3e5a050e	0.2129099
113	0x3d10d29e	0.03535711
114	0x3dbfbc60	0.093621016
115	0x3ca8e8d7	0.02061884
116	0x3e569ff1	0.2095945
117	0xbda54de2	-0.080714956
118	0xbd83efc1	-0.06442214
119	0x3e84bef4	0.25926936
120	0x3e3cb527	0.18428479
121	0xbdda7c4d	-0.1066824
122	0x3e5b6de9	0.21428646
123	0x3c90e9c1	0.017689588
124	0x3da43b26	0.08019094
125	0xbd86f1d6	-0.06589095
126	0x3d75a10c	0.05996804
127	0x3d8c4e7f	0.068509094

fc2.weight f4 [128, 128]
0	0xbcb9b402	-0.022668842
1	0xbd6df77e	-0.058097355
2	0x3e8ff07b	0.2811316
3	0xbc9ac205	-0.018891344
4	0x3d1e6d71	0.03867859
5	0x3e04c083	0.12964062
6	0x3e356b48	0.17716706
7	0x3d8bd58f	0.068278424
8	0x3d836aac	0.064168304
9	0x3e100ff8	0.14068592
10	0x3c06aa4b	0.008219312
11	0xbd437b32	-0.04772491
12	0x3e1ed09d	0.15509267
13	0xbdaa2c1a	-0.08309193
14	0xbd1fa0e1	-0.038971785
15	0x3cd5282a	0.026020128
16	0xbc074b26	-0.008257663
17	0xbd41f04f	-0.047348317
18	0x3c86cc68	0.01645489
19	0x3d1c0a6a	0.03809587
20	0x3d735542	0.05940748
21	0x3dd86e7e	0.1056795
22	0x3e2dfcd0	0.16990972
23	0xbc3ca754	-0.0115145035
24	0x3d84edb0	0.06490648
25	0xbd10b4ed	-0.035328794
26	0x3c81f10f	0.015862016
27	0x3e278035	0.16357501
28	0x3e3eddc9	0.18639292
29	0x3c92d1c9	0.017922299
30	0x3c178af8	0.009249441
31	0x3d483f7a	0.04888866
32	0x3d96bbd2	0.07360043
33	0xbdc96c1b	-0.098350726
34	0x3e5a1e1f	0.21300553
35	0xbe13ae72	-0.14422014
36	0xbb168bac	-0.0022971435
37	0x3e451ba4	0.19248825
38	0xbc12c111	-0.008957163
39	0x3e5de07e	0.21667668
40	0xbd8de9ea	-0.06929381
41	0xbd1af832	-0.037834354
42	0x3d2e54a4	0.04256119
43	0x3dae51b3	0.08511677
44	0x3cf4ebb5	0.02989755
45	0x3e28b6d3	0.16475992
46	0xbd544f38	-0.05183336
47	0xbdc05c0c	-0.093925565
48	0x3d0cdb00	0.034388542
49	0x3d11003e	0.03540062
50	0x3d47863f	0.04871201
51	0x3e0fe1b5	0.14050944
52	0xbd8490d6	-0.06472938
53	0x3d75e452	0.060032196
54	0xbd0acffb	-0.033889752
55	0x3db7deab	0.089780174
56	0x3d11aa4b	0.035562795
57	0x3d757752	0.059928246
58	0x3e4cb35f	0.199903
59	0x3e30eb73	0.17277317
60	0x3e05d842	0.13070777
61	0xba5c6050	-0.00084066857
62	0x3e293e6e	0.16527721
63	0xbd328401	-0.04358292
64	0x3d2e95ca	0.04262332
65	0x3d6ab8f8	0.057305306
66	0x3d6f9582	0.05849219
67	0x3d9c9038	0.07644695
68	0x3cc6806f	0.024231164
69	0x3c3502b0	0.011048004
70	0x3db06ce5	0.0861452
71	0x3dfe2a7e	0.124104485
72	0x3e571abd	0.21006294
73	0x3dc063c2	0.09394027
74	0x3e4c24b5	0.19935878
75	0x3ccc60db	0.024948528
76	0x3d28ec67	0.041241076
77	0x3ca1a6e5	0.019732902
78	0x3e13e300	0.14442062
79	0x3e22027a	0.15821257
80	0x3da97aef	0.08275401
81	0x3cfe0876	0.031009894
82	0x3cc8f0b2	0.024528835
83	0x3d1db7c6	0.038505338
84	0x3e445041	0.1917124
85	0x3c9fdb11	0.019513639
86	0xbdd1a006	-0.102356
87	0x3dd8706e	0.10568319
88	0xbda557da	-0.08073397
89	0x3d2a9a4f	0.041651066
90	0x3d793ee0	0.060850978
91	0xba835300	-0.0010019243
92	0x3dca47ba	0.09876962
93	0x3e180c66	0.1484848
94	0x3d39b984	0.045342937
95	0x3df05159	0.11734266
96	0x3df5916d	0.119906284
97	0x3da956e2	0.08268525
98	0x3d51b8de	0.051201694
99	0xbd231a3c	-0.03981994
100	0x3cdd6789	0.027026908
101	0x3e42731a	0.1898922
102	0x3dc77a4c	0.09740123
103	0x3dc959c4	0.098315746
104	0x3ce10220	0.027466834
105	0xbd23f65f	-0.04002988
106	0x3e11006d	0.14160319
107	0x3de2e3f8	0.11078638
108	0x3e2459cd	0.16049881
109	0x3db98bd8	0.09059876
110	0x3b280b5c	0.0025641536
111	0x3ddc337a	0.10752006
112	0x3d67edde	0.056623332
113	0xbd399840	-0.045311213
114	0xbb145048	-0.002263086
115	0x3d8ef3a5	0.06980065
116	0x3e2d8aee	0.16947529
117	0xbc2ca9c4	-0.010538522
118	0xbc298690	-0.010347024
119	0x3e1b2556	0.15150961
120	0x3e02029e	0.12696311
121	0xbd993daa	-0.074824646
122	0x3e1e5f2d	0.15465994
123	0xbd847583	-0.06467726
124	0xbd6975b3	-0.056997012
125	0x3d8eac8b	0.06966504
126	0x3d31906a	0.043350615
127	0x3db2d47f	0.08731937
128	0x3c1daec8	0.009624191
129	0xbb934340	-0.004494101
130	0xbd7e4eb9	-0.062086795
131	0x3d3452ee	0.0440244
132	0xbdb46d29	-0.08809883
133	0xbc053278	-0.0081297085
134	0x3d9fb641	0.07798434
135	0x3cb9bf88	0.022674337
136	0xbc2588a8	-0.010103382
137	0x3af67300	0.0018802583
138	0xbcc0cc04	-0.023534782
139	0xba866a40	-0.0010255054
140	0xbcd81d02	-0.02638102
141	0x3cdc02fc	0.026856892
142	0x3da93fcf	0.08264124
143	0xbd9b6bd8	-0.07588929
144	0xbc323f98	-0.01087942
145	0xbd1c5321	-0.038165215
146	0x3ca8cf20	0.020606577
147	0x3d4abb66	0.049495123
148	0x3d96c349	0.073614664
149	0x3d32192e	0.043481044
150	0xbd0af033	-0.033920478
151	0x3c2063a8	0.009789385
152	0xbcf2c2f4	-0.029633977
153	0x3b22d700	0.0024847388
154	0xbccfa358	-0.025346443
155	0x3cced8d8	0.025249884
156	0xbdaf0ea7	-0.085477166
157	0x3a754080	0.00093556195
158	0x3d2ed2e2	0.042681582
159	0xbcde1960	-0.02711171
160	0xbce23a58	-0.027615711
161	0x3c60db88	0.013724215
162	0xbd0545ea	-0.03253738
163	0x3d7a1842	0.06105829
164	0xbccaf574	-0.024775244
165	0x3dad9139	0.08474965
166	0x3d2b8532	0.04187507
167	0xbd3a022c	-0.045412228
168	0x3d17c2d6	0.037051044
169	0xbda86c4f	-0.08223783
170	0x3d02e302	0.031954773
171	0xba795800	-0.0009511709
172	0xbafa20c0	-0.0019083247
173	0xbd90d694	-0.070721775
174	0x3d4ad816	0.04952248
175	0xbcf84498	-0.030306146
176	0x3d44502a	0.047928013
177	0xbc4794f8	-0.012181513
178	0x3d1dbebe	0.038511984
179	0xbd8b685e	-0.06807016
180	0xbce94616	-0.028475802
181	0x3db05f9b	0.08611985
182	0xbd64ada0	-0.055829644
183	0xbd154cb3	-0.0364501
184	0xbd288b7d	-0.04114865
185	0x3d825b0d	0.06365023
186	0xbcf5f80e	-0.030025508
187	0xbd841766	-0.064497754
188	0x3d026fc0	0.031844854
189	0xbc341528	-0.010991372
190	0xbd2756d3	-0.040854286
191	0x3d641bb6	0.05569049
192	0xbc4ebc78	-0.012618177
193	0xbb33ce60	-0.0027436242
194	0x3d6d003e	0.05786156
195	0x3d90f379	0.07077689
196	0x3d82e605	0.06391529
197	0x3da7ee41	0.0819974
198	0xbd87f090	-0.066376805
199	0x3d1e28da	0.038613178
200	0xbd93ea31	-0.07222403
201	0xbd93b35d	-0.07211945
202	0x3ce7b3c8	0.028283969
203	0x3db1b9fb	0.08678051
204	0xbc5c9da0	-0.013465315
205	0x3d23d3d6	0.039996944
206	0x3d6dcb0a	0.05805496
207	0xbd89374f	-0.067000024
208	0x3cdf6808	0.027271286
209	0x3cd88268	0.02642937
210	0xbd9b7292	-0.07590212
211	0xbd082082	-0.033234127
212	0xbd53ef05	-0.05174162
213	0x3d4bbd36	0.049740992
214	0x3d95683f	0.07295274
215	0xbcdc157e	-0.026865717
216	0xbc4a1f08	-0.0123365
217	0x3d41d696	0.047323786
218	0xbcd7817c	-0.02630686
219	0x3d2588be	0.04041361
220	0x3cbcb090	0.02303341
221	0xbd5497a8	-0.051902443
222	0x3d27d082	0.040970333
223	0xbd8bcd4b	-0.06826266
224	0xbd4a0e60	-0.049330115
225	0x3d05a738	0.032630175
226	0x3cae6c0c	0.021291755
227	0x3b827380	0.003981054
228	0x3d8f16f9	0.069868036
229	0xbd87f211	-0.066379674
230	0xbd190592	-0.037358828
231	0xbd75a770	-0.059974134
232	0xbd7f8c7b	-0.062389832
233	0x3d0e67ce	0.034766965
234	0xbda63729	-0.0811599
235	0xbd94afe1	-0.07260109
236	0x3d109942	0.035302408
237	0xbd0737ed	-0.03301232
238	0x3bb0baa0	0.005393341
239	0x3cefc828	0.029270247
240	0xbd895376	-0.06705372
241	0xbc0a7fe0	-0.008453339
242	0xbca4dd98	-0.020125195
243	0xbd2219bb	-0.03957532
244	0x3d799e36	0.060941897
245	0xbce6c35e	-0.02816933
246	0x3bbf4440	0.0058369935
247	0x3d74085e	0.059578292
248	0xbd9409f6	-0.072284624
249	0x3ca3ebc8	0.02000989
250	0x3d91b307	0.07114225
251	0xbd933da6	-0.07189493
252	0x3d70e6c6	0.058813833
253	0xbd983035	-0.0743107
254	0xbda304d7	-0.079599075
255	0xbba833d0	-0.0051331297

fc2.bias f4 [128]
0	0x3d845667	0.064617924
1	0xbd228ec8	-0.039686948
2	0xbd6f2fe1	-0.05839527
3	0x3c5c460e	0.013444437
4	0x3d307db3	0.043088626
5	0x3c67e9eb	0.0141548915
6	0xbdb62a62	-0.08894803
7	0xbd319baf	-0.043361362
8	0xbd53f7bd	-0.051749934
9	0x3d541977	0.051782098
10	0x3c82e7b3	0.015979623
11	0x3de1812a	0.11010964
12	0x3d184e2d	0.03718393
13	0x3cc014cf	0.023447422
14	0xbc9660f4	-0.018356778
15	0xbd607263	-0.054796588
16	0xbd9885c5	-0.074473895
17	0xbcbe1074	-0.023201205
18	0xbcdd9db8	-0.027052745
19	0x3dc81685	0.0976992
20	0x3e212a5f	0.1573882
21	0x3e2d1b76	0.16905007
22	0x3e66e455	0.2254804
23	0xbd9063ba	-0.07050271
24	0xbc51bde2	-0.012801619
25	0xbd507942	-0.05089689
26	0xbd117b4b	-0.035517972
27	0xbd5c9a82	-0.053858288
28	0x3d511f08	0.051054984
29	0xbcb1188c	-0.02161815
30	0xbdb44f5d	-0.088042
31	0x3d0041be	0.031312697
32	0xbce898e4	-0.028393216
33	0x3da549f9	0.0807075
34	0x3b52d48e	0.003217015
35	0xbcf800bd	-0.03027379
36	0xbdb46e46	-0.088100955
37	0x3e5fbdf8	0.21849811
38	0x3cb74a20	0.022374213
39	0x3dc509d3	0.096210144
40	0xbd78e1c1	-0.06076217
41	0xbd690504	-0.05688955
42	0x3c044d44	0.008075062
43	0x3dc4c15a	0.096071914
44	0x3c98045d	0.018556768
45	0xbc8353f2	-0.01603124
46	0xbd6aab86	-0.057292484
47	0x3e4bd1f8	0.19904315
48	0x3d296815	0.041359026
49	0xbd3ba666	-0.045812987
50	0x3c9223c2	0.017839316
51	0xbdc4df4a	-0.096129015
52	0x3e6309b7	0.22171675
53	0x3d47186e	0.048607282
54	0xbbb5608f	-0.0055351923
55	0xbdad7718	-0.08469981
56	0x3e2c9b92	0.1685622
57	0x3e3d7a4d	0.18503685
58	0x3c18e019	0.009330773
59	0xbd988ca0	-0.07448697
60	0x3d71a257	0.05899271
61	0x3dc27bbe	0.09496258
62	0xbdbcb2fb	-0.09213825
63	0xbd31e8ad	-0.043434788
64	0x3bf3783a	0.0074301036
65	0x3c37c59f	0.01121655
66	0xbcc248e7	-0.023716403
67	0x3d92fe8b	0.071774565
68	0x3cc1869b	0.023623755
69	0x3cf24734	0.029574968
70	0xbd037861	-0.032097224
71	0xbd12046b	-0.035648745
72	0x3d15cfb8	0.03657505
73	0xbb25d285	-0.0025302481
74	0xbd57061b	-0.052496057
75	0x3d26e95f	0.040749904
76	0x3cd33475	0.02578185
77	0xbd306e8f	-0.043074187
78	0x3e3a9b19	0.18223228
79	0xbd3a93ae	-0.045550995
80	0xbd8248bc	-0.06361529
81	0xbd5815c5	-0.052755136
82	0xbb034b27	-0.0020033808
83	0x3aa0dbd2	0.0012272543
84	0x3cd55326	0.026040625
85	0xbddc0e9c	-0.10744974
86	0x3b8d68d8	0.004315477
87	0xbd90af5f	-0.070646994
88	0x3cf84cc2	0.030310038
89	0x3cef0818	0.029178664
90	0xbd3f4a00	-0.04670143
91	0x3e7a8f9c	0.24468845
92	0x3ceac06a	0.028656203
93	0x3d9cf3a6	0.0766366
94	0x3d5dfe3a	0.054197527
95	0xbcf1efad	-0.029533232
96	0x3d505db2	0.050870605
97	0x3a2584dc	0.0006314048
98	0xbd2ea199	-0.04263458
99	0x3ce68ce5	0.028143356
100	0x3d4e20f9	0.050324414
101	0x3da54a7b	0.08070847
102	0x3cbfb890	0.023403436
103	0x3da8f891	0.08250535
104	0xbc5184b3	-0.012787986
105	0x3d522b98	0.051311105
106	0x3d83a8ec	0.06428704
107	0xbd96796d	-0.07347379
108	0x3d5db47c	0.0541272
109	0x3dbdfa7b	0.09276291
110	0x3da6d7cf	0.08146631
111	0x3c16f066	0.009212589
112	0x3ca7e3aa	0.0204943
113	0x3e11a144	0.14221674
114	0xbd1d8d36	-0.038464747
115	0x3e4f4fe4	0.2024532
116	0xbdafb0e0	-0.08578658
117	0xbbf127a0	-0.00735946
118	0x3e674c1a	0.22587624
119	0x3e69adf1	0.2282026
120	0xbdcc3d9b	-0.09972688
121	0xbd91c386	-0.07117371
122	0x3d6ecf38	0.058303088
123	0x3dd38207	0.10327535
124	0x3d46e483	0.04855777
125	0x3d1538a4	0.03643097
126	0x3b590944	0.0033117095
127	0x3d6397ec	0.055564806
