WSNs/trained_wrsn_agent.pth (torch, 689842 bytes, 24 tensors)

fc1.weight f4 [128, 161]
000000 47 46 0d 3e 80 ee 1f 3e aa 9c 24 3e 7f 77 b7 bd
       0.1379634 0.15618324 0.16075388 -0.08958339
000010 82 a9 99 3d 39 98 27 3d 6f b0 fc 3d b2 7a 99 bc
       0.07503034 0.040916655 0.123383395 -0.018735263
000020 30 13 9f 3d 24 38 b6 3d 01 c7 3b 3e 6c 59 34 be
       0.077673316 0.08897427 0.18337633 -0.17612237
000030 0d 34 fa 3d f2 d3 59 3d f4 2d 30 3e d8 5a d4 3d
       0.12216959 0.053180642 0.1720503 0.103688896
000040 d6 ee df 3d 97 2c b9 3d 77 60 29 3d 99 c3 8f 3e
       0.10934226 0.09041708 0.04135176 0.28078917
000050 38 f9 2f 3e a2 41 13 3d c1 d3 6a 3d 91 62 3b 3e
       0.17184913 0.035951264 0.05733085 0.18299319
000060 94 d5 b4 3d 56 63 8b 3c 19 d0 0b 3e aa db 8a 3e
       0.08829799 0.01701514 0.13653602 0.27120715
000070 16 90 04 3e 5d 7c eb 3d 85 36 b0 3d 2f ac 9f 3e
       0.1294559 0.1149833 0.08604149 0.31186053
000080 fa 00 d7 3d 7b 3a 9b 3d 21 8a 56 3e f4 0e 34 3e
       0.10498233 0.07579514 0.2095113 0.17583829
000090 c2 2d 37 3e e1 62 35 3e 38 23 20 bd 29 22 82 bd
       0.17888549 0.177135 -0.039096087 -0.06354172
0000a0 46 a7 9e 3d 50 6b b1 bc d2 e2 76 3e c0 b2 b7 bd
       0.077467486 -0.021657616 0.24109963 -0.08969641
0000b0 ec 25 2d 3d 27 e8 bf 3c 47 68 eb 3d 6c ee 0e 3e
       0.042272493 0.023426129 0.11494499 0.13958138
0000c0 7e d2 79 3d 55 ab da 3d fa 4e da ba 1a bb 1e 3b
       0.060991757 0.1067721 -0.0016655617 0.0024220408
0000d0 6a 35 0e 3e c6 7c 88 3c dc 65 32 3e c5 d0 7e 3d
       0.13887563 0.01666106 0.17421669 0.062210817
0000e0 16 2c ba 3d 28 bc 0f bc ea 0e c2 3d a4 98 f3 3c
       0.0909044 -0.008772887 0.09475501 0.02973587
0000f0 48 93 ea 3d af 51 07 3e 89 4d 03 3e 4e 5e 84 3e
       0.11453873 0.13214754 0.12822546 0.258532
000100 5e 79 dc 3d c6 52 ba bd 70 02 33 3e 9e ee d2 3d
       0.107653365 -0.09097819 0.17481399 0.10299419
000110 3c 6d 18 3e 39 4d 8f bc 3f 20 d7 3d a2 5d f7 be
       0.1488542 -0.017492877 0.10504197 -0.48313624
000120 56 f3 94 3d be f9 8f 3d 74 98 26 3e 6e 85 a7 bb
       0.07272975 0.070300564 0.16269094 -0.0051123416
000130 6a f2 38 3e c2 f4 45 bd a0 cf 40 3e 60 d1 25 3f
       0.18061224 -0.048329122 0.18829203 0.64772606
000140 40 d4 12 3e cc 8d e2 3d bd cf eb 3d 81 1c bf bc
       0.1433878 0.11062202 0.11514232 -0.023329021
000150 d2 4e 30 3e 57 a5 21 bd de e3 3e 3e f4 e6 53 3d
       0.17217568 -0.03946432 0.18641612 0.051733926
000160 ee 8a a0 3d 55 86 17 3b 00 50 d2 3d c6 04 d4 3e
       0.07838999 0.002312084 0.10269165 0.41409892
000170 58 45 00 3e b0 fa 4c 3d ad 3e 45 3d d8 1e 9b be
       0.12526453 0.05004376 0.048155475 -0.3029697
000180 76 73 39 3e c0 7b 80 3d cc 66 47 3e a8 c7 8b bc
       0.18110451 0.062736034 0.19472808 -0.017062977
000190 3e 14 05 3e 04 75 3c bd 02 dc 4a 3e 36 ae 20 be
       0.12996003 -0.046010032 0.19810489 -0.15691456
0001a0 46 27 10 3e 83 03 e4 3d 33 9b 2d 3d 81 9f 01 bd
       0.14077482 0.11133482 0.042384338 -0.031646255
0001b0 53 8c f8 3d e4 22 97 bd 9d e5 14 3e 62 60 3a be
       0.1213614 -0.07379702 0.14540716 -0.1820083
0001c0 84 f7 21 3e d2 3c 13 bd c6 7c 0f 3e 49 8e c3 bd
       0.15817076 -0.035946675 0.14012441 -0.09548623
0001d0 46 98 45 3e bd 86 d3 3c 05 22 3a 3d 3f c8 85 3e
       0.19296369 0.025821084 0.0454426 0.26129338
0001e0 a8 dc b0 3d 72 b8 63 3c b9 3c dc 3d a6 d4 28 3e
       0.08635837 0.013898956 0.107537694 0.16487369
0001f0 b8 44 18 3e 13 a0 9d 3c c6 ae dc 3d f7 da 45 be
       0.14869964 0.019241368 0.10775523 -0.1932181
000200 8e 65 c4 3d 2d 4c b5 3d aa 4b e4 3d a2 61 bd 3e
       0.095896825 0.0885242 0.11147244 0.3698855
000210 9c cb 2d 3d 58 33 20 3d 6f c7 f2 3d 6c 26 67 bd
       0.042430505 0.039111465 0.11854445 -0.056433126
000220 cc 09 65 3d 78 ce d2 3c 83 63 b1 3d 44 c6 82 3d
       0.055917546 0.025733218 0.086615585 0.063854724
000230 d0 98 2c 3e 47 d8 28 3b 1c ad 22 3e 28 85 59 be
       0.16855168 0.0025763677 0.15886348 -0.21242201
000240 48 87 d3 3d 02 3e fd 3b f4 65 29 3e 67 f1 c0 be
       0.10328537 0.007728339 0.16542798 -0.37684175
000250 30 a0 3b 3e 17 3d 65 bd 8f a5 27 3e 18 8b ce 3c
       0.18322825 -0.055966463 0.1637175 0.02521281
000260 58 12 f2 3d 5f 5a a6 3c ba 3d f0 3d 4a 7a 99 be
       0.11819905 0.020306764 0.117305234 -0.29976112
000270 a4 0c 25 3e cc a7 7b 3d bd 0c 04 3e c7 d6 9b 3e
       0.16118103 0.06143932 0.12895484 0.304373
000280 c4 d5 ba 3d 6c 65 9d bd a0 b6 fd 3c 00 77 8b bd
       0.09122804 -0.0768536 0.030970871 -0.06809807
000290 37 44 91 3d 76 bc 06 bd 1a a9 95 bc 00 ae 66 39
       0.07093089 -0.032894574 -0.01826911 0.0002199933
0002a0 19 92 96 3d 6c e5 96 3c e6 8e 3f bd 18 08 e7 3c
       0.07352085 0.018419944 -0.046767138 0.028202102
0002b0 19 53 88 3d 90 c2 08 bd 40 cb 04 3c b0 af 5c bd
       0.066564746 -0.033388674 0.008105099 -0.053878486
0002c0 ab 23 8f bd 42 95 06 3d b8 fc d2 3c 1a 45 84 bd
       -0.06989225 0.032857187 0.025755271 -0.064584926
0002d0 f2 4f 5f bd c8 1b d8 3c 13 78 61 bd 22 08 88 bd
       -0.0545196 0.026380435 -0.055046152 -0.06642176
0002e0 fa 30 7b 3d da 1a 14 3d 36 3b 56 3d aa 16 6f bd
       0.061326005 0.03615842 0.05230256 -0.058371224
0002f0 3a ad f1 bc 2b 3f 91 bd 82 b0 11 bd 92 4d af bc
       -0.029501546 -0.070921265 -0.03556872 -0.021399293
000300 32 02 2a bd 01 d1 22 bd 28 79 a1 bc 99 1d 0b bd
       -0.041506 -0.039750103 -0.019711092 -0.033963773
000310 54 30 82 3c b7 ac 89 3d 1a 49 42 3d d8 27 49 bd
       0.015892185 0.06722396 0.047432996 -0.049110264
000320 f6 c4 8e bd 91 b2 96 bd 23 88 77 bd 88 a1 98 3c
       -0.06971161 -0.073582776 -0.060432564 0.018631712
000330 94 e5 ea 3c 30 d6 24 3d 03 0d 17 bd f2 15 46 3d
       0.028673925 0.040243328 -0.036877643 0.048360772
000340 f0 76 97 bb 30 39 fd 3c c8 b2 4d bc 88 fd d6 bc
       -0.0046223328 0.030911058 -0.012554832 -0.02624394
000350 26 bc 05 bd 12 6b 7e 3d 00 b2 1c ba dc 2b 9a 3c
       -0.032650135 0.06211383 -0.0005977452 0.018819742
000360 4c c6 86 bd 3c d0 fb 3c 65 d6 94 3d a3 9a 9a 3d
       -0.06580791 0.030738942 0.07267455 0.07549026
000370 f0 40 48 bd d9 63 9c bd 00 23 c1 ba 3a ba 58 bd
       -0.048890054 -0.07636232 -0.0014735162 -0.052911974
000380 0e 14 81 bd 78 61 5a bd 0a 59 e7 bc e1 df 1d bd
       -0.06302653 -0.05331561 -0.0282407 -0.038543586
000390 f0 c5 71 3c b2 38 2a bd 9e 6b a3 bc a8 61 35 3c
       0.014756665 -0.041557975 -0.019948777 0.011070646
0003a0 52 d9 6d bd 5c dc f2 3c e4 3a 03 3d 67 22 32 bd
       -0.05806858 0.029646091 0.032038584 -0.04348984
0003b0 80 db fa bb c8 c0 7d bd ab 2a 0b bd 6f 23 85 3d
       -0.007655561 -0.06195143 -0.03397624 0.06500899
0003c0 4d bf 8a 3d d4 3e 81 bd 01 69 73 bd 87 85 88 3d
       0.06774769 -0.06310812 -0.05942631 0.06666093
0003d0 60 22 2b 3b 68 90 a5 3c 60 64 96 3b c6 bc fa bc
       0.0026113018 0.02021046 0.0045896024 -0.030607592
0003e0 80 9e 49 3b 9f 7c 77 bd c1 e3 86 bd 5e c8 79 3d
       0.003076464 -0.060421582 -0.06586409 0.0609821
0003f0 f9 6a 2c bd 03 fe 96 3d 7c a0 97 bd ee 3b 53 bd
       -0.042094205 0.07372668 -0.07403657 -0.051570825

fc1.bias f4 [128]
000000 d6 94 58 3d e0 0c 91 bd 45 9c b4 3c d9 00 ac 3d
       0.052876316 -0.07082534 0.022047171 0.08398599
000010 a3 e4 09 3e b9 06 0c 3e 09 13 9b 3d 92 07 08 bd
       0.13466124 0.1367444 0.0757199 -0.033210345
000020 0d 83 2a 3d 11 25 d5 3c 55 bf 40 3c c2 69 0c 3e
       0.041628886 0.026018651 0.011764367 0.13712218
000030 9f d6 c9 3c b2 4f 24 3e 95 b3 67 3d 2e 06 35 bd
       0.024638472 0.16046026 0.056567747 -0.044195347
000040 5d f1 c3 bc 0e dc 24 3d e4 d6 1f 3d 26 89 50 bd
       -0.023918802 0.040248923 0.039023295 -0.050912045
000050 ef 95 72 3d 09 a2 8c 3d a1 d7 73 3d ce 2d 38 3e
       0.05922502 0.06866843 0.05953181 0.17986223
000060 3d bd 93 bd 55 fb a3 bd 82 ed 09 3e c3 25 4c bd
       -0.07213829 -0.08006922 0.13469508 -0.0498407
000070 d5 d8 0c 3e 94 df e2 bc b6 c1 52 bd a8 79 15 bd
       0.1375459 -0.027694501 -0.05145427 -0.036492974
000080 96 30 83 3d b0 6e e2 3c 1a d0 88 3d 6c e9 f9 bc
       0.064057514 0.02764067 0.06680317 -0.030506812
000090 2c 1c 75 3d 2f 3d a5 3d 16 0e 48 3d 41 59 67 3d
       0.05984132 0.080683105 0.04884156 0.056481604
0000a0 06 95 aa 3d 86 73 06 3e 9c 62 84 3d 17 86 33 3d
       0.08329205 0.13130006 0.06464121 0.04382905
0000b0 a3 05 05 3e 98 eb 2a bd 77 80 15 3d 85 b0 24 3e
       0.12990431 -0.041728586 0.036499467 0.16082962
0000c0 77 c5 a9 bd 00 57 0b 3d 2c 3f 0d 3e c1 ab 1b 3e
       -0.082896166 0.034018517 0.1379363 0.15202238
0000d0 1f 63 27 3d 0a 47 db 3d 10 74 8d 3c e5 a3 05 bd
       0.040866014 0.10706909 0.017267257 -0.032627005
0000e0 96 c4 8a bd 2d b9 7a bc 11 ed dd 3c 48 77 f9 3d
       -0.06775777 -0.015302938 0.027090581 0.12180954
0000f0 1b 3b f9 3c 8b 68 03 3e 09 5b cd 3d e7 15 58 bd
       0.030423691 0.12832849 0.10027129 -0.052755263
000100 96 7f 0d 3e 7c 79 51 3d 90 fe 17 3d 13 a1 70 bc
       0.13818201 0.051141247 0.037108004 -0.014686841
000110 a1 49 2a 3e b5 11 38 3d e2 c6 c9 3c d4 8f 9e 3c
       0.1662965 0.04493876 0.024630968 0.019355692
000120 bc 2b 38 3d 6a e0 10 bd 5a a1 26 3d 80 d3 1c 3d
       0.044963583 -0.035370268 0.04068122 0.03828764
000130 5b fd 29 bd 2e 4d 53 bd 6d 0f 43 3d 08 9b 95 bd
       -0.041501384 -0.051587276 0.047622133 -0.073049605
000140 f2 09 e1 bc e6 85 c9 bc fa 16 96 3d b9 b4 66 3d
       -0.027470563 -0.02459998 0.07328601 0.056324694
000150 ee 9c db bc 28 b4 77 bd 0d a9 99 bd a6 24 56 3d
       -0.026808228 -0.060474545 -0.07502947 0.052281044
000160 e5 1b 20 bb 04 eb 2d 3c 31 a9 90 bd ab 17 80 bd
       -0.002443069 0.010615114 -0.07063521 -0.06254514
000170 2f bb e9 3d bc 29 ef 3c 36 2e 74 3d 26 d1 65 3d
       0.114126556 0.029194705 0.059614383 0.056107663
000180 be 70 13 bc 5e 90 45 bd da 01 52 bd 14 13 9d bd
       -0.008999048 -0.048233382 -0.051271297 -0.076696545
000190 9a b4 c3 bd b1 0c 24 3e ea 37 9d bd d1 af 94 bd
       -0.095559314 0.16020466 -0.076766804 -0.07260097
0001a0 cd ca 27 bd 05 c1 90 3d 6c c9 85 3e f2 b8 1a 3e
       -0.04096489 0.070680656 0.26130235 0.15109614
0001b0 7c b9 cb bd 30 be 24 3d d0 43 e0 bc f7 d9 78 bd
       -0.09947488 0.04022044 -0.027376086 -0.060754742
0001c0 0b 8e 0b 3e 3b 80 e9 3d cc 12 70 bd 79 3d ab 3c
       0.13628404 0.11401411 -0.058611676 0.020903336
0001d0 96 c6 85 3d 08 2b 86 3d 41 14 a6 bd f9 97 93 3d
       0.06532018 0.06551176 -0.08109332 0.07206721
0001e0 49 d1 4b bd 5c 1b 8b 3d a4 08 21 3e f2 fd cd bc
       -0.049760137 0.06792328 0.15725952 -0.025145505
0001f0 0e 65 0b 3d 2e 66 7f bd c0 67 c1 3d eb 1f 2e 3e
       0.03403192 -0.062353306 0.09443617 0.17004363

fc2.weight f4 [128, 128]
000000 da 5c 2b 3e a4 a1 4a bd 43 1c 21 bd 39 26 16 3c
       0.16734639 -0.04947056 -0.039333593 0.009164386
000010 48 8e 86 3d 3c f1 16 3e 73 fc 38 3e 3b 4c 09 bd
       0.06570107 0.14740461 0.18065052 -0.033519965
000020 ec 15 4f bd 66 c3 9c bd 6e c3 dd bc 50 2f 2c 3e
       -0.050558016 -0.07654457 -0.027070727 0.16814923
000030 31 58 f0 3d e6 f7 26 3e cb cb 38 3e dc 78 79 3d
       0.11735571 0.16305503 0.18046491 0.060906276
000040 5c 67 72 3d 44 ff a4 bd 58 06 2d 3e 73 72 43 bd
       0.059180602 -0.080565006 0.16896951 -0.04771657
000050 da 04 23 bd 08 fc 30 3e ff b2 0e 3e 3a 9d e3 3d
       -0.03979955 0.17283642 0.13935469 0.11113973
000060 1c 41 22 bd 54 dc 73 bd b6 d2 50 3e 68 42 b1 ba
       -0.039612874 -0.059536293 0.2039288 -0.0013523819
000070 6a e0 00 3e 55 1e 15 3c c2 70 b8 3c bb b7 c5 bd
       0.12585607 0.00910147 0.022514705 -0.096541844
000080 07 f6 38 3d a0 24 75 bb a6 25 1e 3d ff aa 94 3d
       0.045156505 -0.0037405863 0.038610123 0.072591774
000090 f9 5f 1d bd 6e 83 08 be 69 6c 10 bb 33 e6 3f bd
       -0.038421605 -0.13331386 -0.0022037274 -0.046850394
0000a0 6d ba 19 3e f9 54 3b 3e d6 f5 b4 3d f2 fe 86 3d
       0.15012522 0.18294133 0.08835952 0.06591596
0000b0 48 27 eb 3d a0 08 73 bd d4 87 01 3d a3 c3 40 3e
       0.11482102 -0.059334397 0.031623676 0.1882463
0000c0 b6 ce 89 bd 2d 19 13 3e 25 4e b8 3d e0 f2 b0 3d
       -0.0672888 0.14365073 0.0899928 0.08640075
0000d0 ed 8d 33 bd 0d 3f 10 3e 94 78 79 bd ba a0 5a bd
       -0.043836523 0.14086552 -0.060906008 -0.053375937
0000e0 e0 0a 49 bd 32 2b 12 bc 88 4c 0f 3e 0e 72 29 3e
       -0.049082637 -0.008921431 0.13994038 0.16547415
0000f0 3b b1 31 3e 6f ba 09 3c 55 42 3f 3e 09 87 70 3d
       0.17352764 0.008406266 0.18677647 0.05872253
000100 98 ba c8 3d 2e 4d c6 ba bb 98 fc 3c 95 a7 bb 3c
       0.09801215 -0.0015129203 0.030834546 0.022907058
000110 55 03 43 3e ca cd b7 3c 23 35 05 3d 7a 35 2b 3d
       0.1904424 0.022436995 0.03252138 0.041799046
000120 e6 34 ab bd 8f 8c a4 bc 88 71 8c bc 87 a4 a7 3d
       -0.08359699 -0.020086555 -0.01714398 0.08185678
000130 95 c6 92 3c e0 ea 3a bc f6 36 d8 3d ce d6 8c 3d
       0.017916957 -0.011408538 0.10557358 0.06876908
000140 8d 7e 80 bd e8 ec db 3b 14 c1 25 3e ba a4 aa 3d
       -0.06274138 0.006711591 0.16186935 0.083322
000150 b9 27 63 3d 9a 6c ca 3c ca 82 08 3d 07 aa 02 3d
       0.055457804 0.024709988 0.033327855 0.031900432
000160 4a 91 c7 bd b7 b5 fa 3d db b5 79 3b d8 4d 29 bd
       -0.097445086 0.122416906 0.003810278 -0.041334003
000170 2f 05 33 3e 9c e7 85 bd 23 7b ad 3d 80 88 a6 ba
       0.17482446 -0.065383166 0.08470752 -0.0012705475
000180 40 51 43 3c 9e f5 97 bc 73 c7 81 bd e2 83 ea bc
       0.011921227 -0.018549737 -0.0633687 -0.02862734
000190 83 74 49 bd 8e 92 81 3d 43 e8 b3 bd 89 68 c6 3c
       -0.04918338 0.06326781 -0.08784535 0.024219768
0001a0 10 29 38 3d de db a9 bd 78 2d 66 3d 1b 08 5d 3d
       0.044961035 -0.082938895 0.056195706 0.053962808
0001b0 51 ad 2f bd f5 11 12 3e 89 81 b3 3d 08 71 59 bc
       -0.042889897 0.14264663 0.08764941 -0.013271578
0001c0 ed 3a 2b 3d fa d4 71 3d 5c e1 6d bd f4 dd ef 3d
       0.041804243 0.059041 -0.058076248 0.11712256
0001d0 b7 43 23 3e 10 38 35 3d 54 d4 c3 bb b9 fc 0d 3e
       0.159438 0.04424292 -0.005976239 0.13865937
0001e0 c0 3d eb bc 13 62 ee 3d be 2c 83 3d fb c2 8d 3d
       -0.028715968 0.116398 0.06405018 0.06921955
0001f0 4b 3a 0c 3d 42 8b 89 3d 61 10 11 3e e3 26 ad 3d
       0.03423528 0.067160144 0.14166404 0.08454683
000200 13 d4 83 3d 5e 9a b0 bd f7 e3 b1 3d dc d7 58 3d
       0.06436934 -0.08623193 0.08686059 0.052940235
000210 e3 b8 15 3d 90 ce 3e 3c 74 7b 3f bd 70 28 a0 3b
       0.036553275 0.011645928 -0.046748593 0.004887633
000220 d0 4d f2 3c af ba 80 bd 62 f2 4b 3d 40 63 b3 bd
       0.02957812 -0.06285607 0.0497917 -0.08759165
000230 5f c2 82 bd 96 3f 65 bc cc 1e ae bd a0 d6 ca 3c
       -0.063847296 -0.013992211 -0.08501968 0.024760544
000240 ef d5 9f 3d 6e 1e 53 3d d2 6a 57 bc f5 2b 99 3d
       0.078044765 0.051542692 -0.013148027 0.07479087
000250 23 8a 82 bd 42 d0 b9 bd 98 55 bd 38 99 3c 71 3d
       -0.06374004 -0.09072925 9.0281654e-05 0.05889568
000260 6c 7d cf 3c 25 37 97 bd 35 7c b2 bd 74 e7 dd 3c
       0.02532836 -0.07383565 -0.08715097 0.027087905
000270 61 18 8e 3d 81 d6 60 bd 5c bb 31 bd 84 b4 36 bd
       0.06938244 -0.054892067 -0.04339157 -0.044605747
000280 a3 31 5c bd 5f 1e 22 bd 17 9a ba bd a4 0d 9e 3c
       -0.053758275 -0.039579745 -0.091114216 0.019293614
000290 aa 90 20 3d 0c 07 ba bc cc 15 c3 3c d8 40 07 bd
       0.039200462 -0.022708438 0.023814104 -0.033020824
0002a0 3a 38 eb 3a 9d 28 85 bd 50 18 a4 bb 65 be 97 3d
       0.0017945834 -0.06501887 -0.005007781 0.07409362
0002b0 a6 a8 81 3d b6 38 66 3d 9a d0 7a 3d 7b 32 5f 3d
       0.06330995 0.056206428 0.061234094 0.0544915
0002c0 8b f0 93 3d 3b f5 25 3d 58 53 e3 bb db 53 31 bd
       0.07223614 0.040517073 -0.0069374256 -0.04329286
0002d0 7f f9 22 bd 54 92 91 bd 6d 6e 9f 3d c6 b0 97 bd
       -0.03978872 -0.07107988 0.07784734 -0.07406764
0002e0 88 9e 10 3c e0 9b 75 3d dc 8f 39 3d e4 cb 67 bd
       0.008826859 0.059963107 0.04530321 -0.05659093
0002f0 92 7e 44 bc cc 6a 65 bd e0 a1 42 3d 6e 37 34 3d
       -0.011993067 -0.056010053 0.047517657 0.043998174
000300 ea a6 c0 3c 72 cb 13 3d 2b 7a 97 3d f8 4c 0c 3c
       0.02351709 0.036082692 0.073963486 0.008563273
000310 f7 2b d3 b9 7f 07 d6 bb 9f d3 ad 3d 10 34 1a 3c
       -0.00040277813 -0.0065316553 0.08487629 0.009411827
000320 26 6d fb bc 28 ae 31 bc 5f fa 48 bd 12 4d 1d 3a
       -0.030691694 -0.010844745 -0.049066897 0.0006000559
000330 6c 98 7b bd 25 1e 49 bd 41 89 13 3d b4 23 dc bc
       -0.061424658 -0.049101014 0.036019567 -0.026872493
000340 36 48 9d bd 56 1c 05 bd 11 43 7e 3d ca cf 62 bd
       -0.07679789 -0.032497726 0.06207568 -0.055373944
000350 16 60 87 bd 0a 00 5c 3d 12 f6 79 3d e2 12 e0 3c
       -0.06610124 0.053710975 0.061025687 0.027352754
000360 72 cd 79 3d fd e3 0f bd 02 9f 69 3d 7c 79 9e 3c
       0.060986944 -0.035129536 0.057036407 0.019345038
000370 05 ce cb bc a0 70 27 3c b7 9a 60 3c e8 b5 30 3c
       -0.024878511 0.010219723 0.013708762 0.010785557
000380 3b 2f 90 3d 00 13 e5 bb 33 38 14 bd e5 23 a9 3d
       0.070402585 -0.0069907904 -0.03618641 0.082587995
000390 28 39 c4 bc c0 fc c0 ba 51 a5 07 bd af 46 21 bd
       -0.023953035 -0.0014723763 -0.033116642 -0.03937405
0003a0 90 7d 4f 3c 32 21 2f 3d 62 21 b4 bd e0 f3 a1 bd
       0.012664214 0.042756267 -0.0879543 -0.079078436
0003b0 3f 84 93 3d af 37 99 bd cc eb eb 3c 7e 93 e9 bc
       0.07202958 -0.07481324 0.02879896 -0.028512713
0003c0 a3 d8 17 3d 33 cd 87 3d 23 3a 84 3d ee 78 b4 bd
       0.037071835 0.066309355 0.06456401 -0.08812128
0003d0 6b ee 70 bd 79 3e 44 3d a8 bc 1c bc 7d f9 91 bc
       -0.058821123 0.04791114 -0.0095664635 -0.01781916
0003e0 f6 6a 4f 3d f5 4d 97 3b d3 b9 b4 3c c9 04 9e 3d
       0.050639115 0.0046174475 0.022061264 0.077157564
0003f0 21 af 4f 3c ea 8a 77 3d 45 25 be 3b ed 15 c1 bb
       0.012676031 0.060435213 0.0058027827 -0.0058925063

fc2.bias f4 [128]
000000 42 d8 4b 3e 05 4b b0 bd ad 95 ce 3c 3c 14 fe 3c
       0.19906715 -0.08608059 0.025217855 0.031015508
000010 f5 80 8c bd 2d 9e 0a bd ce 28 a8 3d 5a 56 4c 3d
       -0.06860534 -0.033842254 0.08210908 0.04988704
000020 70 f7 79 3c ad 46 2d bd c0 5e e3 3d 19 62 45 bc
       0.015256748 -0.04230373 0.111020565 -0.012047314
000030 a2 77 63 bd 70 d7 8c 3d 0f 1e 26 3e e6 63 e9 3d
       -0.055534013 0.06877029 0.16222404 0.11396007
000040 63 f9 a9 3d 47 28 b8 bd a1 a8 8a 3d 68 1e 56 3c
       0.0829952 -0.08992057 0.06770445 0.013068773
000050 b4 08 f4 bc d0 3f 56 3c 7b 78 3b bd bc c9 4d 3e
       -0.029789306 0.0130767375 -0.045769196 0.20096487
000060 af 8b 59 3e ac c5 92 3c 5b 3f 87 3c 7f 9a 47 bd
       0.21244691 0.017916523 0.016509702 -0.048731323
000070 cd 07 45 bd df 8d b6 3c 0a 52 53 3d ed 74 40 3e
       -0.048103143 0.022284446 0.05159191 0.18794604
000080 f4 61 0e 3d d6 d7 d8 bc 3d a5 4d bd 58 53 ba bc
       0.034761384 -0.026470106 -0.05020641 -0.02274482
000090 7c 76 41 3d cc 3e 95 bd 77 1f 20 3e e9 dc 49 bd
       0.047232136 -0.07287368 0.15637003 -0.049282942
0000a0 c2 10 99 3d d0 87 71 3c 11 57 97 3d 96 a0 2e 3b
       0.074738994 0.014741853 0.073896535 0.002664601
0000b0 39 6c da 3c 63 77 07 3e 2f 1d 02 bc f8 7d 88 3d
       0.026662933 0.13229136 -0.007941528 0.06664652
0000c0 44 9f f8 3d bc 2e b1 bd 89 b3 77 3d 1f 2c f4 3d
       0.121397525 -0.08651492 0.060473952 0.11922478
0000d0 93 2e 81 bc 99 10 b3 3b e6 d4 1c 3d 8d 1f 88 bd
       -0.015769279 0.005464625 0.038288973 -0.06646643
0000e0 36 ad b3 bc 02 2e 66 b9 f1 04 88 bc ad 8b 06 3e
       -0.02193318 -0.00021951649 -0.016603919 0.1313922
0000f0 3e 4b 45 bd 93 97 24 3c 7d 7f 0e bd 4e 43 2e 3d
       -0.04816746 0.010045904 -0.03478955 0.042544656
000100 75 b0 83 3e 80 4f a3 bd f6 ee d1 bc 4f 3b 10 bb
       0.25720564 -0.07974148 -0.02562664 -0.0022008007
000110 6b a4 0a 3d f2 39 16 3d 34 1e 31 3d ef 1c 54 bb
       0.033848207 0.036676355 0.043241695 -0.0032365879
000120 c0 0c 9e bd 9b 7e 78 3d 59 7d 16 3c 8b 87 97 3d
       -0.077172756 0.060667615 0.009185159 0.073989
000130 17 96 ba bd cb 92 d0 ba 50 41 45 3c 5b 13 92 3d
       -0.091106586 -0.0015912888 0.0120394975 0.07132598
000140 3f ed 3f bd 9a e3 2b bd c4 5b 14 3d e4 dc 8a 3d
       -0.046857115 -0.041965105 0.036220327 0.06780413
000150 d1 ce 85 3d 69 62 33 3b a3 93 17 3e 1a a6 42 bc
       0.06533588 0.002737189 0.14802413 -0.011880422
000160 63 5d 3a 3c 43 55 04 3d 44 34 77 bd 35 3c ea 3d
       0.011374804 0.032307874 -0.06035258 0.11437265
000170 a9 4f 88 bd 88 89 01 3e 53 8d 8c bc 4b 48 a8 bd
       -0.06655819 0.1265012 -0.017157232 -0.08216914
000180 87 67 5a 3e 56 9f 53 bc 95 fc ba bd a8 4e 4b 3e
       0.21328555 -0.012916407 -0.091302074 0.19854224
000190 55 e4 63 bd ea 1d 5a 3d 88 ce 37 bc 51 28 9b bd
       -0.055637676 0.053251185 -0.0112186745 -0.07576049
0001a0 a6 fc dd bc 49 ea ab bd 42 e1 94 3d 11 ea 25 3e
       -0.027098011 -0.08394296 0.07269527 0.1620257
0001b0 a3 6a f1 bc ee 6a 97 bc da 7b e6 bc a5 2e 70 3c
       -0.029469794 -0.018483605 -0.028135229 0.014659558
0001c0 6b 9d d2 3d 7d 79 29 3d 99 58 84 3d ea 56 1f bd
       0.10283931 0.041375626 0.06462211 -0.038901247
0001d0 3c ee 7a 3d 4f 6a e8 bb 73 75 a1 3d cb f5 44 bd
       0.061262354 -0.007092751 0.0788373 -0.04808597
0001e0 5b 8f d5 3d f2 3c c6 3d 8d a1 19 3c dc ef e9 3d
       0.104277335 0.09679593 0.009376896 0.11422703
0001f0 cc eb 2a bd d9 9a 32 bc ca be ac bd 18 ad 0f 3e
       -0.04172878 -0.010901176 -0.084348276 0.14030874

out.weight f4 [41, 128]
000000 15 d7 07 3e 08 d2 a3 bc 5b 7c a0 bd a2 91 51 3d
       0.13265641 -0.019997612 -0.07836219 0.051164277
000010 f2 13 63 3d 60 eb 86 bc 80 bc c4 ba 60 a3 31 bc
       0.055438943 -0.016469657 -0.0015009791 -0.010842174
000020 88 ba 28 3c c0 e1 87 bb b8 c8 13 3e a8 59 a7 bc
       0.010298379 -0.0041467845 0.14432037 -0.020428494
000030 28 19 e6 bc 32 9c 31 3e 49 d2 2f 3e a2 fc 1b 3c
       -0.028088167 0.1734474 0.17170061 0.009520682
000040 c9 76 f5 3d c9 32 06 3e fa 07 1a 3d 88 f2 a4 3d
       0.11985547 0.1310531 0.037605263 0.08054072
000050 d2 54 e1 bc 78 84 6e bd 79 fc 97 bd 0e 25 77 3c
       -0.027506266 -0.0582318 -0.07421202 0.015084518
000060 8e 06 ee 3d 9a 54 9e bd cb 96 c3 3d 76 53 19 3d
       0.11622344 -0.0773098 0.09550246 0.03743311
000070 7e 11 61 3d 6e 5a 01 3d 4a 15 7f bd 19 90 dc 3d
       0.054948322 0.03158038 -0.062276162 0.10769672
000080 96 bf d7 3d 82 d0 09 3d 3c d3 75 bd 11 89 95 3d
       0.10534589 0.033646114 -0.060015902 0.07301534
000090 35 15 3d 3e a0 88 2e bc a0 c9 46 3d a8 5c 58 bd
       0.18465121 -0.010652691 0.04853213 -0.05282274
0000a0 33 75 4f bd 2d a2 93 3d f7 53 80 3d f2 63 98 3d
       -0.05064888 0.07208667 0.06266015 0.07440938
0000b0 eb b2 5d 3e 8f d7 71 3c a3 af 81 3d 03 8d 9c 3d
       0.21650283 0.014760866 0.06332328 0.07644083
0000c0 20 da e7 3d f0 5e 43 bc 99 c0 b2 3d 29 90 f1 3d
       0.11320901 -0.01192449 0.08728141 0.117950745
0000d0 bc 87 97 bd c0 96 0c 3d c6 8f 94 3d 1c 04 e9 3c
       -0.07398936 0.034323454 0.07253985 0.028444342
0000e0 27 7f 1f bd 59 c6 96 3d 93 3b 0f bd c2 82 2e 3e
       -0.03893962 0.073620506 -0.034968924 0.17042068
0000f0 a3 a1 2c 3e 2e 31 89 3d 53 e2 97 3d 1d 46 af bd
       0.16858535 0.066988334 0.07416215 -0.08558295
000100 92 36 ff 3c 72 54 40 3d 6c 5b 47 bd 88 d1 30 bc
       0.03115395 0.046955533 -0.04867117 -0.010792144
000110 43 ac 84 bd 4e ce 18 3d 20 1e c4 3d ea 48 60 bd
       -0.06478169 0.037306122 0.095760584 -0.054757036
000120 09 ce 8c 3d a0 b2 bc 3b 27 84 90 bd bf 80 90 3d
       0.068752356 0.0057585984 -0.07056456 0.07055806
000130 37 01 e2 3d 6f 07 a5 3d 3c be b6 3c 94 5c 8a bd
       0.11035388 0.080580585 0.022307508 -0.06755939
000140 fe ed 5a 3d 9c e8 37 3e 40 04 f0 3b c3 b0 23 3e
       0.053449623 0.17959827 0.0073247254 0.15985398
000150 24 53 89 3c a8 4a be bc 6f bd ba 3c e0 b3 85 bc
       0.016763277 -0.023228958 0.022795407 -0.016321123
000160 a0 fa 9e bd 38 83 b3 bc f2 27 91 bd 71 1f 07 3d
       -0.07762647 -0.021913156 -0.07087697 0.03298897
000170 68 89 77 3c 86 6c 17 3d 98 08 0f 3d 2b 35 84 bd
       0.015108444 0.03696873 0.034920305 -0.064554535
000180 dd 1c df 3d 94 8f 9d 3d bf 7c 7f bd a3 3f 95 3d
       0.10894177 0.07693401 -0.062374827 0.07287528
000190 8f 95 1f bd 96 80 9f bd 0d e9 ad bd ea 48 2e bd
       -0.03896099 -0.07788198 -0.084917165 -0.042550005
0001a0 b1 e4 96 bd 76 07 2d 3d 71 eb 9c 3d cd 66 e4 3d
       -0.07367838 0.042243443 0.076620944 0.1115242
0001b0 1f 41 89 3d 90 e4 fb 3c 80 57 23 3b b2 0c 8d 3d
       0.06701874 0.030748636 0.002492398 0.06887187
0001c0 b2 8d 3d 3e c0 84 f2 3b 7e 05 a8 bd 02 95 3c bd
       0.18511084 0.007401079 -0.082041726 -0.046040542
0001d0 f9 a6 85 bd fa 70 5e 3d c2 fa 8b bd 80 5e 26 3b
       -0.06525988 0.05430696 -0.06834938 0.0025385916
0001e0 fd 93 e6 3d ab da 3a 3e ba f9 0d 3e 04 f7 3f 3e
       0.11258695 0.18247478 0.13864794 0.18746573
0001f0 2f 54 17 3d ee 50 1f 3d 83 a6 8e 3d 67 de bc 3c
       0.036945518 0.03889554 0.06965353 0.023055268
000200 0f ed 1f 3e 02 86 13 bd c0 c0 b5 bb 7f 9a 92 3d
       0.15617774 -0.03601647 -0.005546659 0.07158374
000210 e4 67 91 bc 70 a7 f6 bc d2 1a 2c 3d b8 28 2e bd
       -0.017749734 -0.030109137 0.042017765 -0.0425193
000220 ab 26 a9 3d cf af b0 3d 7b 94 fb 3d 3a 87 51 3d
       0.082593285 0.08627283 0.1228418 0.051154353
000230 e8 53 76 3c d6 ef 9d 3c e6 e4 e5 3c 9c e8 ff 3d
       0.015034653 0.019279402 0.028063249 0.124955386
000240 09 d2 18 bc 13 22 12 3e 77 8a 95 3d c7 72 4a 3e
       -0.00932742 0.14270811 0.07301801 0.19770347
000250 e0 a0 a8 bd e8 21 a6 3c cb 93 94 bd 0e 00 cb 3c
       -0.082338095 0.02027984 -0.07254752 0.0247803
000260 04 cf 07 3e 9a f1 b1 bd bf e5 8d bc ad af 8d 3d
       0.13262564 -0.0868866 -0.017321466 0.06918273
000270 55 1f a5 3d af 08 82 3d 0b 53 a2 3d 26 ef 35 3e
       0.08062617 0.063493125 0.079259954 0.17767009
000280 5f a3 81 3d 8f 61 90 bd 1c 63 8e 3c 66 75 5e 3d
       0.06329989 -0.07049858 0.017381243 0.05431118
000290 70 80 8c bb 75 f3 99 3d 38 0e d0 3d 26 4b 4a 3d
       -0.004287772 0.07517139 0.10158962 0.049388073
0002a0 20 3d 1c bb a0 d0 6e 3b cf d5 aa bd 4d 57 e2 bb
       -0.0023840144 0.0036440268 -0.08341562 -0.0069073797
0002b0 eb 22 00 bb a8 77 1e 3e bc f3 8a bd f0 c8 13 3e
       -0.0019552063 0.15475333 -0.0678477 0.1443212
0002c0 c3 ee 10 3e 7b 5e 85 bd fc c3 97 bc 03 45 40 3e
       0.1415358 -0.06512161 -0.01852607 0.18776326
0002d0 c1 37 43 bd a8 46 7e 3c 47 a7 dd 3c bc 76 12 3d
       -0.047660593 0.015519775 0.027057303 0.035757765
0002e0 a9 85 a6 bd b0 a0 ca bc e4 37 af 3c 3c 29 0e 3e
       -0.081309624 -0.024734825 0.021388955 0.13882917
0002f0 27 7c 42 3d 2c 91 d5 3d 08 5b 89 bd 60 58 53 bc
       0.047481682 0.1042808 -0.06706816 -0.012899488
000300 0c c0 1d 3e 78 3d 8d bd c1 ac 22 bd 90 82 94 bc
       0.15405291 -0.0689649 -0.039715532 -0.018128663
000310 4e 9c 77 3d ea ad a5 bd 3c 11 5b 3e 5b 21 20 bd
       0.0604518 -0.08089812 0.21393293 -0.03909431
000320 45 83 b4 3d cd a8 69 bd bb 56 8e 3d d1 c5 a2 3d
       0.088141 -0.057045747 0.06950136 0.07947887
000330 06 ae 06 3e 00 d7 f9 b9 e0 a0 24 3c 09 d7 46 bd
       0.13152322 -0.00047653168 0.010048121 -0.048544917
000340 b0 ee 80 3c 4b c9 12 3e 16 18 68 3d 1b fc 86 3d
       0.015738815 0.143346 0.056663595 0.06591054
000350 14 26 f8 bc a8 dc 07 3d ba 64 ba 3d 39 a7 8a 3d
       -0.030291595 0.03316942 0.09101243 0.067701764
000360 e1 23 30 bd c9 bd a1 bd 5d a0 a3 3d 19 08 a0 3d
       -0.043002967 -0.07897527 0.07989571 0.078140445
000370 8a 4d 57 3d f8 85 1e 3e f0 c3 6b bd c0 04 d9 3b
       0.05256418 0.15480793 -0.057559907 0.0066228807
000380 b1 27 3a 3d 18 be 39 3e c1 85 00 bd 3e ea 60 3d
       0.04544801 0.18138921 -0.031377558 0.05491089
000390 34 a7 15 3d 64 94 82 3c 28 d6 1f 3c 60 1b aa bb
       0.03653641 0.015939899 0.009755649 -0.0051912516
0003a0 8c 3c 70 bd 0c eb db 3c c2 6b 18 3d 65 10 f4 3c
       -0.058651492 0.026845478 0.03721214 0.029792974
0003b0 90 2e ce 3c 75 83 91 3d c5 7b a5 3d c1 b1 1a bd
       0.025168687 0.071051516 0.08080248 -0.037767176
0003c0 c8 f0 93 3d 00 24 ad 3a c2 ef 22 3d 1d ec 83 3d
       0.0722366 0.0013209581 0.039779432 0.064415194
0003d0 16 ec 7a 3d 39 e6 a0 3d 48 ea 4f bd 02 32 33 3d
       0.061260305 0.078564115 -0.050760537 0.043748863
0003e0 e5 22 7f 3d 2a fe 97 3d e8 38 d1 bc a6 92 94 3d
       0.062289137 0.07421525 -0.02553983 0.072545335
0003f0 77 bc 57 bd 40 d9 76 bd 50 3e c5 bb c8 94 b4 3d
       -0.05266997 -0.06026578 -0.006019391 0.0881744

out.bias f4 [41]
000000 43 81 09 3e b3 57 12 3d 2f 02 29 3e fc 31 08 3e
       0.13428216 0.035728168 0.16504739 0.13300318
000010 1e b4 2b 3e f6 5c ae 3d 32 32 07 3e 37 b8 47 3d
       0.16767928 0.08513825 0.13202742 0.048759665
000020 71 c3 1c 3e af c2 be 3d c6 8e 8c 3d d8 08 4a 3e
       0.1530893 0.09314477 0.06863169 0.19729936
000030 5c d4 03 3e 20 d5 cc 3d c8 d1 1d 3a 2a 68 df 3d
       0.12873977 0.10001588 0.00060203345 0.109085396
000040 cc de eb 3d 1a a2 52 3e 47 1a 12 3d 7c ae 2a bc
       0.115171045 0.2056965 0.03566959 -0.010417577
000050 34 33 9f 3d 47 93 d2 3d 58 c8 16 3d 2d 6f 14 3d
       0.07773438 0.10281997 0.036812156 0.036238838
000060 97 a3 ef 3d 2f f1 a5 3c 37 5e 22 3e e5 15 16 3e
       0.11701124 0.020256607 0.15856253 0.1465679
000070 1a 57 28 3d 37 6c 26 3c 17 9c 83 3d 9b f7 2b 3e
       0.04109869 0.010157636 0.06426256 0.16793673
000080 ea 90 3a 3c fd 17 e1 3d a3 97 0b 3e b5 e6 c2 3c
       0.011387089 0.109909035 0.13632064 0.02379165
000090 36 bc 0e 3e 18 93 4c 3d e6 01 06 3e 31 2c 92 3d
       0.13938984 0.049944967 0.13086662 0.07137335
0000a0 40 05 3e 3d
       0.046391726

fc1.weight f4 [128, 161]
000000 7c bb 04 3e 1c 83 15 3e 0f 2f 20 3e b2 24 a5 bd
       0.12962145 0.14600796 0.15642951 -0.0806364
000010 bc a7 8a 3d 3e 5d 20 3d c8 00 f1 3d 0f 0b a9 3c
       0.06770274 0.039151423 0.11767727 0.020635156
000020 6a 11 90 3d 40 3b ab 3d 7a 61 2d 3e 29 64 0e be
       0.070345715 0.083609104 0.16931716 -0.13905396
000030 46 32 eb 3d 1c db 4b 3d ec 51 2b 3e 1b 15 02 3e
       0.11484198 0.049769506 0.1673047 0.12703364
000040 10 ed d0 3d 6d f3 c0 3d 09 2b 1d 3d ce 10 56 3e
       0.10201466 0.0942143 0.03837112 0.20904848
000050 4f 78 28 3e 44 3b 06 3d 7b 29 64 3d 5d 97 1f 3e
       0.16452144 0.032771364 0.05570362 0.15585084
000060 ce d3 a5 3d 3b 1f f1 3b 4b 8e 0b 3e ad bb 79 3e
       0.08097039 0.0073584593 0.13628499 0.24387999
000070 59 1e fa 3d d4 2b ee 3d a5 1f ad 3d c5 cf 8b 3e
       0.122128196 0.11629453 0.08453301 0.27306953
000080 34 ff c7 3d c1 01 a0 3d ba a3 4b 3e 50 c2 26 3e
       0.09765473 0.078128345 0.19886675 0.16285062
000090 d8 ac 2f 3e aa 68 2a 3e 08 ac 04 bd 48 10 f9 3b
       0.17155778 0.16641489 -0.032390624 0.007600818
0000a0 80 a5 8f 3d d9 df 87 bc b6 09 69 3e b7 c7 f3 bd
       0.070139885 -0.016586231 0.2275761 -0.11903327
0000b0 6a 22 0f 3d 94 48 ce 3c ae b1 d8 3d 8c 23 a2 3d
       0.03494493 0.025181092 0.10580765 0.07916936
0000c0 f8 ce 5b 3d f0 36 e1 3d 35 9d 16 bb e8 cc 32 3c
       0.053664178 0.109968066 -0.0022981886 0.010913111
0000d0 81 b4 06 3e 81 ac 7b 3c 9a 18 23 3e 1b 6c 84 3d
       0.13154794 0.015360952 0.15927354 0.06465932
0000e0 50 2a ab 3d f8 0d 3d ba 4c 70 b5 3d cc fc 86 3c
       0.0835768 -0.00072118593 0.088593096 0.016477965
0000f0 82 91 db 3d 7e 12 07 3e 7b 4b 00 3e 0e 40 7e 3e
       0.10721113 0.13190648 0.12528794 0.24829122
000100 98 77 cd 3d c8 a8 a2 bd 88 cd 2a 3e 74 91 15 3e
       0.10032576 -0.07942349 0.16679966 0.14606267
000110 53 ec 10 3e 9d a1 b9 bb 0d 95 c7 3d 83 6e d8 be
       0.1415265 -0.0056650178 0.09745226 -0.42271814
000120 91 f1 85 3d 4d 13 9e 3d 10 b9 1b 3e a4 f8 dd 3c
       0.06540216 0.07718525 0.15207314 0.0270961
000130 80 71 31 3e 9e c3 2f bd 5b 8a 35 3e 9e ce 0f 3f
       0.17328453 -0.042911164 0.1772856 0.5617465
000140 56 53 0b 3e 6b 4b df 3d 04 9e d7 3d fe e0 16 3d
       0.13606009 0.10903057 0.10528186 0.036835663
000150 e9 cd 28 3e 4f a2 18 bd 70 36 31 3e e1 b8 c9 bb
       0.16484798 -0.037264165 0.17305923 -0.0061560725
000160 28 89 91 3d cc 06 2c 3b 8b 95 c9 3d 70 6f bd 3e
       0.071062386 0.0026249168 0.09842976 0.36999083
000170 e2 88 f1 3d d0 80 53 3d 39 d6 47 3d 86 86 70 be
       0.117936864 0.051636517 0.048788283 -0.23488817
000180 8d f2 31 3e 92 e3 8f 3d a9 bf 3d 3e 65 7d 58 3a
       0.17377682 0.070258275 0.18530144 0.00082584313
000190 ab 26 fb 3d d1 9b 2b bd 5c 25 3e 3e 44 f0 1f be
       0.12263235 -0.041896645 0.18568939 -0.15618998
0001a0 5d a6 08 3e ca 57 db 3d 16 56 3c 3d fc be c7 bc
       0.13344713 0.10710104 0.045980535 -0.02438306
0001b0 8e 8a e9 3d b3 cd 85 bd 44 a3 09 3e b4 85 06 be
       0.1140338 -0.06533375 0.13441187 -0.13136941
0001c0 9b 76 1a 3e dc 9e e9 bc 90 2f 07 3e fc a1 1b be
       0.15084307 -0.028518133 0.13201737 -0.15198511
0001d0 5d 17 3e 3e f6 4d c0 3c 29 4f 31 3d 4c a9 7d 3e
       0.185636 0.023474675 0.043288384 0.24771613
0001e0 e2 da a1 3d d7 60 88 3c d1 7a c1 3d f7 ab 23 3e
       0.07903077 0.01664774 0.094472535 0.15983568
0001f0 ce c3 10 3e 2a 16 9c 3c 6e 07 c2 3d ee 10 41 be
       0.14137194 0.019053537 0.09474073 -0.18854114
000200 c8 63 b5 3d ea fc b4 3d 87 9a c7 3d 60 04 86 3e
       0.088569224 0.08837302 0.097462706 0.26175213
000210 1a c8 0f 3d e7 39 33 3d 15 48 e8 3d c3 11 85 bd
       0.03510294 0.04375639 0.113418736 -0.064975284
000220 4a 06 47 3d 6b 08 d7 3c 59 ea a0 3d 61 bd 1e 3c
       0.048589982 0.026249131 0.07857198 0.009688706
000230 e6 17 25 3e 3b 89 a8 3b 52 9f 10 3e d5 38 a1 bd
       0.16122398 0.0051433123 0.14123276 -0.07872168
000240 82 85 c4 3d e2 be c2 3b 4b 1c 13 3e 4f 33 a2 be
       0.09595777 0.005943165 0.14366262 -0.3167977
000250 47 1f 34 3e e1 94 3c bd c8 7f 17 3e c7 9c 34 3c
       0.17590056 -0.04604042 0.14794838 0.011023707
000260 92 10 e3 3d 4f cf 94 3c b2 b6 ed 3d 7e d4 8e be
       0.11087145 0.018165259 0.11607112 -0.27896494
000270 ba 8b 1d 3e ac 75 8c 3d 38 9a e8 3d c2 78 82 3e
       0.15385333 0.06858382 0.1135754 0.25482756
000280 fe d3 ab 3d 6c 65 9d bd a0 b6 fd 3c 00 77 8b bd
       0.08390044 -0.0768536 0.030970871 -0.06809807
000290 37 44 91 3d 76 bc 06 bd 1a a9 95 bc 00 ae 66 39
       0.07093089 -0.032894574 -0.01826911 0.0002199933
0002a0 19 92 96 3d 6c e5 96 3c e6 8e 3f bd 18 08 e7 3c
       0.07352085 0.018419944 -0.046767138 0.028202102
0002b0 19 53 88 3d 90 c2 08 bd 40 cb 04 3c b0 af 5c bd
       0.066564746 -0.033388674 0.008105099 -0.053878486
0002c0 ab 23 8f bd 42 95 06 3d b8 fc d2 3c 1a 45 84 bd
       -0.06989225 0.032857187 0.025755271 -0.064584926
0002d0 f2 4f 5f bd c8 1b d8 3c 13 78 61 bd 22 08 88 bd
       -0.0545196 0.026380435 -0.055046152 -0.06642176
0002e0 fa 30 7b 3d da 1a 14 3d 36 3b 56 3d aa 16 6f bd
       0.061326005 0.03615842 0.05230256 -0.058371224
0002f0 3a ad f1 bc 2b 3f 91 bd 82 b0 11 bd 92 4d af bc
       -0.029501546 -0.070921265 -0.03556872 -0.021399293
000300 32 02 2a bd 01 d1 22 bd 28 79 a1 bc 99 1d 0b bd
       -0.041506 -0.039750103 -0.019711092 -0.033963773
000310 54 30 82 3c b7 ac 89 3d 1a 49 42 3d d8 27 49 bd
       0.015892185 0.06722396 0.047432996 -0.049110264
000320 f6 c4 8e bd 91 b2 96 bd 23 88 77 bd 88 a1 98 3c
       -0.06971161 -0.073582776 -0.060432564 0.018631712
000330 94 e5 ea 3c 30 d6 24 3d 03 0d 17 bd f2 15 46 3d
       0.028673925 0.040243328 -0.036877643 0.048360772
000340 f0 76 97 bb 30 39 fd 3c c8 b2 4d bc 88 fd d6 bc
       -0.0046223328 0.030911058 -0.012554832 -0.02624394
000350 26 bc 05 bd 12 6b 7e 3d 00 b2 1c ba dc 2b 9a 3c
       -0.032650135 0.06211383 -0.0005977452 0.018819742
000360 4c c6 86 bd 3c d0 fb 3c 65 d6 94 3d a3 9a 9a 3d
       -0.06580791 0.030738942 0.07267455 0.07549026
000370 f0 40 48 bd d9 63 9c bd 00 23 c1 ba 3a ba 58 bd
       -0.048890054 -0.07636232 -0.0014735162 -0.052911974
000380 0e 14 81 bd 78 61 5a bd 0a 59 e7 bc e1 df 1d bd
       -0.06302653 -0.05331561 -0.0282407 -0.038543586
000390 f0 c5 71 3c b2 38 2a bd 9e 6b a3 bc a8 61 35 3c
       0.014756665 -0.041557975 -0.019948777 0.011070646
0003a0 52 d9 6d bd 5c dc f2 3c e4 3a 03 3d 67 22 32 bd
       -0.05806858 0.029646091 0.032038584 -0.04348984
0003b0 80 db fa bb c8 c0 7d bd ab 2a 0b bd 6f 23 85 3d
       -0.007655561 -0.06195143 -0.03397624 0.06500899
0003c0 4d bf 8a 3d d4 3e 81 bd 01 69 73 bd 87 85 88 3d
       0.06774769 -0.06310812 -0.05942631 0.06666093
0003d0 60 22 2b 3b 68 90 a5 3c 60 64 96 3b c6 bc fa bc
       0.0026113018 0.02021046 0.0045896024 -0.030607592
0003e0 80 9e 49 3b 9f 7c 77 bd c1 e3 86 bd 5e c8 79 3d
       0.003076464 -0.060421582 -0.06586409 0.0609821
0003f0 f9 6a 2c bd 03 fe 96 3d 7c a0 97 bd ee 3b 53 bd
       -0.042094205 0.07372668 -0.07403657 -0.051570825

fc1.bias f4 [128]
000000 55 91 3a 3d e0 0c 91 bd 45 9c b4 3c 98 bd a2 3d
       0.045548756 -0.07082534 0.022047171 0.079463184
000010 df 0b 03 3e 4f 97 05 3e c8 c1 91 3d 92 07 08 bd
       0.12797497 0.13046001 0.07117039 -0.033210345
000020 0d 83 2a 3d 11 25 d5 3c 55 bf 40 3c 4f bc 05 3e
       0.041628886 0.026018651 0.011764367 0.13060115
000030 3d 99 9b 3c 7c 7c 1d 3e 12 92 4e 3d 2e 06 35 bd
       0.018993968 0.15379518 0.050432272 -0.044195347
000040 5d f1 c3 bc 0e dc 24 3d f8 74 01 3d 26 89 50 bd
       -0.023918802 0.040248923 0.03160569 -0.050912045
000050 ef 95 72 3d 5a 68 81 3d 13 c3 56 3d 37 b0 30 3e
       0.05922502 0.063187316 0.05243213 0.1725472
000060 3d bd 93 bd 55 fb a3 bd 81 51 02 3e c3 25 4c bd
       -0.07213829 -0.08006922 0.12726404 -0.0498407
000070 01 c2 07 3e 94 df e2 bc b6 c1 52 bd 3e 6e 8b bc
       0.132576 -0.027694501 -0.05145427 -0.017020341
000080 a6 08 6a 3d b0 6e e2 3c bf 5b 76 3d 6c e9 f9 bc
       0.057137154 0.02764067 0.06014609 -0.030506812
000090 2c 1c 75 3d 2b b0 a1 3d 13 f2 42 3d 41 59 67 3d
       0.05984132 0.078949295 0.04759414 0.056481604
0000a0 29 25 a3 3d 76 ec fd 3d f0 5e 6d 3d 70 2c 17 3d
       0.07966072 0.12398617 0.057951868 0.036907613
0000b0 86 af fb 3d 98 eb 2a bd 77 80 15 3d f7 ae 1d 3e
       0.12289338 -0.041728586 0.036499467 0.15398775
0000c0 77 c5 a9 bd e4 f9 dd 3c 74 5f 06 3e 8e 5b 14 3e
       -0.082896166 0.027096696 0.1312235 0.1448805
0000d0 1f 63 27 3d 4c 93 cc 3d 10 74 8d 3c e5 a3 05 bd
       0.040866014 0.09989032 0.017267257 -0.032627005
0000e0 96 c4 8a bd e4 61 7f bb 09 de a4 3c ec 7f ed 3d
       -0.06775777 -0.003896826 0.020125406 0.11596665
0000f0 61 98 be 3c 4d dc ff 3d 26 f1 bd 3d e7 15 58 bd
       0.02326602 0.12493191 0.09274511 -0.052755263
000100 e0 d3 06 3e 7c 79 51 3d 90 fe 17 3d 13 a1 70 bc
       0.13166761 0.051141247 0.037108004 -0.014686841
000110 c4 42 23 3e c5 89 22 3d e2 c6 c9 3c d4 8f 9e 3c
       0.15943438 0.03968217 0.024630968 0.019355692
000120 bc 2b 38 3d 6a e0 10 bd 5a a1 26 3d 47 23 fe 3c
       0.044963583 -0.035370268 0.04068122 0.03102268
000130 5b fd 29 bd 13 db 1c bd 42 cd 24 3d af 1b 29 bd
       -0.041501384 -0.038294863 0.04023481 -0.041286167
000140 f2 09 e1 bc e6 85 c9 bc e4 82 87 3d 58 91 4e 3d
       -0.027470563 -0.02459998 0.06616762 0.05043158
000150 ee 9c db bc 28 b4 77 bd 0d a9 99 bd f1 79 40 3d
       -0.026808228 -0.060474545 -0.07502947 0.046991292
000160 f7 ef 2e ba eb 49 df 3b 31 a9 90 bd ab 17 80 bd
       -0.0006673331 0.0068142316 -0.07063521 -0.06254514
000170 1f 99 de 3d bc 29 ef 3c d2 fb 58 3d 26 d1 65 3d
       0.10869049 0.029194705 0.05297453 0.056107663
000180 e0 d2 65 bc 5e 90 45 bd da 01 52 bd 14 13 9d bd
       -0.014027327 -0.048233382 -0.051271297 -0.076696545
000190 9a b4 c3 bd bb 52 1e 3e ea 37 9d bd d1 af 94 bd
       -0.095559314 0.15461247 -0.076766804 -0.07260097
0001a0 cd ca 27 bd 05 c1 90 3d b6 e9 82 3e 00 4e 13 3e
       -0.04096489 0.070680656 0.25568932 0.14385223
0001b0 7c b9 cb bd 7b e5 09 3d d0 43 e0 bc f7 d9 78 bd
       -0.09947488 0.033666115 -0.027376086 -0.060754742
0001c0 b4 ba 04 3e 23 9d db 3d cc 12 70 bd 79 3d ab 3c
       0.12961847 0.10723331 -0.058611676 0.020903336
0001d0 2e 60 6f 3d 51 30 6e 3d d4 91 5a bd e9 a0 84 3d
       0.058441333 0.058151547 -0.05336173 0.06476004
0001e0 49 d1 4b bd b8 ea 7a 3d 67 0b 1a 3e f2 fd cd bc
       -0.049760137 0.061259 0.15043412 -0.025145505
0001f0 48 80 e2 3c 2e 66 7f bd 84 d5 b2 3d d9 e1 26 3e
       0.02764906 -0.062353306 0.08732131 0.16297092

fc2.weight f4 [128, 128]
000000 ee 3d 22 3e a4 a1 4a bd 43 1c 21 bd fe e2 6c 3b
       0.15843937 -0.04947056 -0.039333593 0.003614604
000010 19 d3 6b 3d bc d5 0e 3e 52 6e 32 3e 3b 4c 09 bd
       0.057574365 0.1394872 0.17424896 -0.033519965
000020 ec 15 4f bd 66 c3 9c bd 6e c3 dd bc 51 c0 23 3e
       -0.050558016 -0.07654457 -0.027070727 0.15991332
000030 22 9c e0 3d 61 80 1e 3e 30 a6 30 3e dc 78 79 3d
       0.1096728 0.1547866 0.17250896 0.060906276
000040 5c 67 72 3d 44 ff a4 bd fb d7 23 3e 73 72 43 bd
       0.059180602 -0.080565006 0.16000359 -0.04771657
000050 da 04 23 bd 6f b6 29 3e c4 04 06 3e 7e f3 d1 3d
       -0.03979955 0.16573499 0.13087755 0.102515206
000060 1c 41 22 bd 54 dc 73 bd 47 8c 47 3e 68 42 b1 ba
       -0.039612874 -0.059536293 0.19487105 -0.0013523819
000070 9c 48 eb 3d 55 1e 15 3c c2 70 b8 3c 94 6f 8c bd
       0.114884585 0.00910147 0.022514705 -0.06857219
000080 23 71 16 3d a0 24 75 bb 69 3e f8 3c ff aa 94 3d
       0.03672899 -0.0037405863 0.030303197 0.072591774
000090 f9 5f 1d bd 15 03 13 be cd 8f 93 bc 33 e6 3f bd
       -0.038421605 -0.14356644 -0.018012905 -0.046850394
0000a0 5a 3f 13 3e 2c 52 32 3e ab 2c a3 3d 68 26 6a 3d
       0.14379635 0.17414159 0.07967504 0.057165533
0000b0 c8 7a d9 3d a0 08 73 bd d4 87 01 3d 1e c8 37 3e
       0.10619122 -0.059334397 0.031623676 0.17947432
0000c0 b6 ce 89 bd 84 cf 09 3e 0f 7e a8 3d 3e c9 9e 3d
       -0.0672888 0.13458067 0.08227169 0.07753228
0000d0 ed 8d 33 bd 5d fd 06 3e 94 78 79 bd ba a0 5a bd
       -0.043836523 0.13182588 -0.060906008 -0.053375937
0000e0 e0 0a 49 bd 12 f9 08 3c f4 90 06 3e 78 c5 21 3e
       -0.049082637 0.008360164 0.13141233 0.15797985
0000f0 aa 18 29 3e 25 aa 5c bb 1f 40 36 3e 09 87 70 3d
       0.16513315 -0.003367075 0.17797898 0.05872253
000100 56 b5 b7 3d 2e 4d c6 ba bb 98 fc 3c 95 a7 bb 3c
       0.08970134 -0.0015129203 0.030834546 0.022907058
000110 de 5b 3a 3e c7 eb 72 3c 23 35 05 3d 7a 35 2b 3d
       0.18199107 0.0148267215 0.03252138 0.041799046
000120 e6 34 ab bd 8f 8c a4 bc 88 71 8c bc 0f 83 97 3d
       -0.08359699 -0.020086555 -0.01714398 0.07398044
000130 95 c6 92 3c 1e 8a 43 3d aa 45 c6 3d c6 9b 17 3d
       0.017916957 0.04773914 0.09681256 0.03701379
000140 8d 7e 80 bd e8 ec db 3b 65 03 1d 3e 80 d7 99 3d
       -0.06274138 0.006711591 0.15333326 0.075118065
000150 b9 27 63 3d 9a 6c ca 3c ca 82 08 3d 01 a4 c9 3c
       0.055457804 0.024709988 0.033327855 0.024614336
000160 0c d3 b1 bd af 41 ef 3d db b5 79 3b d8 4d 29 bd
       -0.08682832 0.1168245 0.003810278 -0.041334003
000170 1e 97 2b 3e 9c e7 85 bd 47 c2 9d 3d 80 88 a6 ba
       0.16756865 -0.065383166 0.07703071 -0.0012705475
000180 e0 ff 47 bb 9e f5 97 bc 73 c7 81 bd e2 83 ea bc
       -0.0030517504 -0.018549737 -0.0633687 -0.02862734
000190 83 74 49 bd 50 7e 54 3d 43 e8 b3 bd 89 68 c6 3c
       -0.04918338 0.051878273 -0.08784535 0.024219768
0001a0 10 29 38 3d de db a9 bd 04 76 39 3d 6d 0e 3a 3d
       0.044961035 -0.082938895 0.045278564 0.045423914
0001b0 51 ad 2f bd 67 bc 08 3e 89 81 b3 3d 08 71 59 bc
       -0.042889897 0.1335312 0.08764941 -0.013271578
0001c0 e8 07 0a 3d 2e 45 4f 3d 5c e1 6d bd f4 dd ef 3d
       0.033698946 0.050603084 -0.058076248 0.11712256
0001d0 50 ee 1a 3e 8a c5 10 3d b7 68 53 bd dc 11 05 3e
       0.15129972 0.035344638 -0.051613536 0.12995094
0001e0 c0 3d eb bc 01 0b dd 3d 2e 5a 63 3d fb c2 8d 3d
       -0.028715968 0.107931145 0.055505924 0.06921955
0001f0 c9 bd d4 3c 42 8b 89 3d a8 d7 08 3e 51 61 9b 3d
       0.025969403 0.067160144 0.13363516 0.07586921
000200 13 d4 83 3d 5e 9a b0 bd f7 e3 b1 3d dc d7 58 3d
       0.06436934 -0.08623193 0.08686059 0.052940235
000210 e3 b8 15 3d 90 ce 3e 3c 74 7b 3f bd 70 28 a0 3b
       0.036553275 0.011645928 -0.046748593 0.004887633
000220 d0 4d f2 3c af ba 80 bd 62 f2 4b 3d 40 63 b3 bd
       0.02957812 -0.06285607 0.0497917 -0.08759165
000230 5f c2 82 bd 96 3f 65 bc cc 1e ae bd a0 d6 ca 3c
       -0.063847296 -0.013992211 -0.08501968 0.024760544
000240 ef d5 9f 3d 6e 1e 53 3d d2 6a 57 bc f5 2b 99 3d
       0.078044765 0.051542692 -0.013148027 0.07479087
000250 23 8a 82 bd 42 d0 b9 bd 98 55 bd 38 99 3c 71 3d
       -0.06374004 -0.09072925 9.0281654e-05 0.05889568
000260 6c 7d cf 3c 25 37 97 bd 35 7c b2 bd 74 e7 dd 3c
       0.02532836 -0.07383565 -0.08715097 0.027087905
000270 61 18 8e 3d 81 d6 60 bd 5c bb 31 bd 84 b4 36 bd
       0.06938244 -0.054892067 -0.04339157 -0.044605747
000280 a3 31 5c bd 5f 1e 22 bd 17 9a ba bd a4 0d 9e 3c
       -0.053758275 -0.039579745 -0.091114216 0.019293614
000290 aa 90 20 3d 0c 07 ba bc cc 15 c3 3c d8 40 07 bd
       0.039200462 -0.022708438 0.023814104 -0.033020824
0002a0 3a 38 eb 3a 9d 28 85 bd 50 18 a4 bb 65 be 97 3d
       0.0017945834 -0.06501887 -0.005007781 0.07409362
0002b0 a6 a8 81 3d b6 38 66 3d 9a d0 7a 3d 7b 32 5f 3d
       0.06330995 0.056206428 0.061234094 0.0544915
0002c0 8b f0 93 3d 3b f5 25 3d 58 53 e3 bb db 53 31 bd
       0.07223614 0.040517073 -0.0069374256 -0.04329286
0002d0 7f f9 22 bd 54 92 91 bd 6d 6e 9f 3d c6 b0 97 bd
       -0.03978872 -0.07107988 0.07784734 -0.07406764
0002e0 88 9e 10 3c e0 9b 75 3d dc 8f 39 3d e4 cb 67 bd
       0.008826859 0.059963107 0.04530321 -0.05659093
0002f0 92 7e 44 bc cc 6a 65 bd e0 a1 42 3d 6e 37 34 3d
       -0.011993067 -0.056010053 0.047517657 0.043998174
000300 ea a6 c0 3c 72 cb 13 3d 2b 7a 97 3d f8 4c 0c 3c
       0.02351709 0.036082692 0.073963486 0.008563273
000310 f7 2b d3 b9 7f 07 d6 bb 9f d3 ad 3d 10 34 1a 3c
       -0.00040277813 -0.0065316553 0.08487629 0.009411827
000320 26 6d fb bc 28 ae 31 bc 5f fa 48 bd 12 4d 1d 3a
       -0.030691694 -0.010844745 -0.049066897 0.0006000559
000330 6c 98 7b bd 25 1e 49 bd 41 89 13 3d b4 23 dc bc
       -0.061424658 -0.049101014 0.036019567 -0.026872493
000340 36 48 9d bd 56 1c 05 bd 11 43 7e 3d ca cf 62 bd
       -0.07679789 -0.032497726 0.06207568 -0.055373944
000350 16 60 87 bd 0a 00 5c 3d 12 f6 79 3d e2 12 e0 3c
       -0.06610124 0.053710975 0.061025687 0.027352754
000360 72 cd 79 3d fd e3 0f bd 02 9f 69 3d 7c 79 9e 3c
       0.060986944 -0.035129536 0.057036407 0.019345038
000370 05 ce cb bc a0 70 27 3c b7 9a 60 3c e8 b5 30 3c
       -0.024878511 0.010219723 0.013708762 0.010785557
000380 3b 2f 90 3d 00 13 e5 bb 33 38 14 bd e5 23 a9 3d
       0.070402585 -0.0069907904 -0.03618641 0.082587995
000390 28 39 c4 bc c0 fc c0 ba 51 a5 07 bd af 46 21 bd
       -0.023953035 -0.0014723763 -0.033116642 -0.03937405
0003a0 90 7d 4f 3c 32 21 2f 3d 62 21 b4 bd e0 f3 a1 bd
       0.012664214 0.042756267 -0.0879543 -0.079078436
0003b0 3f 84 93 3d af 37 99 bd cc eb eb 3c 7e 93 e9 bc
       0.07202958 -0.07481324 0.02879896 -0.028512713
0003c0 a3 d8 17 3d 33 cd 87 3d 23 3a 84 3d ee 78 b4 bd
       0.037071835 0.066309355 0.06456401 -0.08812128
0003d0 6b ee 70 bd 79 3e 44 3d a8 bc 1c bc 7d f9 91 bc
       -0.058821123 0.04791114 -0.0095664635 -0.01781916
0003e0 f6 6a 4f 3d f5 4d 97 3b d3 b9 b4 3c c9 04 9e 3d
       0.050639115 0.0046174475 0.022061264 0.077157564
0003f0 21 af 4f 3c ea 8a 77 3d 45 25 be 3b ed 15 c1 bb
       0.012676031 0.060435213 0.0058027827 -0.0058925063
